lightning_logs/version_21/checkpoints/epoch=0-step=1195.ckpt (torch, 37196 bytes, 3 tensors)

model.0.weight f4 [1024, 6]
00000000: 3e91 923e 4bac 56be e600 973e c90c c6be
00000010: 64c1 bcbd bedd 883e a876 443d a86b 273e
00000020: 72dc 1bbe 4c8b 0d3e 1c91 35be c0ca a53e
00000030: 4071 e03d d07a 03be e202 afbe ed90 9abe
00000040: 9298 933e 648d 09be a837 303d 541c 0fbe
00000050: 6e0e 913e 04e0 803e e64f cabe f0d2 8b3e
00000060: 20b3 12bd 24df a73e 241e 433e 617f a5be
00000070: cca0 393e 8885 c93e 78dd 1dbe 805c 433c
00000080: 3431 9abe c0f7 f63b c872 743e 505e 42bd
00000090: d89f 82bd d8a2 cc3e e80b d53d c410 e3bd
000000a0: 808d 87bc 106e 373d 4af1 23be 5012 c13e
000000b0: 2847 b13d 2847 10bd 405f 56bd 5fc0 a1be
000000c0: 68f7 123d 55ef 66be 207c 143e 9afc 8bbe
000000d0: 9467 1d3e 927d 903e 7c0f acbd c3bb 30be
000000e0: e288 c5be 984e 593e 60a6 b1bc d587 4dbe
000000f0: 8410 bdbe b86b ccbd 8713 c8be bc55 cb3e
00000100: d829 90bd 7062 503e 40a5 d03c 7028 88be
00000110: 00ef 203b 92b0 c73e c003 d4bb b0ca 623d
00000120: 30b4 ef3c 5255 aebe 9c56 99bd 2098 a6bd
00000130: 48c6 6e3e 6085 1e3e e0d3 f83d 283f 2a3e
00000140: 58f3 0d3d 0f34 34be 78b1 7dbe a086 bc3c
00000150: c9b0 98be 5435 923d f859 e03d c82c aabd
00000160: aa12 88be 8515 bebe a0de 123e 1750 3cbe
00000170: 97c6 93be 80ed 9e3b 00f2 11bb 10da 79be
00000180: d282 3abe f0fb e73d c19f 52be feaf 3bbe
00000190: 983e f83d cb7f c3be 106c 2c3d a03c a6bd
000001a0: 4012 cebd 84ff f5bd cefe 9a3e c8df a13e
000001b0: 8867 a03e ce89 913e 183f 013e 7e7a 1ebe
000001c0: de78 923e d888 113e a4a0 6f3e 8775 babe
000001d0: d08a 06be 4820 31be d4b6 103e 88d8 3c3e
000001e0: f03e 6a3e e0ce c8be 59a6 87be 200a 4c3e
000001f0: 9218 adbe 7c1c 383e 69de cabe ce92 3abe
00000200: 30b1 c53e cea7 03be c058 98bb e828 62be
00000210: 7c47 d8bd 943e 273e ec57 d03e 40c4 6dbd
00000220: aca1 aa3e 48bd 953e c4fc b6be 9231 b33e
00000230: 41a0 47be 9012 77bd 0870 55be 827a 87be
00000240: 085e e0bd 4cfe 183e 18cf 1d3e a8a2 243e
00000250: 3804 433e 5ebf ae3e 600e 423e d75b 77be
00000260: 4c49 833e fb6a bdbe 7c4f 6d3e b069 bfbe
00000270: 6888 143d 901e e8bd 3cc8 a6be 123e 853e
00000280: 6cad 03be 18e5 d03d bc53 9f3e ace4 9d3d
00000290: 52a2 9abe 562d c13e 3c2b f4bd 8408 3e3e
000002a0: dc74 833d 6cfc ad3d 50ad 05bd 0c54 823e
000002b0: 74b4 b5bd 20b4 ef3d 988a 5c3d 4851 e1bd
000002c0: 7082 82bc fe09 82be 631c 5fbe 7e29 85be
000002d0: 2036 983d 2208 a83e e4fb 81bd 52a3 46be
000002e0: 9025 ef3d 086f a73e a890 1d3e 3099 3abd
000002f0: ecfa 593e 48bd cdbd aa29 0fbe d03d 9b3e
00000300: a476 84bd 00fa 453a d045 453e c03e 703e
00000310: 2057 6cbe eef0 9ebe e437 bb3e 6cb3 9dbe
00000320: eca5 ac3e c61c c93e 7bec cebe 5ec6 00be
00000330: 4cb8 223e 004d 18bd c9be 80be 0083 67bc
00000340: 400d 9abd 805b c03e a017 633e d22b a8be
00000350: ecab 6e3e 86dd 40be e0c4 223c 1d84 70be
00000360: 0c0a 283e 307d 4fbd 10fd bebd 9eb7 cf3e
00000370: 4344 c6be b0d9 1d3d b2cb a2be 84d2 723e
00000380: f26a 40be d9b9 62be a18d 35be 4ed0 1cbe
00000390: f776 b2be f0dc c63e 2d3d 5abe 4863 69be
000003a0: a060 d33c 5059 aabd c475 aabd e8f1 da3d
000003b0: 3ee0 bf3e 701e a33d 8461 a7bd e859 3abe
000003c0: 87bc cbbe 6c73 63be 0bdf 99be c068 4bbd
000003d0: 4855 4d3e c4dc a4be 2a8f b5be 24df 393e
000003e0: 5fe2 a7be c6c9 6ebe 0854 193e 59aa 4fbe
000003f0: 2ace b2be 5af5 cabe 1474 f4bd ecd4 9fbd
0.28626436 -0.20964162 0.29492873 -0.3868163 -0.09216574 0.26731676 0.047964722 0.16349661
-0.15220812 0.13822669 -0.17731136 0.32381248 0.10959101 -0.12839818 -0.34181887 -0.30188695
0.2882734 -0.13432842 0.043021828 -0.1397565 0.2833132 0.2517091 -0.39514083 0.2730937
-0.03581536 0.3278743 0.19054466 -0.32323745 0.18127745 0.3935969 -0.15416515 0.011923909
-0.30115664 0.0075368583 0.2387191 -0.047453225 -0.06378144 0.3996799 0.104026616 -0.11087182
-0.016546965 0.0447827 -0.16010013 0.37709284 0.0865615 -0.03522411 -0.05233693 -0.3159208
0.035880476 -0.22552235 0.14500475 -0.27341157 0.15371543 0.28220803 -0.08401391 -0.17259125
-0.38580996 0.21221387 -0.02168578 -0.20071347 -0.36926663 -0.09981483 -0.39077398 0.39713848
-0.07039231 0.20350051 0.025469422 -0.2659335 0.0024556518 0.390019 -0.0064701736 0.05536908
0.029260725 -0.3404947 -0.074872226 -0.08134484 0.23317826 0.15480566 0.12149787 0.16625655
0.0346559 -0.17597984 -0.2477473 0.023013413 -0.29822376 0.07139078 0.1095466 -0.083093226
-0.2657674 -0.37125793 0.14342737 -0.18389927 -0.2886245 0.0048500896 -0.0022269487 -0.2439959
-0.18213966 0.1132735 -0.20568754 -0.18328854 0.12121314 -0.38183436 0.042095244 -0.08117032
-0.10062075 -0.12011626 0.30272526 0.31616044 0.31328988 0.2842545 0.12621725 -0.15476415
0.2860784 0.14212358 0.23401123 -0.3641779 -0.1313889 -0.1729747 0.14132243 0.18441975
0.22875571 -0.39220333 -0.264941 0.19925737 -0.33807808 0.17979616 -0.3962281 -0.18220064
0.38611746 -0.12856981 -0.0046492517 -0.22085917 -0.105605096 0.16332465 0.4069208 -0.058048487
0.3332647 0.29245973 -0.3573972 0.34998757 -0.19494726 -0.060320437 -0.20843518 -0.26460654
-0.10955435 0.14940757 0.15411031 0.16077673 0.19044578 0.34130377 0.18950796 -0.24156128
0.2564186 -0.36995682 0.23174852 -0.3738532 0.0362629 -0.11333954 -0.32574642 0.26023918
-0.12859124 0.10199946 0.31118572 0.07709631 -0.30201966 0.377299 -0.11922309 0.18557936
0.064187735 0.08495411 -0.032635987 0.25454748 -0.08872309 0.11704278 0.05384311 -0.11001831
-0.015931338 -0.25398248 -0.21788172 -0.2600822 0.074321985 0.32818705 -0.063468724 -0.1939824
0.11677086 0.32701898 0.15387213 -0.045556247 0.21287125 -0.10045868 -0.13980737 0.30320597
-0.064679414 0.00075522065 0.19264913 0.23461437 -0.2308011 -0.3104319 0.3656608 -0.3080095
0.33720338 0.39279765 -0.40414795 -0.12575671 0.15890616 -0.037182808 -0.25145558 -0.014130354
-0.075220585 0.3756981 0.22176981 -0.32845932 0.2330777 -0.18834504 0.009934634 -0.23487897
0.16410083 -0.050656497 -0.093256116 0.40569776 -0.38723955 0.03853768 -0.31796032 0.23713118
-0.18790796 -0.22141208 -0.17729808 -0.15313837 -0.34856388 0.38840437 -0.21312399 -0.22791779
0.02580291 -0.08317816 -0.08323243 0.10690671 0.3747577 0.0796479 -0.081728965 -0.18198359
-0.39792272 -0.22211999 -0.3005298 -0.049660444 0.20052063 -0.3219968 -0.35460788 0.18151528
-0.32789895 -0.23319158 0.14973462 -0.20279826 -0.34922916 -0.39640313 -0.11936203 -0.078042835

model.0.bias f4 [1024]
00000000: 7095 35bd 8ae1 953e ee07 9c3e d239 9cbe
00000010: 9075 423e 3a7d b73e b0fe 943e 4618 54be
00000020: c4ac 763e 88f8 473e 92c5 cc3e 509a 46bd
00000030: de6f bdbe 781f 9abd a8e7 b1be 4aed 953e
00000040: 9b72 63be 58d5 7d3e 5270 7bbe c29d ac3e
00000050: 84af c8be 2862 943d a03f 163d 0474 963e
00000060: 907c c4be 6034 06bc 3388 a7be 8096 853b
00000070: ada4 90be f0c7 bcbc ac9a 7b3e 8dc0 41be
00000080: 628d 32be 82fa 7cbe 7c21 343e 1e0c c83e
00000090: 5cc0 c13e 4cfb 3f3e 709e 4b3e a4f5 803d
000000a0: f287 a7be d214 17be e9c3 ccbe f049 9e3c
000000b0: c4d9 a63e c4f9 b73e 288d 743e 5141 cabe
000000c0: 1826 af3e 40c9 113d 3cf1 af3e 60c9 383d
000000d0: 8082 3f3b 5023 9bbd 5b1f 93be b8e6 433e
000000e0: faac 80be f159 89be 04e9 17be 80f5 bf3e
000000f0: e8b2 d73d 40c8 6d3e efd4 7dbe 7008 fc3d
00000100: 763b 8d3e 3a8d bf3e d4e4 b23e 52f7 8ebe
00000110: 1096 18be fec3 39be 3c7f 8bbd 3ebb b6be
00000120: 003a c43a 1e3e b33e a227 913e 1052 e03d
00000130: 8ac6 bfbe b48f 803e 12b9 8b3e 8cef 2fbe
00000140: c017 bfbd 9c93 933e acc9 d0be 6631 c53e
00000150: 7e1a 9e3e d82e 4c3d 6c37 a5be 62f2 bebe
00000160: 4250 ccbe 50ee a4bd 65cf 9cbe a1e8 3abe
00000170: a8b6 363e 54f7 b4be c671 85be a084 743e
00000180: 98d0 21bd ea52 89be 5a8d c23e a85f 54bd
00000190: b8f8 c0bd ec1e 033e ed53 90be 7a85 ab3e
000001a0: 147b b03d 979f 47be 7f66 64be 00dc 11ba
000001b0: ba54 b73e 1603 9e3e 8094 af3d c06f f63c
000001c0: 1c3d c83e 0c34 1b3e 2c7a c0bd 60c2 2e3e
000001d0: 88af ce3d 145c 9a3e a249 b6be c8a6 61bd
000001e0: 10aa 593e 7861 103e d43e 223e a52f 84be
000001f0: 0090 e33c 20be a93e 0084 a539 50ae a73e
00000200: 9096 f7bd 46bb 9fbe f043 db3d 09c0 22be
00000210: 3c28 0b3e 88d2 afbe 00e4 c4ba 1897 fc3d
00000220: e0e3 183e 56c3 43be 2234 b5be 804c fd3b
00000230: 78a3 44bd c043 c23d 6a48 76be 4829 ecbd
00000240: 3099 513d 3b34 c9be 0877 64be fe63 1bbe
00000250: 63b7 7dbe 106b a73e d0f5 9fbd 90d0 ae3e
00000260: c5d0 9bbe f456 563e e8f6 fd3d a471 aebd
00000270: 88b8 f93d 1007 d83c 14ba 18be 822b be3e
00000280: e229 8a3e e200 a23e 332d cebe 9859 98be
00000290: f736 cebe 5701 c6be b85e 653e c0d5 09bc
000002a0: b82a 963e a416 783e f687 b4be 9c56 91bd
000002b0: 7a66 9b3e 88bd d2bd 388a d03e de3e c43e
000002c0: a094 373e b446 4ebe 0036 b5bc a415 923d
000002d0: bc32 cebe ce1c 65be 557c 61be 6092 bfbc
000002e0: 78a1 243e a42d 42be 4d3b 9cbe a870 c23d
000002f0: 8cac 99bd fc23 4b3e 3463 8f3e a0b6 bdbd
00000300: ccd1 453e 1c83 f9bd 74a3 9f3e 2ebc 6cbe
00000310: 4473 733e 6220 9e3e 0c8c 413e 5cb3 473e
00000320: f0fb ce3e 6ed9 c2be 84e4 ddbd e40c 4f3e
00000330: 0eaf 5ebe 86ea a9be f48a 19be 9a0f b4be
00000340: e8dc cd3d 70b2 d93d c6a6 843e f849 393d
00000350: 3829 13be c45a acbd 44e4 ac3e 2a82 afbe
00000360: b3fe 50be 10f6 e1bd e050 34bc 2e26 02be
00000370: b80e aebe 48b9 783e 24fe b6bd 488d 11be
00000380: e017 33bc fce6 8a3e 00ca 403c 4893 653e
00000390: 90ef 50bd 37c5 4bbe 378d d0be 600d 883e
000003a0: 9c27 b0be 3493 8f3d b827 1cbd bcdc 96be
000003b0: 6073 173c 6b81 2cbe 1230 0dbe e6b7 c53e
000003c0: a449 193e 6ea9 a13e 4172 88be 525f c53e
000003d0: 0f81 94be 2804 56bd 0417 163e ccf3 0a3e
000003e0: 7680 cebe 2875 3c3d 0003 b9bd 982e 2a3e
000003f0: 48c1 4dbd c014 863e 0c39 2e3e beb1 ba3e
-0.044331968 0.29273635 0.304748 -0.30512863 0.18990159 0.35837728 0.2910056 -0.20712385
0.24089342 0.19528401 0.39994484 -0.048487008 -0.3699941 -0.075255334 -0.34747052 0.292826
-0.22211687 0.24788415 -0.24554566 0.3371411 -0.39196408 0.07245284 0.03668177 0.29385388
-0.38376284 -0.008191198 -0.327211 0.004076779 -0.28250638 -0.023044556 0.24570721 -0.18921109
-0.17436746 -0.24704936 0.17590898 0.39071745 0.3784207 0.18748206 0.19884658 0.06296852
-0.32720906 -0.14754036 -0.39993218 0.019322366 0.32588017 0.35932744 0.23881972 -0.39502957
0.3420875 0.035592318 0.34363735 0.04511392 0.0029222071 -0.07575095 -0.2873486 0.19130981
-0.2513197 -0.26826432 -0.14834982 0.3749199 0.105321705 0.2322092 -0.24788259 0.12306297
0.27584428 0.37412435 0.34940207 -0.27923065 -0.14900994 -0.18141171 -0.068113774 -0.3568973
0.0014970899 0.3500833 0.2835055 0.10953152 -0.3745616 0.25109637 0.27289635 -0.17181224
-0.09330702 0.28823555 -0.40778863 0.3851425 0.30879587 0.04984936 -0.32268846 -0.37294298
-0.39904982 -0.08053267 -0.3062698 -0.18252803 0.17843115 -0.35344946 -0.26063365 0.23878717
-0.03950557 -0.2682107 0.37998468 -0.051849037 -0.09422439 0.12804765 -0.2818903 0.33500272
0.08617225 -0.19494472 -0.22304724 -0.00055640936 0.3580683 0.3086173 0.08573246 0.030082583
0.39109123 0.15156573 -0.093983024 0.17066336 0.10092074 0.30148375 -0.35603052 -0.055090696
0.2125628 0.14099681 0.1584428 -0.258176 0.027778625 0.33152866 0.000315696 0.32750177
-0.120892644 -0.31197566 0.107063174 -0.15893568 0.13589567 -0.3434031 -0.0015021563 0.12333506
0.14930677 -0.19117483 -0.35391337 0.007730067 -0.04800746 0.094855785 -0.24051061 -0.11531311
0.05117148 -0.3929766 -0.22311032 -0.15174863 -0.24776988 0.3269887 -0.07810557 0.34143496
-0.30432716 0.20931607 0.12400609 -0.08517769 0.121934 0.026370555 -0.14914733 0.3714257
0.2698508 0.316413 -0.4026886 -0.29755855 -0.4027631 -0.38672897 0.22399414 -0.008412778
0.29329467 0.24227387 -0.3525998 -0.070965976 0.3035162 -0.102900565 0.40730453 0.38329214
0.1792779 -0.20144159 -0.022120476 0.07133034 -0.40273082 -0.2237427 -0.22020085 -0.023385227
0.1607722 -0.18962723 -0.30513993 0.09494144 -0.07503614 0.19837946 0.28005373 -0.092633486
0.19318312 -0.1218321 0.31179392 -0.2311866 0.23774439 0.3088408 0.1890108 0.19502014
0.40426588 -0.3805651 -0.108346015 0.20219761 -0.21746466 -0.3318674 -0.14994413 -0.35168153
0.100519 0.106297374 0.25908488 0.045236558 -0.14371192 -0.0841575 0.33767903 -0.34278995
-0.2040966 -0.11033261 -0.01100561 -0.12709877 -0.33995605 0.24289429 -0.08935192 -0.14214051
-0.010930985 0.27129352 0.011766911 0.22419465 -0.051009715 -0.1989945 -0.40732738 0.26572704
-0.3440522 0.07010499 -0.038123816 -0.29465282 0.009243816 -0.16846244 -0.13787869 0.38616866
0.14969498 0.31574577 -0.2664967 0.38549286 -0.29004714 -0.052250057 0.14657217 0.13569564
-0.40332383 0.046010166 -0.09033775 0.16619337 -0.050233155 0.26187706 0.17013949 0.36463732

model.2.weight f4 [1, 1024]
00000000: f443 4ebc 381c 9d3b 986b b4bb 08b5 edbc
00000010: 6a1c 943c a895 92bc aaa0 aebc 0000 19b6
00000020: eeaa dd3c e8fa 82bc a489 18bc 009c f53a
00000030: 6693 b43c 401d 23bb 7643 ae3c 4a6b 81bc
00000040: 3487 61bc 66d2 fd3c c89c 4cbc 3876 a83b
00000050: f420 54bc 82e6 863c 5e03 833c 701f 4f3b
00000060: 8039 80bb e8c6 c8bb 0806 ccbb c6b8 e53c
00000070: ecba 65bc ca29 9e3c 98bb 053c 483b 5a3c
00000080: a0d7 2fbb 0c30 babc a8cc 2ebc 3027 163c
00000090: 3e0d a5bc 80bc 4d3c 7013 09bb fc13 15bc
000000a0: 42cc bd3c 008c ff3b 981b 483c 3ce6 1dbc
000000b0: bc19 3bbc a0cb 813b e665 e3bc 40af f8bc
000000c0: 48a8 293c 60d9 a7bb 94a3 64bc 1a7b 83bc
000000d0: 52c4 d2bc 66a3 ab3c 507e 2cbb c2ef e43c
000000e0: a8d1 df3c 6866 5a3c 14c2 f6bc 7ce9 d03c
000000f0: 6019 10bc 5afa cd3c c435 3ebc a663 a33c
00000100: 8ea3 92bc 40ac 4c3b 8497 18bc 4c39 51bc
00000110: 4005 a53a a05c 4dbb 5086 22bc e8a8 debb
00000120: 008b f83a 08cd 403c 5250 9f3c 044d d23c
00000130: 58a5 d0bc 643b 013c 081d 4bbc e84b fd3c
00000140: 40eb 353a bc69 19bc 1cc0 333c 841a 783c
00000150: f03d 363c 1c33 1cbc 1c8e 4cbc ac3f 48bc
00000160: 2654 d13c 92c9 ed3c f01a 76bb d4dd 753c
00000170: b84d 9b3b 2224 b8bc 04be fabc 1645 d6bc
00000180: d298 af3c 4067 5cbb 0444 2a3c 9657 cb3c
00000190: ec32 d33c 643d 923c caea be3c 407f 18ba
000001a0: d87d f6bb 6634 a3bc 60e9 923c ec9a 4fbc
000001b0: 68b7 ed3c 9a38 94bc b078 e7bc c21f b53c
000001c0: 4825 f8bb e8a6 583c bcab c23c aacd cfbc
000001d0: 640a 04bc bc6b 673c 56dd b83c 9842 2dbc
000001e0: ea6c ce3c 7675 a83c f2a1 c2bc 5cbf 753c
000001f0: 008e 50bc 7af7 a6bc 6cfd 5f3c 689f 8e3b
00000200: e041 12bb 98e9 573c d4c5 693c 3c65 7abc
00000210: 4cef a73c 902f bebb 00d0 06b8 a466 593c
00000220: 4a7a b1bc 46af a33c 8af4 a3bc 9853 c63b
00000230: 56fa f5bc 700c 483c ee5f 84bc 3451 27bc
00000240: 6424 7abc 96f3 bfbc 380a f83c 0e7f 81bc
00000250: 3c87 91bc d066 febb 2070 383c 241a f53c
00000260: 40cc 8b3b 18c4 eebc 3089 a93c 7a27 c9bc
00000270: f238 d43c 8051 ccbc d857 53bc 2674 9f3c
00000280: 3e2f c83c 505d 413c 0042 50b9 00f2 423b
00000290: b2ba 86bc 7827 933b a807 da3c 1c23 b8bc
000002a0: 4ea7 e53c 409f 4f3a 6cee b7bc 88e7 88bb
000002b0: 64d7 8abc 68e7 21bc bc23 69bc 1ea8 fa3c
000002c0: 0814 d1bb 78a8 61bc c430 eb3c 8cd0 f03c
000002d0: 3ecb c5bc 4e4e b63c 38fd a83b c4a9 883c
000002e0: ec24 97bc 06f5 cc3c 3008 a8bc 0262 a73c
000002f0: 201b ee3a bca4 683c 26c2 e03c 8e78 86bc
00000300: ecab e9bc 9415 a13c d801 8c3b 00c6 9f38
00000310: 903b f7bc 502e 553c 5c3a 7bbc ae4f a63c
00000320: 00ab 8dbb 105c 13bc ba5b abbc 64dc 7cbc
00000330: 6000 e93c c065 67ba e085 0ebb 0806 f3bb
00000340: 6aa8 b1bc 74bd 28bc 4c3e 253c e0fc d7bb
00000350: f4c3 f1bc a051 90bb 2097 b93c 58a6 00bc
00000360: f0c0 6dbb b055 3cbb 3a19 8ebc a036 0bbc
00000370: e880 823c b647 c6bc bcdc dcbc 404b a9bc
00000380: 78b2 3bbc 7801 e8bc 5a94 ec3c e262 f0bc
00000390: 06f3 ae3c a6e2 813c b01c 02bb b842 9fbb
000003a0: b0f5 5dbb a4af 2cbc b808 383c 58de 1a3c
000003b0: 4e27 b03c 08b9 da3c 7e25 b33c 96ed f7bc
000003c0: 9c33 e9bc d86a adbc 101e 6f3c 0279 92bc
000003d0: 003a f139 94c8 193c ecbc 603c 584e e3bc
000003e0: 3030 78bb 600a f7bc d084 ca3c e6c8 9cbc
000003f0: 52e4 a5bc 206b 3bbc 0099 503a 9617 ad3c
-0.0125894435 0.0047946237 -0.0055059902 -0.029016986 0.018079955 -0.017893627 -0.021316845 -2.2798777e-06
0.027059045 -0.015988782 -0.00931016 0.0018738508 0.022042941 -0.002488926 0.021272402 -0.01579823
-0.013765145 0.030984115 -0.012488551 0.005141046 -0.01294731 0.016467337 0.015992817 0.0031604432
-0.0039131045 -0.006127227 -0.006226305 0.028042208 -0.014021616 0.019307036 0.008162402 0.013319798
-0.0026831403 -0.022727989 -0.010668911 0.009164616 -0.020147916 0.012557149 -0.0020916127 -0.009099003
0.023168687 0.0077986717 0.01221361 -0.009637412 -0.01141971 0.0039610416 -0.02775855 -0.030357003
0.010355063 -0.0051223487 -0.013955016 -0.01604991 -0.025728378 0.020951938 -0.0026320405 0.027946357
0.027321652 0.01333008 -0.03012184 0.025501959 -0.008795112 0.025143791 -0.011609498 0.019944977
-0.017900255 0.0031230599 -0.009313468 -0.012770008 0.0012590066 -0.0031335726 -0.009919718 -0.0067950375
0.0018962324 0.011767633 0.01944748 0.02567149 -0.025469467 0.007887695 -0.012397058 0.030919984
0.0006939657 -0.009363588 0.010971095 0.015143041 0.0111231655 -0.00953367 -0.012485053 -0.012222212
0.02555282 0.02902678 -0.0037552677 0.015006501 0.0047394894 -0.022478167 -0.030608185 -0.02615599
0.021435175 -0.0033630878 0.010392193 0.024822038 0.025781117 0.017851539 0.023305316 -0.00058173016
-0.007522326 -0.019922446 0.017933547 -0.012671214 0.029018119 -0.018093396 -0.02825579 0.02210987
-0.0075728036 0.013223387 0.02376353 -0.025366623 -0.008059118 0.014124807 0.022566479 -0.010574959
0.025198419 0.020563822 -0.023758862 0.014999237 -0.012729168 -0.020381678 0.01367126 0.004352499
-0.0022317097 0.013178252 0.014268357 -0.015282925 0.020499848 -0.0058040097 -3.2141805e-05 0.0132691
-0.021664757 0.019981038 -0.020014066 0.0060524456 -0.030026596 0.012209997 -0.016159024 -0.010212231
-0.015267465 -0.02343158 0.03027831 -0.015807655 -0.01776468 -0.007763721 0.011257201 0.029919691
0.004266292 -0.02914624 0.020695299 -0.024554957 0.02590606 -0.024941206 -0.012899362 0.019464564
0.02443659 0.011802033 -0.00019861013 0.0029746294 -0.016446445 0.004490789 0.026614979 -0.022477679
0.028033879 0.00079201534 -0.022452556 -0.0041779913 -0.01694841 -0.009881832 -0.014229711 0.030597743
-0.0063805617 -0.013773076 0.028709777 0.029396318 -0.024144765 0.022254135 0.005157139 0.016682513
-0.018450223 0.02501918 -0.020511717 0.020432476 0.0018166043 0.014199432 0.027436327 -0.016414907
-0.028524362 0.01966361 0.0042726807 7.618591e-05 -0.030179769 0.01301153 -0.015333738 0.020301666
-0.0043233633 -0.008994117 -0.020917762 -0.015433405 0.028442562 -0.00088271126 -0.0021747276 -0.0074164905
-0.021686751 -0.010299075 0.0100856535 -0.0065914243 -0.029512383 -0.0044042617 0.02265507 -0.007852159
-0.003627833 -0.0028737597 -0.017346013 -0.00849691 0.015930608 -0.024204116 -0.026960723 -0.020665765
-0.0114561245 -0.028321013 0.028879333 -0.029344026 0.021356117 0.015855145 -0.0019853525 -0.0048602484
-0.0033868365 -0.010539923 0.011232547 0.009452425 0.021503117 0.026699558 0.021868464 -0.030264657
-0.028466992 -0.021169111 0.01459457 -0.017879967 0.00046010315 0.0093862 0.0137169175 -0.027747318
-0.003787052 -0.030156314 0.024721533 -0.019138765 -0.020250473 -0.011439115 0.0007957369 0.02112941
