lightning_logs/version_29/checkpoints/epoch=9-step=750.ckpt (torch, 20812 bytes, 3 tensors)

model.0.weight f4 [512, 6]
0.31212157 0.3388493 -0.095641345 0.37502152 -0.08944866 0.08238071 -0.19875774 0.23975712
0.35988837 -0.29950243 0.35484785 0.07640746 0.30161744 0.0552893 0.1968525 -0.057641
0.31471282 0.06034273 -0.1905866 0.10406178 -0.18809494 -0.047876447 -0.16581345 0.27082008
-0.32225904 -0.18820669 -0.11527902 -0.24546847 0.03853175 -0.40321833 0.36869276 -0.34679395
0.31517887 0.067940325 -0.13256007 0.25227702 0.06362581 0.32984966 0.044629574 -0.12875056
0.10968965 -0.110708535 0.17181438 0.36449313 0.23599184 -0.17847495 0.23566735 0.07304633
0.20732278 -0.24882941 -0.40412846 -0.15773103 -0.31313577 0.3349836 0.11758828 0.16910195
0.12911308 -0.0071018636 0.31949848 -0.29006597 0.02570483 -0.27864587 0.12588418 -0.1405935
0.12509394 -0.08505505 0.33859783 -0.24196956 -0.24347848 -0.24349317 0.36719602 0.13604921
0.39283723 -0.33691764 -0.40493175 -0.3193987 -0.27462417 0.16535693 0.14618385 0.3392235
-0.21082978 -0.27830768 0.21660763 -0.1650158 0.24777561 -0.096877575 0.23353678 -0.31719586
-0.20602241 0.12446529 0.08630678 -0.10408649 0.24334437 0.27753097 -0.2960508 -0.21795079
0.37381744 -0.13775626 -0.14473072 -0.39501888 -0.23379165 0.10198194 -0.053885996 -0.29634172
0.009576142 -0.2788669 -0.3463565 -0.22480708 -0.35730386 -0.25994724 0.40808862 0.07710788
0.12580568 -0.38076678 -0.2681268 -0.13588783 0.06383824 -0.35922638 -0.17590319 -0.24440543
0.0011313558 -0.15191051 -0.028289884 -0.2766412 -0.28021967 -0.2381728 -0.13974234 -0.3222226
0.34230387 -0.08102262 0.35125554 0.12720287 -0.34570342 0.2825222 -0.1123274 -0.1564922
-0.33887488 -0.4058644 0.11680418 -0.08917934 0.1589405 -0.33503446 0.30309546 -0.29967618
-0.07049361 0.0852707 0.21075892 0.3295831 0.37189758 -0.32370913 0.10274273 -0.17559819
-0.044737816 -0.30556983 0.3718565 -0.29963404 0.21818882 0.14347464 0.13266271 -0.22071789
0.3710779 0.08971274 0.052517086 -0.35977077 0.17137796 -0.06124565 -0.18702847 0.35066348
0.09101847 -0.22587416 -0.20663036 -0.019496202 0.22795004 -0.10432124 -0.23293623 -0.13980171
-0.30499202 0.1455946 0.31600058 -0.38434142 0.09481597 0.21089774 0.07402742 -0.14538729
0.21308202 0.21453989 0.15265518 -0.071737975 -0.108104676 0.043674767 -0.07211873 -0.121658415
0.26095515 0.35084844 -0.040415496 -0.09140551 0.0059572756 -0.024375796 0.09814751 0.11440492
-0.3707943 -0.15065902 0.34379792 0.15903515 -0.020305276 -0.24613525 -0.24976839 -0.3656953
-0.1330736 0.13786715 0.26030797 0.18848717 -0.36086866 -0.24550521 -0.06442839 0.3949188
0.059056163 -0.105724365 0.16889852 -0.15549424 -0.26424104 0.29797524 -0.18563123 -0.08184022
-0.40612715 0.2732286 0.30930305 0.14878535 -0.28466102 -0.40291655 -0.33157068 0.30443084
0.19600236 0.34354275 0.21386898 0.10332447 -0.0039978325 -0.3104753 -0.3497758 -0.3818545
0.16712135 -0.20043685 -0.08216104 -0.23494905 -0.07439247 -0.2873394 -0.26675585 0.13542038
-0.12132993 0.2520293 -0.13096964 -0.29947758 -0.0720309 -0.19789732 -0.12490013 -0.3886506
00000000: 66ce 9f3e a87d ad3e 9cdf c3bd d202 c03e
00000010: dc30 b7bd 38b7 a83d 2687 4bbe e482 753e
00000020: 4a43 b83e 6258 99be 9eae b53e 847b 9c3d
00000030: 9a6d 9a3e 0877 623d b493 493e f818 6cbd
00000040: 0a22 a13e f029 773d 2229 43be 581e d53d
00000050: f69b 40be 181a 44bd 00cb 29be eea8 8a3e
00000060: 23ff a4be 41b9 40be 6817 ecbd 165c 7bbe
00000070: 78d3 1d3d a272 cebe 4cc5 bc3e fa8e b1be
00000080: 205f a13e 4c24 8b3d d4bd 07be 742a 813e
00000090: 404e 823d 0ee2 a83e 80cd 363d 30d7 03be
000000a0: f8a4 e03d 28bb e2bd 1cf0 2f3e d89e ba3e
000000b0: d8a7 713e 23c2 36be c852 713e 5099 953d
000000c0: 6c4c 543e 23cd 7ebe ede9 cebe 3e84 21be
000000d0: 5553 a0be f882 ab3e 20d2 f03d 1029 2d3e
000000e0: 3836 043e c0b6 e8bb 4e95 a33e 8783 94be
000000f0: f092 d23c acaa 8ebe c8e7 003e bef7 0fbe
00000100: a018 003e 5831 aebd b25c ad3e dec6 77be
00000110: 6c52 79be 4656 79be 1e01 bc3e 7c50 0b3e
00000120: f621 c93e 7880 acbe 3753 cfbe 3a88 a3be
00000130: 8a9b 8cbe 5453 293e 38b1 153e b4ae ad3e
00000140: c3e3 57be 587e 8ebe 64ce 5d3e e7f9 28be
00000150: e4b8 7d3e c067 c6bd 4424 6f3e 7f67 a2be
00000160: 8af7 52be a8e7 fe3d 9cc1 b03d 4c2b d5bd
00000170: 442f 793e 8a18 8e3e f893 97be 7e2e 5fbe
00000180: 0065 bf3e fa0f 0dbe 4a34 14be ea3f cabe
00000190: 1467 6fbe e8db d03d 90b7 5cbd 1aba 97be
000001a0: 40e5 1c3c a4c7 8ebe a455 b1be d433 66be
000001b0: 88f0 b6be ce17 85be fef0 d03e bcea 9d3d
000001c0: 34d3 003e ddf3 c2be ea47 89be 2e26 0bbe
000001d0: a0bd 823d 85ec b7be f71f 34be 6b45 7abe
000001e0: 004a 943a 6e8e 1bbe 30c0 e7bc eaa3 8dbe
000001f0: f478 8fbe 92e3 73be 9e18 0fbe 5cfa a4be
00000200: 7442 af3e 30ef a5bd c4d7 b33e 7841 023e
00000210: 0a00 b1be c0a6 903e e80b e6bd 7e3f 20be
00000220: 0281 adbe 75cd cfbe 0837 ef3d a8a3 b6bd
00000230: 4cc1 223e a389 abbe 542f 9b3e 286f 99be
00000240: f45e 90bd 68a2 ae3d 30d1 573e 1ebf a83e
00000250: 5c69 be3e 34bd a5be c86a d23d 03d0 33be
00000260: 003f 37bd a673 9cbe fa63 be3e a269 99be
00000270: e46c 5f3e 04eb 123e bcd8 073e df03 62be
00000280: ecfd bd3e 50bb b73d 281c 573d e033 b8be
00000290: b47d 2f3e b8dc 7abd 6484 3fbe 2a8a b33e
000002a0: e467 ba3d 8e4b 67be e996 53be 80b6 9fbc
000002b0: bc6b 693e 60a6 d5bd d686 6ebe 2e28 0fbe
000002c0: ea27 9cbe c016 153e d4ca a13e 66c8 c4be
000002d0: e02e c23d 94f5 573e b09b 973d 68e0 14be
000002e0: 2c32 5a3e 58b0 5b3e a451 1c3e 5ceb 92bd
000002f0: fc65 ddbd 50e4 323d fcb2 93bd 0c28 f9bd
00000300: ea9b 853e 68a2 b33e b88a 25bd d032 bbbd
00000310: 4035 c33b c0af c7bc 9001 c93d 204d ea3d
00000320: c0d8 bdbe 5c46 1abe 4806 b03e 1cda 223e
00000330: 4057 a6bc e10a 7cbe 49c3 7fbe 6a3c bbbe
00000340: 7244 08be 0c2d 0d3e 1647 853e c802 413e
00000350: c7c3 b8be b865 7bbe 08f3 83bd cc32 ca3e
00000360: e0e4 713d 0486 d8bd bcf3 2c3e e239 1fbe
00000370: 9a4a 87be 3690 983e 1d16 3ebe d89b a7bd
00000380: e6ef cfbe 9ee4 8b3e f85c 9e3e 305b 183e
00000390: 17bf 91be 144b cebe a2c3 a9be 5cde 9b3e
000003a0: d8b4 483e d6e4 af3e 7800 5b3e c89b d33d
000003b0: 4000 83bb 9ef6 9ebe d015 b3be 6f82 c3be
000003c0: dc21 2b3e 513f 4dbe 0c44 a8bd 7c96 70be
000003d0: 145b 98bd 261e 93be 3994 88be a4ab 0a3e
000003e0: d47b f8bd fc09 813e e81c 06be 2055 99be
000003f0: f084 93bd 98a5 4abe a4cb ffbd 36fd c6be

model.0.bias f4 [512]
-0.10268763 0.036741138 -0.10927111 -0.39972132 -0.04228145 0.19919235 -0.047498405 -0.2010267
0.012935579 0.074500114 -0.113907665 -0.31659007 -0.21887955 -0.066557944 0.14702767 0.36304438
0.0075766146 0.14617008 0.23489428 -0.17801738 -0.13546368 0.2707935 0.29230094 0.09673804
-0.31548712 0.23171622 -0.33741522 0.20405161 0.048383266 0.13187021 -0.39793918 -0.14353001
0.17338163 0.3142231 -0.116877615 0.36405534 -0.09110421 -0.24623351 -0.17678927 0.025404066
-0.07255933 0.19759375 -0.22593354 -0.116134614 -0.4045794 0.33322996 -0.076817185 -0.32182705
-0.019699663 -0.00074517727 0.11338204 -0.04480973 0.25681394 -0.14085537 -0.12219304 -0.09694663
0.07288456 0.32709682 -0.01878491 0.3141181 0.32069802 -0.21255444 -0.035076767 -0.1927173
0.16982067 -0.14352748 0.1245361 0.024390638 -0.2680009 -0.27446294 -0.39874628 -0.22836654
0.11404592 0.02487287 0.3070444 -0.35897863 -0.01192975 -0.3660558 0.002389729 0.14873981
-0.36621642 0.36054552 -0.12679824 0.36172277 -0.06852493 0.23160535 0.37112898 -0.1486324
-0.09923974 0.21413827 -0.349514 0.24165362 -0.2564262 0.37916607 -0.26755178 -0.16799884
0.3046289 -0.17774591 0.34993052 0.28088278 0.3731436 -0.39570776 0.0045755804 -0.13427842
0.09724623 -0.30824834 0.16740382 -0.019340277 -0.19297434 -0.36726165 0.21354169 -0.14774719
0.30123675 0.072674066 0.12416476 -0.06191674 -0.05655217 -0.13868588 -0.35350257 0.25666422
-0.2570907 0.23794246 -0.13769501 0.2557549 0.34987783 -0.24968717 0.33710104 0.009950012
-0.31187356 0.16665173 0.23116618 0.35987568 -0.38861984 0.36863285 0.309496 0.40161896
0.22249782 -0.19845484 0.30970192 0.37310505 -0.15610185 -0.06673241 0.31946743 0.32863277
0.26968336 0.3127722 -0.20979814 -0.07042897 -0.1630988 0.21218216 0.10174054 -0.31535265
-0.051280737 -0.33290815 -0.38420933 0.37217057 -0.20535748 0.18221337 -0.09090814 -0.08266997
-0.00026369095 0.31840414 -0.05647546 0.33781147 0.23886925 0.2800619 -0.37025684 -0.190895
-0.33260983 -0.086707294 -0.084557205 0.082957596 0.3657785 0.18326473 -0.2840827 -0.2560302
0.3082705 0.040638685 0.11533213 -0.21352828 -0.049785554 0.11623031 -0.26790288 0.2664479
0.20344812 -0.23807906 -0.16741483 -0.09597957 0.06353411 -0.14975363 0.390539 -0.39322856
-0.23074174 -0.24779795 0.11038232 0.05793327 -0.11633286 0.34842283 -0.3524216 0.14388716
-0.22463928 -0.09296164 -0.3931433 -0.30476025 -0.34637797 0.1781081 -0.1532999 0.21355498
-0.22124973 -0.10114947 0.049417228 0.3420813 -0.110028476 0.23667043 0.11262423 0.24829769
0.2578938 0.16567367 -0.12310618 -0.114581615 0.15893161 0.22251266 -0.02178961 0.20464486
-0.24560998 0.2301125 -0.05009815 -0.280945 -0.19836135 -0.3117785 0.08235079 -0.24211603
-0.11690742 -0.025578797 -0.24909708 0.0104828775 -0.051811844 0.12930942 0.2949217 -0.24644691
0.22320825 -0.008649498 -0.23333631 -0.18514627 0.10391468 0.08500278 -0.013186514 -0.2032446
0.20587784 0.060572147 -0.39687085 -0.07214838 -0.110762864 -0.17420344 -0.22645442 -0.3311965
00000000: e44d d2bd e07d 163d 88c9 dfbd 46a8 ccbe
00000010: 502f 2dbd 14f9 4b3e b08d 42bd f1d9 4dbe
00000020: c0ef 533c 8493 983d 6c48 e9bd 1818 a2be
00000030: f621 60be 884f 88bd 6c8e 163e f4e0 b93e
00000040: 4045 f83b 9cad 153e 2088 703e 304a 36be
00000050: feb6 0abe 72a5 8a3e 78a8 953e 981e c63d
00000060: 8787 a1be 0447 6d3e b0c1 acbe e8f2 503e
00000070: 882d 463d fc08 073e afbe cbbe 88f9 12be
00000080: f48a 313e dae1 a03e 885d efbd 7665 ba3e
00000090: d894 babd a324 7cbe 3f08 35be 301c d03c
000000a0: fc99 94bd 0456 4a3e 1f5b 67be fcd7 edbd
000000b0: 0825 cfbe 1e9d aa3e 5452 9dbd 84c6 a4be
000000c0: 3061 a1bc 0058 43ba d834 e83d 688a 37bd
000000d0: 1e7d 833e 643c 10be 5840 fabd f48b c6bd
000000e0: 8044 953d 3c79 a73e d0e2 99bc 16d4 a03e
000000f0: 8832 a43e dfa7 59be a8ac 0fbd af57 45be
00000100: 78e5 2d3e def8 12be c80c ff3d e0ce c73c
00000110: 6a37 89be 6886 8cbe 7928 ccbe ebd8 69be
00000120: e890 e93d 30c2 cb3c ec34 9d3e 0ccc b7be
00000130: 0075 43bc aa6b bbbe 009d 1c3b 404f 183e
00000140: b880 bbbe 6c99 b83e 66d7 01be ba33 b93e
00000150: cc56 8cbd f429 6d3e 9e04 be3e 1833 18be
00000160: 343e cbbd 1047 5b3e 80f3 b2be 0c74 773e
00000170: 4b4a 83be 0e22 c23e 8cfc 88be e307 2cbe
00000180: 52f8 9b3e 0603 36be 182a b33e decf 8f3e
00000190: ae0c bf3e 359a cabe c0ee 953b 4880 09be
000001a0: 0829 c73d bad2 9dbe e86b 2b3e 806f 9ebc
000001b0: 119b 45be b809 bcbe acaa 5a3e 0a4b 17be
000001c0: b43b 9a3e 24d6 943d 184a fe3d 689c 7dbd
000001d0: 40a3 67bd ac03 0ebe 4afe b4be 7e69 833e
000001e0: 64a1 83be 30a7 733e ecff 0cbe 4ef2 823e
000001f0: 3023 b33e fead 7fbe 8298 ac3e 6005 233c
00000200: e4ad 9fbe c0a6 2a3e d4b6 6c3e a041 b83e
00000210: 2ef9 c6be 72bd bc3e 4276 9e3e 00a1 cd3e
00000220: 78d6 633e bf37 4bbe 4091 9e3e a007 bf3e
00000230: 2ad9 1fbe 00ab 88bd 3c91 a33e 8e42 a83e
00000240: f013 8a3e ae23 a03e 53d5 56be 103d 90bd
00000250: 5f03 27be 4846 593e 585d d03d e775 a1be
00000260: c00b 52bd f072 aabe 16b7 c4be 248d be3e
00000270: 3b49 52be 2496 3a3e 0c2e babd e04e a9bd
00000280: 0040 8ab9 de05 a33e d052 67bd a0f5 ac3e
00000290: 249a 743e 4664 8f3e 4e92 bdbe fb79 43be
000002a0: d64b aabe 9893 b1bd 542c adbd ace5 a93d
000002b0: 5247 bb3e c0a9 3b3e 4a73 91be 6416 83be
000002c0: a2d5 9d3e c074 263d 4033 ec3d 28a7 5abe
000002d0: f0eb 4bbd 280a ee3d 912a 89be dc6b 883e
000002e0: b454 503e ffca 73be cb6e 2bbe f090 c4bd
000002f0: 2c1e 823d 0459 19be baf4 c73e 4155 c9be
00000300: 9047 6cbe bfbe 7dbe 2010 e23d 704b 6d3d
00000310: ec3f eebd 7a64 b23e 9b70 b4be 2857 133e
00000320: d707 66be ac62 bebd 144a c9be 8909 9cbe
00000330: 7458 b1be f861 363e a6fa 1cbe 28ae 5a3e
00000340: 4a8f 62be 7427 cfbd b869 4a3d 4825 af3e
00000350: 9c56 e1bd bc59 723e 88a7 e63d c041 7e3e
00000360: a80a 843e 5ca6 293e 181f fcbd c4a9 eabd
00000370: f8be 223e 5cda 633e 2080 b2bc 6c8e 513e
00000380: 2f81 7bbe 9ca2 6b3e b833 4dbd 06d8 8fbe
00000390: 3d1f 4bbe 6ea1 9fbe 88a7 a83d 44ed 77be
000003a0: 286d efbd a08a d1bc 4e13 7fbe 60c0 2b3c
000003b0: a838 54bd b069 043e faff 963e 945c 7cbe
000003c0: b490 643e a0b6 0dbc b7ef 6ebe fc96 3dbe
000003d0: 38d1 d43d f015 ae3d 400c 58bc 5a1f 50be
000003e0: a4d1 523e 801a 783d a832 cbbe 88c2 93bd
000003f0: a4d7 e2bd 6362 32be abe3 67be 9692 a9be

model.2.weight f4 [1, 512]
-0.03280879 -0.0019524619 -0.031969037 -0.022566397 0.014872506 0.020646933 0.018274833 -0.041625798
-0.0107138455 0.018835258 -0.004102174 -0.013662733 -0.022828635 0.041903924 -0.035375584 -0.03481254
0.03220493 -0.026843732 0.026705693 -0.024361685 -0.0059784837 -0.02135312 0.036513906 0.030638244
0.0021235794 0.00105967 -0.016678615 -0.023622708 -0.01671642 0.014471468 -0.0079490915 0.02999803
0.0063630454 0.00048785657 -0.027463539 0.017828476 -0.040879928 0.010325581 0.015857156 0.007997822
0.031102683 0.010606892 -0.012205534 -0.030925091 -0.041016813 0.022304025 0.02405655 -0.033710312
0.011831958 -0.016251113 0.03722274 -0.015233014 0.036581565 0.031259175 0.024443489 0.030202504
0.013783287 0.014981024 -0.037571806 -0.010089435 -0.005009759 0.021443319 -0.017125376 0.020249914
0.03000674 0.019055557 0.022746447 -0.005890496 0.02117018 -0.015155343 0.03828342 -0.0011342093
-0.0025779344 -0.03890911 0.04087441 -0.0061833113 0.03291622 -0.028912058 -0.03697397 -0.0070738643
-0.035337664 0.008492246 0.0005952716 -0.016206564 0.027671423 0.028631698 -0.039021265 -0.035404865
0.025854614 -0.026841763 0.008527897 -0.011770014 0.007902909 -0.024387762 0.00014122203 -0.015645204
-0.019908696 -0.021727676 0.009871434 0.028596874 -0.0010890998 -0.00043161958 0.03646322 0.035625134
-0.0064156502 -0.036188364 0.0103709735 0.013195436 -0.034970652 -0.03964546 0.004635643 0.043155264
-0.03952946 -0.021654123 -0.015241021 -0.039037317 -0.027211512 0.034689177 0.03380126 -0.032513276
0.0009474084 -0.03599388 0.018355709 -0.030185178 -0.022522053 -0.020484474 0.006514307 0.029531892
-0.018496672 0.00815152 0.035188343 -0.0026778579 0.0045633614 0.0032816231 -0.000564564 0.026532855
0.023913141 -0.02366888 0.04219934 0.02542955 -0.0069150664 0.03847703 0.0023768544 0.027926948
-0.037524972 0.03966975 0.04166143 -0.03302242 -0.039555848 -0.012862481 -0.02717114 0.011807866
0.01967227 -0.005631052 0.031011727 0.0016746782 -0.012989184 -0.037722856 0.014045849 -0.04164
-0.00015112758 0.0064597093 -0.024750868 0.013276819 0.00859094 0.029575732 0.027641136 -0.03576529
-0.03279128 -0.0162203 -0.03179327 0.013856545 -0.02895557 -0.03374114 0.0128720775 0.026671987
-0.012848236 -0.044037573 0.0062460266 0.022647921 0.03452323 0.0041932315 0.030680876 -0.03951568
0.042279597 -0.028537761 -0.030165799 0.031716984 -0.009820472 0.02727377 -0.030954668 0.03343616
0.041913543 0.013381802 0.035651173 -0.03156022 -0.009758644 0.013451766 0.024973687 -0.023597857
0.02812228 -0.01454521 -0.023588864 0.00864495 -0.035201 -0.04056135 0.014694747 0.015053067
0.016994819 -0.005795561 -0.032320764 -0.035502814 0.042289343 -0.038313262 0.013319816 0.035893645
0.033763263 -0.027864615 -0.014249908 -0.03533469 0.027721632 -0.041473545 -0.040684577 -0.029504083
0.036049124 0.0286461 0.029612105 0.033909623 -0.02061132 -0.024646528 -0.02715003 0.014582235
0.017190907 0.009170558 -0.03399943 0.0039258823 -0.023451233 -0.008690655 -0.0068416595 0.0021967888
-0.0387503 0.03772409 -0.01880557 0.01380856 0.030434046 0.017808914 0.03095005 0.024955701
0.03236081 0.009327546 0.028226767 -0.019210065 -0.023813792 0.021102954 0.0115958825 -0.0016572736
00000000: 8362 06bd c0e9 ffba f7f1 02bd 2add b8bc
00000010: d0ab 733c c223 a93c 1ab5 953c d07f 2abd
00000020: 2089 2fbc 664c 9a3c 886b 86bb a8d9 5fbc
00000030: 1e03 bbbc 73a3 2b3d fde5 10bd 9897 0ebd
00000040: 51e9 033d 63e7 dbbc e6c5 da3c 2892 c7bc
00000050: 28e7 c3bb bdec aebc 9b8f 153d 0efd fa3c
00000060: c02b 0b3b a0e4 8a3a 97a1 88bc 6984 c1bc
00000070: e0f0 88bc bc19 6d3c e83c 02bc 6ebe f53c
00000080: 1881 d03b 00c7 ff39 37fb e0bc 060d 923c
00000090: b671 27bd a02c 293c dee6 813c 4c09 033c
000000a0: 0ecb fe3c 88c8 2d3c b8f9 47bc 9e56 fdbc
000000b0: 3f01 28bd eeb6 b63c 3e12 c53c d313 0abd
000000c0: d4da 413c 0e21 85bc df76 183d e493 79bc
000000d0: 8dd6 153d 9f09 003d b63d c83c 3e6b f73c
000000e0: 4cd3 613c f872 753c e5e4 19bd 284e 25bc
000000f0: e828 a4bb e6a9 af3c 844a 8cbc 26e3 a53c
00000100: b2d0 f53c 661a 9c3c c256 ba3c 1005 c1bb
00000110: 166d ad3c 1e4e 78bc 13cf 1c3d c0a9 94ba
00000120: 90f2 28bb 295f 1fbd ed6b 273d 609d cabb
00000130: 29d3 063d fbd8 ecbc 0472 17bd e0cb e7bb
00000140: 3abe 10bd 1023 0b3c 000c 1c3a a1c3 84bc
00000150: 2eaf e23c 068d ea3c c3d4 1fbd b104 11bd
00000160: 0ecd d33c 42e3 dbbc 98b8 0b3c 04d7 40bc
00000170: 347b 013c d8c8 c7bc 0015 1439 5f2a 80bc
00000180: 9017 a3bc 3dfe b1bc ccbb 213c fe43 ea3c
00000190: 20c0 8eba 004b e2b9 755a 153d a9eb 113d
000001a0: 603a d2bb 403a 14bd 04eb 293c ac31 583c
000001b0: 633d 0fbd 4763 22bd 98e6 973b 93c3 303d
000001c0: a5e9 21bd fd63 b1bc 7ab5 79bc 98e5 1fbd
000001d0: adea debc 3d16 0e3d 3173 0a3d a42c 05bd
000001e0: 805b 783a 526e 13bd b65e 963c e846 f7bc
000001f0: 2b80 b8bc 0ecf a7bc f875 d53b deec f13c
00000200: 5586 97bc f48d 053c a721 103d 007f 2fbb
00000210: 4088 953b 8010 573b 40ff 13ba 6e5b d93c
00000220: 7ee5 c33c 3de5 c1bc 37d9 2c3d a251 d03c
00000230: c897 e2bb 179a 1d3d 00c5 1b3b 0ec7 e43c
00000240: c9b3 19bd bf7c 223d 2da5 2a3d 8442 07bd
00000250: 5005 22bd 28bd 52bc 0396 debc c875 413c
00000260: be27 a13c b084 b8bb 4e0c fe3c e080 db3a
00000270: 96d0 54bc 4883 1abd 9020 663c b48e 2abd
00000280: 0078 1eb9 f8ab d33b 55c2 cabc 0487 593c
00000290: 04c1 0c3c ce48 f23c aa6f e23c a07e 12bd
000002a0: 2650 06bd 6fe0 84bc a939 02bd 9006 633c
000002b0: 3b34 edbc 2634 0abd 68e5 523c 367f da3c
000002c0: 6881 52bc be60 34bd 78ab cc3b 2288 b93c
000002d0: 3b68 0d3d 6067 893b 7656 fb3c 32db 21bd
000002e0: 5f2d 2d3d 06c8 e9bc 441e f7bc abe9 013d
000002f0: 0ce6 20bc 3e6d df3c a594 fdbc 5bf4 083d
00000300: 89ad 2b3d 583f 5b3c f706 123d 4a45 01bd
00000310: b8e2 1fbc cc64 5c3c 9e95 cc3c 4b50 c1bc
00000320: b260 e63c 084f 6ebc 6f3d c1bc 8ca3 0d3c
00000330: ec2e 10bd a823 26bd 3cc2 703c 24a1 763c
00000340: b838 8b3c b0e8 bdbb c762 04bd 666b 11bd
00000350: 9737 2d3d 5eee 1cbd 5c3b 5a3c 3705 133d
00000360: 594b 0a3d 5544 e4bc 7278 69bc 1cbb 10bd
00000370: 7a18 e33c 2ae0 29bd dfa4 26bd 8cb2 f1bc
00000380: 3fa8 133d 3aab ea3c 1695 f23c d1e4 0a3d
00000390: 12d9 a8bc 84e7 c9bc bd69 debc 54ea 6e3c
000003a0: f2d3 8c3c 1c40 163c fc42 0bbd b0a4 803b
000003b0: cd1c c0bc 4063 0ebc 0030 e0bb 00f8 0f3b
000003c0: a2b8 1ebd 9384 1a3d 240e 9abc 4c3d 623c
000003d0: d250 f93c 00e4 913c f68a fd3c e66f cc3c
000003e0: c58c 043d 90d2 183c d23b e73c 6d5e 9dbc
000003f0: 2415 c3bc 1ae0 ac3c a8fc 3d3c e038 d9ba
