lightning_logs/version_22/checkpoints/epoch=0-step=1195.ckpt (torch, 37196 bytes, 3 tensors)

model.0.weight f4 [1024, 6]
-0.20486107 0.22972769 -0.026567847 -0.13411465 0.2453624 0.04765302 -0.2011519 0.20849276
-0.34002244 0.09093511 -0.09487051 0.27091658 -0.02803585 0.36043185 0.18134373 -0.11429462
-0.05740562 0.38890266 -0.01449278 -0.058691263 0.033580452 0.29615885 -0.28551152 -0.07422766
-0.056527436 -0.24056692 -0.14411265 0.16400123 0.25051427 -0.19246252 0.22522354 -0.16610433
-0.24490495 -0.27431178 0.04808697 -0.30690902 -0.40538532 -0.26584017 0.1623357 -0.33680347
0.069982976 0.07713294 0.13600683 -0.36094743 0.26303858 -0.049612284 0.0782699 -0.036580503
0.0010306239 -0.154643 -0.10838026 -0.038761795 0.024404556 -0.30527607 -0.0060325265 0.30460382
-0.36413747 0.004798323 -0.04511684 -0.1581358 0.33435208 0.015458584 -0.38260397 0.358585
-0.01119858 -0.1571553 -0.3141907 -0.36030036 -0.17152846 0.35370183 0.35078645 0.2594729
-0.12441298 -0.33798409 0.03321579 0.14975566 -0.2678269 -0.05242607 0.3630725 0.14327955
-0.338305 -0.35170466 -0.1216487 -0.2297185 -0.046809852 0.1557222 0.12390792 0.34224313
0.14165574 0.2389679 -0.19438988 0.11599952 -0.28495014 0.37248075 0.3282984 -0.054947317
-0.3343455 0.23835796 -0.28070182 0.19008803 0.040186673 0.20719218 -0.060529232 0.119383514
0.31632817 0.3731718 0.012298107 0.1245414 -0.38786283 0.23631537 0.23873502 -0.14568937
-0.005794108 -0.17170045 0.054929256 -0.0056455135 -0.3098992 -0.30044284 -0.0758332 -0.097063005
-0.15686584 -0.057775408 -0.27916485 0.29426783 0.14710379 -0.0716351 -0.35515207 0.2259683
0.26383984 -0.12891239 -0.099701434 -0.23870522 -0.32483366 -0.2896947 0.10236943 -0.3231957
0.33768404 -0.3704428 0.19902742 -0.23490919 0.113696754 -0.38904318 -0.09403494 -0.36690024
-0.13716805 0.064317286 -0.39288074 0.29288018 -0.24528357 0.3749982 0.22920531 0.015191853
-0.14678961 -0.2548524 0.37477362 0.16158617 -0.037122637 0.28553927 -0.3247212 0.28656656
-0.14501658 0.28834522 0.22097307 0.063943654 0.0020959377 0.1396696 -0.19832349 -0.05459678
0.05173385 -0.22612752 -0.36855385 0.099799275 -0.04480949 0.3053351 -0.05282268 -0.3848128
-0.11651716 -0.20998274 0.10763174 0.008473754 0.015688866 0.380979 -0.12663719 0.19816661
-0.32247278 0.20226675 0.1323322 0.2041499 0.10508537 -0.008794904 0.26531434 -0.3309696
-0.20874621 -0.10310647 -0.27248085 -0.30901334 0.08571303 0.20558053 -0.38380376 -0.09453508
-0.21181281 0.23006094 -0.0033565164 0.1605928 0.2287302 0.17494309 -0.1333825 0.26087624
0.07175568 0.25081944 0.2926324 0.1119324 0.26246542 0.19577205 0.13095623 0.039722234
-0.25309443 -0.23638102 -0.3133153 0.1424967 -0.38241285 0.40620047 0.13479275 -0.3225009
-0.18252365 -0.37949625 -0.05731842 -0.30883503 0.2873001 -0.06894454 -0.27125192 0.047760278
0.073768705 -0.049797416 0.17794651 0.28783137 -0.03874749 -0.38343287 -0.20909397 -0.21977186
-0.044632882 -0.043645084 -0.3896852 0.17129707 0.1913268 0.30486995 0.1488291 -0.07953876
-0.19611624 -0.30900472 -0.12766436 0.21675974 -0.22781165 -0.20657945 0.30178624 -0.044949383
00000000: 1ac7 51be bc3d 6b3e d0a4 d9bc 5a55 09be
00000010: 4840 7b3e d02f 433d c4fa 4dbe 207f 553e
00000020: 6c17 aebe 303c ba3d 784b c2bd 94b5 8a3e
00000030: 70ab e5bc 868a b83e 2cb2 393e 4c13 eabd
00000040: 2822 6bbd 401e c73e 2073 6dbc 4066 70bd
00000050: a88b 093d 22a2 973e 912e 92be ac04 98bd
00000060: 5089 67bd 2d57 76be 4492 13be f0ef 273e
00000070: 6843 803e e514 45be 00a1 663e 4117 2abe
00000080: 5dc8 7abe 9872 8cbe d8f6 443d 2e23 9dbe
00000090: aa8e cfbe 341c 88be 543b 263e 8171 acbe
000000a0: 3c53 8f3d e0f7 9d3d 6045 0b3e 1ace b8be
000000b0: feac 863e 4036 4bbd f84b a03d 70d5 15bd
000000c0: 0016 873a bc5a 1ebe 78f6 ddbd b0c4 1ebd
000000d0: 10ec c73c 254d 9cbe 80ac c5bb 08f5 9b3e
000000e0: 3a70 babe 403b 9d3b 70cc 38bd 5aee 21be
000000f0: 3230 ab3e 0046 7d3c abe4 c3be 7498 b73e
00000100: 407a 37bc 52ed 20be 9add a0be 4a79 b8be
00000110: 28a5 2fbe 6818 b53e 489a b33e a2d9 843e
00000120: 3ccc febd 400c adbe 480d 083d 8c59 193e
00000130: 9c20 89be b8bc 56bd a4e4 b93e e0b7 123e
00000140: 5036 adbe a212 b4be f422 f9bd 543b 6bbe
00000150: b0bb 3fbd a475 1f3e 70c3 fd3d 7e3a af3e
00000160: 340e 113e 00b4 743e 240e 47be 2891 ed3d
00000170: fce4 91be ccb5 be3e ba16 a83e 7010 61bd
00000180: 552f abbe 1c14 743e 26b8 8fbe 70a6 423e
00000190: c89a 243d 302a 543e 80ed 77bd 587f f43d
000001a0: c4f5 a13e 6010 bf3e 007e 493c 900f ff3d
000001b0: f595 c6be a8fc 713e f476 743e 982f 15be
000001c0: 80dc bdbb 3ed2 2fbe 80fd 603d 00fe b8bb
000001d0: 1cab 9ebe a5d3 99be 704e 9bbd f8c8 c6bd
000001e0: 70a1 20be e8a5 6cbd b2ee 8ebe 46aa 963e
000001f0: 60a2 163e 6cb5 92bd 7ed6 b5be 3c64 673e
00000200: 0416 873e 9c01 04be 4430 ccbd 246f 74be
00000210: 9950 a6be dd52 94be 10a7 d13d e879 a5be
00000220: ece4 ac3e aeaa bdbe d8cd 4b3e 098c 70be
00000230: d8d9 e83d ab30 c7be 6495 c0bd 59da bbbe
00000240: c875 0cbe c8b8 833d aa27 c9be 64f4 953e
00000250: 9e2b 7bbe c4ff bf3e ccb4 6a3e 40e7 783c
00000260: 0450 16be 047c 82be 54e2 bf3e d876 253e
00000270: e80d 18bd 3432 923e db41 a6be dab8 923e
00000280: 3a7f 14be fca1 933e c446 623e e4f4 823d
00000290: 005c 093b 8c05 0f3e 5015 4bbe e0a0 5fbd
000002a0: e0e6 533d f98d 67be 17b3 bcbe 9063 cc3d
000002b0: 288a 37bd e254 9c3e 985c 58bd 2f06 c5be
000002c0: 8ca0 eebd b705 57be 086e dc3d 80d5 0a3c
000002d0: f085 803c ae0f c33e 2ead 01be 30ec 4a3e
000002e0: 271b a5be 041f 4f3e 1882 073e ac0c 513e
000002f0: 0037 d73d 8018 10bc 48d7 873e d974 a9be
00000300: 91c1 55be 7c29 d3bd 9c82 8bbe ff36 9ebe
00000310: 508a af3d b483 523e ed81 c4be 9c9b c1bd
00000320: 75e5 58be 1895 6b3e 00f9 5bbb 7072 243e
00000330: 4038 6a3e 4824 333e 6c95 08be 9291 853e
00000340: a4f4 923d 686b 803e ead3 953e d03c e53d
00000350: de61 863e 7878 483e 6419 063e c8b3 223d
00000360: 9895 81be de0d 72be dd6a a0be a8ea 113e
00000370: 9ecb c3be 82f9 cf3e 1c07 0a3e d71e a5be
00000380: 7be7 3abe 554d c2be b8c6 6abd a01f 9ebe
00000390: 0019 933e cc32 8dbd 88e1 8abe 48a0 433d
000003a0: 0c14 973d 60f8 4bbd 9c37 363e a25e 933e
000003b0: b0b5 1ebd 5051 c4be bb1c 56be e00b 61be
000003c0: f8d0 36bd 30c5 32bd d284 c7be 8068 2f3e
000003d0: 2ceb 433e ea17 9c3e a866 183e 38e5 a2bd
000003e0: b2d2 48be de35 9ebe 72ba 02be 44f6 5d3e
000003f0: 7547 69be 9089 53be ba83 9a3e d81c 38bd

model.0.bias f4 [1024]
0.13608354 -0.18541393 0.11843985 -0.1926604 0.31699133 -0.1632521 0.08162227 -0.34768593
-0.31061503 0.22772032 0.050081164 0.22797495 -0.0038879514 -0.34461597 0.36580372 0.23545659
-0.152529 0.25408518 0.36119223 0.11015195 -0.042905837 -0.3157702 -0.25043687 0.094717324
0.08456215 0.2754569 0.32969183 0.3176033 -0.37908748 -0.33387184 -0.402937 0.00032138824
-0.0025106668 -0.17749602 0.3076244 0.026020914 0.28020674 -0.09250119 -0.3926063 -0.40416294
-0.40087444 0.03311175 -0.3822368 -0.292857 0.39488614 -0.19920567 -0.15425286 -0.13447204
0.041312814 -0.28580153 -0.38773644 -0.022208929 0.3207454 -0.04375425 0.04935202 0.3841464
-0.015201807 0.34515887 0.24375683 -0.13500178 -0.04502067 0.11304361 -0.24015091 -0.3841046
-0.3645382 -0.38432375 -0.08030364 0.30084568 -0.2534973 0.3856492 0.08237633 0.16754138
-0.24452822 0.11676526 0.17994559 0.3021137 0.23481387 -0.20083402 -0.19714141 -0.22101524
-0.12691939 0.38958985 0.30606216 0.34310246 -0.019301027 -0.10879895 -0.24398597 -0.056372106
0.18588996 -0.18163581 -0.056531966 -0.35689846 0.09958172 -0.13499182 -0.15654814 0.38792217
0.20105618 0.334796 0.1252631 -0.08765149 0.3079955 -0.07991853 -0.32408082 0.033367097
0.13343346 0.079300225 -0.35699412 -0.1602462 -0.25001675 -0.22444998 0.21788895 -0.28252834
0.23500377 0.08599672 0.25496382 0.2502131 -0.38783008 0.140086 -0.019496977 -0.32317924
-0.16857754 0.20547235 -0.16371171 0.18261862 -0.3126955 -0.0006814897 -0.11566782 0.35763723
0.3145048 -0.22223777 -0.3906126 -0.11649448 0.01738131 0.35776234 0.3125146 0.21074224
0.35869735 0.265639 -0.08390081 -0.20660393 0.15664071 0.13965613 0.40497583 -0.37449834
-0.32932553 0.39534992 -0.033624887 0.0596765 -0.09236047 0.008292407 0.1941678 0.05505243
0.16743124 0.3495487 -0.0035194159 0.2122587 0.2848599 -0.24856217 0.34054428 -0.3266487
-0.01919645 -0.35735732 -0.354818 -0.026531726 0.19239908 -0.07946926 -0.38122678 0.08045462
-0.07474506 0.26411802 0.16861683 -0.35374314 -0.21689057 -0.09275973 -0.03930375 -0.048817575
0.26374406 0.26753694 -0.21947032 -0.31236893 -0.014246881 -0.24101008 -0.23904164 0.03499025
0.100165844 -0.24520917 0.105980694 0.15936953 0.34384757 0.26660144 -0.34655604 0.17084032
0.39928883 -0.3581639 0.32534564 0.016992807 0.38353586 0.2787885 -0.018860549 0.19513977
0.31272316 0.20551139 0.30919528 0.29153758 0.4001757 0.18864608 0.31314588 0.40436924
-0.19290778 0.30450326 0.2326774 0.1923902 -0.2913392 0.39537728 -0.08084464 -0.24545002
0.27640676 -0.113286585 0.19813657 -0.19268502 0.100452244 -0.34886408 0.21995765 -0.28634012
0.2953472 0.23389143 -0.13852003 -0.33105385 0.15232527 -0.40117627 0.31805915 -0.25386474
0.3162598 0.30591595 0.03945726 0.31401092 0.22835153 -0.189933 0.0379456 -0.06682843
0.3994416 -0.059880733 0.0067288578 -0.06830406 0.10878265 0.06187263 -0.10021734 0.25291234
0.08681375 -0.12964332 -0.19207703 -0.17394195 0.026801944 0.026917845 0.016783595 0.3999079
00000000: 7c59 0b3e 26dd 3dbe 9890 f23d c548 45be
00000010: b04c a23e 8f2b 27be 9429 a73d e403 b2be
00000020: ef08 9fbe 842f 693e e821 4d3d 4472 693e
00000030: 00cd 7ebb 8171 b0be a04a bb3e 881b 713e
00000040: 9030 1cbe 7417 823e 30ee b83e 5897 e13d
00000050: 08be 2fbd a2ac a1be 4339 80be 28fb c13d
00000060: ec2e ad3d b008 8d3e 5ecd a83e e69c a23e
00000070: c117 c2be 40f1 aabe c24d cebe 0080 a839
00000080: 008a 24bb 84c1 35be f280 9d3e d029 d53c
00000090: 4277 8f3e 4471 bdbd b103 c9be 72ee cebe
000000a0: 6a3f cdbe 30a0 073d 8bb4 c3be 5af1 95be
000000b0: 842e ca3e 92fc 4bbe 76f4 1dbe 0ab3 09be
000000c0: a037 293d 9454 92be 6485 c6be 80ef b5bc
000000d0: be38 a43e a837 33bd 5825 4a3d d6ae c43e
000000e0: 0011 79bc aab8 b03e 649b 793e e83d 0abe
000000f0: 9867 38bd 6883 e73d 1fea 75be 5ca9 c4be
00000100: c0a4 babe 15c6 c4be 3c76 a4bd 7208 9a3e
00000110: 66ca 81be d073 c53e ecb4 a83d f88f 2b3e
00000120: 9b65 7abe a022 ef3d a843 383e a6ae 9a3e
00000130: 0c73 703e 6fa7 4dbe 70df 49be d251 62be
00000140: 28f7 01be 5278 c73e 2eb4 9c3e 20ab af3e
00000150: 301d 9ebc fcd1 debd 75d7 79be 70e6 66bd
00000160: f059 3e3e bdfe 39be 108e 67bd 65bb b6be
00000170: 80f1 cb3d 4c3b 0abe 284e 20be bc9d c63e
00000180: ace1 4d3e 626a ab3e f844 003e a082 b3bd
00000190: 96b1 9d3e 54ac a3bd eced a5be f0ab 083d
000001a0: c8a2 083e 2868 a23d efc7 b6be 9417 24be
000001b0: 3202 80be 37d6 65be 481e 5f3e 8ea7 90be
000001c0: d4a4 703e 0c1f b03d 9e8a 823e ee1b 803e
000001d0: aa91 c6be b472 0f3e 20b8 9fbc c077 a5be
000001e0: 979f 2cbe 5867 523e 0ba4 27be 6000 3b3e
000001f0: a019 a0be 00a6 32ba 40e3 ecbd 3a1c b73e
00000200: c606 a13e 4c92 63be 60fe c7be a894 eebd
00000210: 4063 8e3c a02c b73e ea01 a03e d0cc 573e
00000220: 2ea7 b73e d601 883e 30d4 abbd fb8f 53be
00000230: 6c66 203e 0402 0f3e fe58 cf3e 3fbe bfbe
00000240: 5b9d a8be 4e6b ca3e 40ba 09bd 586f 743d
00000250: 7c27 bdbd e0dc 073c ecd3 463e a87e 613d
00000260: 1873 2b3e 0cf8 b23e 00a6 66bb 585a 593e
00000270: 28d9 913e 1587 7ebe d25b ae3e 803e a7be
00000280: e041 9dbc 8af7 b6be b4aa b5be 1059 d9bc
00000290: 4404 453e c8c0 a2bd 2830 c3be 64c5 a43d
000002a0: f013 99bd 7a3a 873e e4a9 2c3e d21d b5be
000002b0: 9018 5ebe d0f8 bdbd f8fc 20bd f0f4 47bd
000002c0: 7609 873e 9afa 883e d4bc 60be d2ee 9fbe
000002d0: c06b 69bc 59cb 76be 55c7 74be f051 0f3d
000002e0: c023 cd3d 1d18 7bbe 680c d93d c431 233e
000002f0: ca0c b03e fc7f 883e cb6f b1be c4f0 2e3e
00000300: 966f cc3e 4261 b7be b493 a63e 8034 8b3c
00000310: d05e c43e 5ebd 8e3e 7081 9abc b8d2 473e
00000320: 401d a03e 9471 523e d84e 9e3e 6a44 953e
00000330: d4e3 cc3e 702c 413e a854 a03e 7c09 cf3e
00000340: 9e89 45be dae7 9b3e fc42 6e3e f001 453e
00000350: 692a 95be e46e ca3e e091 a5bd 4057 7bbe
00000360: 3085 8d3e cc02 e8bd 50e4 4a3e 394f 45be
00000370: e8b9 cd3d 509e b2be 943c 613e 2c9b 92be
00000380: c037 973e 3c81 6f3e 32d8 0dbe e47f a9be
00000390: 28fb 1b3e fa66 cdbe a6d8 a23e 8ffa 81be
000003a0: ceec a13e 04a1 9c3e f09d 213d 0ac6 a03e
000003b0: fcd4 693e cc7d 42be d86c 1b3d 58dd 88bd
000003c0: 9c83 cc3e 8045 75bd c07d dc3b 00e3 8bbd
000003d0: 70c9 de3d 286e 7d3d c03e cdbd ba7d 813e
000003e0: 68cb b13d 38c1 04be d7af 44be d71d 32be
000003f0: c08f db3c d082 dc3c c07d 893c bac0 cc3e

model.2.weight f4 [1, 1024]
-0.025885925 -0.01644012 -0.022927053 -0.021297451 -0.025586475 0.0067932867 0.01816848 0.009825889
0.00028017163 0.01951024 -0.028412748 0.019144505 0.022098657 0.02690756 -0.018897183 1.4316291e-05
0.02460704 0.010414511 -0.026651353 -0.028989248 0.012291871 0.023427669 0.021785017 0.007553287
-0.013501782 0.016036741 -0.00022446364 -0.019615725 -0.019827701 -0.006245587 0.021308605 0.027192764
0.0012344085 -0.005864896 0.008433409 0.008103348 0.0014571138 -0.014546867 0.020808648 -0.003732022
-0.030277394 -0.009230856 -0.022568643 -0.029043138 0.020261493 -0.01326064 0.0007337555 0.025314048
0.013271876 0.0058616735 -0.016600333 0.030355733 0.028261773 0.013112728 0.008738395 -0.026727993
0.01969837 -0.026171975 0.012314774 0.01701381 -0.002872251 0.008275747 -0.00069640577 -0.013513401
-0.013001524 -0.0010465346 0.01890942 -0.0011311509 -0.002089657 0.0030872822 -0.013644103 0.029560357
-0.006542351 -0.011885278 0.029802699 0.015539639 -0.00022262707 0.013091955 -0.030392643 -0.01716666
-0.006624397 0.015530121 0.02522904 -0.0037042685 -0.012071721 0.022896193 -0.017815828 -0.00097593665
0.0015907735 0.017401636 0.022379551 -0.0010272115 0.0030521303 -0.01319699 -0.021251202 0.025433261
-0.028506577 0.0074808523 0.005551126 0.029949654 -0.024845917 0.02203767 -0.030782063 -0.015493218
0.008640803 -0.011894245 -0.0033844523 -0.019501891 0.015696548 -0.016173922 -2.8461218e-06 0.024447564
-0.0010470226 -0.006628532 0.029729284 0.028627474 0.021108165 -0.012396332 -0.02140522 -0.014897242
0.026597548 0.02194447 0.027228825 -0.00845091 0.0029116236 0.03054753 -0.013444893 0.020993233
0.02149824 -0.02372139 -0.0032944307 -0.021285448 0.0045416467 0.012066182 0.030053783 -0.00825648
-0.012595583 0.004034467 -0.020671714 -0.016634062 0.028244272 -0.009431478 -0.004053451 0.010558892
-0.024375383 0.02743389 -0.019840017 -0.02919976 -0.028640158 0.00047437102 -0.004709553 0.03043468
-0.009054523 -0.00076959655 -0.009659871 0.027886923 0.017202247 -0.020404883 0.0031189881 0.030092906
-0.0028937198 -0.005308453 0.021566387 0.0007765256 0.026551627 -0.02787793 0.020947672 -0.026809894
0.021794368 -0.029219221 -0.025343154 0.010488506 0.00886558 0.020908032 0.022860214 -0.01974371
-0.02714188 -0.0059921555 0.0057002716 -0.017298207 0.028053988 -0.025295395 0.007101249 -0.028297197
0.0067882575 0.017501868 -0.017416146 -0.029213812 -0.029079415 0.01067337 -0.0021103397 0.00013588741
-0.018952176 -0.011892471 0.025832906 -0.026189044 -0.024382293 -0.01311877 0.023681298 0.022804093
0.024468992 -0.011884749 -0.016828492 0.009905111 -0.02424999 -0.03096569 0.014312413 -0.0146486275
-0.0011016019 0.021044146 0.005014807 0.004955929 -0.030035932 -0.0012748837 -0.0015683323 -0.004903022
0.005506873 0.021245904 -0.005480487 0.022935085 0.017145433 0.0032618642 -0.024620075 0.0071118735
-0.026109226 0.0077670626 0.0027686805 0.015728753 -0.022808839 0.00090415403 -0.029961474 0.019620508
-0.009632703 -0.006211281 -0.017435849 -0.0035069063 0.015401047 0.021565031 -0.02308409 -0.0044388585
0.026874319 -0.008911021 0.008526113 -0.027703714 -0.01155477 -0.0024169944 -0.0031832159 0.025795624
0.004697509 -0.00706131 0.009195622 -0.0047802627 -0.026823096 -0.021733802 -0.01992089 -0.020295039
00000000: b80e d4bc 6ead 86bc 84d1 bbbc fe77 aebc
00000010: ba9a d1bc 389a de3b 10d6 943c c4fc 203c
00000020: 00e4 9239 f0d3 9f3c dac1 e8bc f0d4 9c3c
00000030: 3e08 b53c 3e6d dc3c 44ce 9abc 0030 7037
00000040: b494 c93c a0a1 2a3c f053 dabc dc7a edbc
00000050: d863 493c 62eb bf3c 7e76 b23c 9081 f73b
00000060: 9436 5dbc 7c5f 833c 005e 6bb9 28b1 a0bc
00000070: b46d a2bc c8a7 ccbb 628f ae3c 5cc3 de3c
00000080: e0cb a13a 502e c0bb 482c 0a3c e8c3 043c
00000090: a0fc be3a fc55 6ebc e676 aa3c f094 74bb
000000a0: 4c08 f8bc 043d 17bc e0e1 b8bc e0eb edbc
000000b0: 6efb a53c 2843 59bc 8059 403a 685f cf3c
000000c0: 4872 593c 4813 c03b 6cfd 87bc 96ac f83c
000000d0: 3c85 e73c c4d6 563c 7c2b 0f3c aaf4 dabc
000000e0: 7a5e a13c 9c66 d6bc e8c3 493c 8c60 8b3c
000000f0: 603c 3cbb 0097 073c 008f 36ba 5067 5dbc
00000100: 5804 55bc e02b 89ba eee7 9a3c 2043 94ba
00000110: a0f2 08bb 0054 4a3b 848b 5fbc 9028 f23c
00000120: 3861 d6bb 78ba 42bc ca24 f43c f899 7e3c
00000130: 0071 69b9 a47f 563c fef9 f8bc 18a1 8cbc
00000140: 7811 d9bb 0c72 7e3c 22ad ce3c 50c3 72bb
00000150: 78c8 45bc cc90 bb3c 80f2 91bc 00d6 7fba
00000160: 8081 d03a e08d 8e3c 5255 b73c 80a3 86ba
00000170: 4006 483b 3038 58bc 0017 aebc 6a59 d03c
00000180: a086 e9bc f021 f53b 38e6 b53b fa58 f53c
00000190: aa89 cbbc 5888 b43c aa2a fcbc 44d7 7dbc
000001a0: 2892 0d3c 14e0 42bc b0cd 5dbb 6ec2 9fbc
000001b0: 0c96 803c 2c7f 84bc 0000 3fb6 4246 c83c
000001c0: 403c 89ba 2834 d9bb d48a f33c 2a84 ea3c
000001d0: 08eb ac3c fc19 4bbc 005a afbc 9013 74bc
000001e0: 1ae3 d93c e4c4 b33c fc0e df3c b075 0abc
000001f0: f0d0 3e3b d03e fa3c f847 5cbc 00fa ab3c
00000200: 141d b03c 5c53 c2bc 60e7 57bb d25e aebc
00000210: 18d2 943b 3cb1 453c 5a33 f63c 3046 07bc
00000220: b45d 4ebc 9033 843b ba57 a9bc 2844 88bc
00000230: 8860 e73c 7c86 1abc d0d2 84bb 34ff 2c3c
00000240: e2ae c7bc 0abd e03c 8887 a2bc 5634 efbc
00000250: c49e eabc 00b5 f839 9852 9abb 2652 f93c
00000260: 6c59 14bc c0be 49ba 7044 1ebc 1e73 e43c
00000270: baeb 8c3c 2428 a7bc f067 4c3b 6685 f63c
00000280: 90a4 3dbb 88f2 adbb feab b03c c08f 4b3a
00000290: cc82 d93c 4260 e4bc 749a ab3c 6ca0 dbbc
000002a0: 1a8a b23c 265d efbc 729c cfbc fcd7 2b3c
000002b0: f040 113c 5247 ab3c 5845 bb3c 90bd a1bc
000002c0: a658 debc d859 c4bb 58c9 ba3b f8b4 8dbc
000002d0: 7ad1 e53c 4a38 cfbc 98b1 e83b 86cf e7bc
000002e0: 0870 de3b 1460 8f3c 4eac 8ebc ce51 efbc
000002f0: f437 eebc 5cdf 2e3c a04d 0abb 007d 0e39
00000300: 9841 9bbc a4d8 42bc 889f d33c 688a d6bc
00000310: 60bd c7bc 1cf0 56bc 48ff c13c a6cf ba3c
00000320: 3273 c83c 40b8 42bc e8db 89bc 0c49 223c
00000330: eaa7 c6bc c2ab fdbc 9c7e 6a3c cc00 70bc
00000340: a063 90ba c664 ac3c 4053 a43b 5865 a23b
00000350: ea0d f6bc 001a a7ba 8090 cdba 88a9 a0bb
00000360: 0073 b43b e40b ae3c a895 b3bb 5ce2 bb3c
00000370: 9474 8c3c 00c5 553b 0ab0 c9bc b80a e93b
00000380: 04e3 d5bc d882 fe3b c072 353b 96d9 803c
00000390: 9ad9 babc c004 6d3a c471 f5bc 30bb a03c
000003a0: 7cd2 1dbc 0088 cbbb a0d5 8ebc 20d4 65bb
000003b0: ac54 7c3c 26a9 b03c d81a bdbc d873 91bb
000003c0: 8827 dc3c 88ff 11bc 1cb1 0b3c e6f2 e2bc
000003d0: 3850 3dbc 7066 1ebb 809d 50bb 5851 d33c
000003e0: 90ed 993b 9062 e7bb 3ca9 163c c0a3 9cbb
000003f0: 1cbc dbbc 160b b2bc 2231 a3bc c841 a6bc
