checkpoints/last.ckpt (torch, 112035 bytes, 9 tensors)

model.0.weight f4 [512, 15]
0.040715672 0.2422935 -0.04919985 0.46755952 -0.33522743 0.03426146 -0.2654633 0.18337359
0.08930342 -0.197676 0.29971066 0.040070184 0.2660449 0.026713887 0.19978599 -0.08125787
0.24227676 0.029582838 -0.21932828 0.01678968 -0.02560617 0.2178751 0.027834978 0.41725057
-0.587304 -0.11903235 -0.45639858 -0.15524788 -0.3591198 -0.25501764 0.4760326 -0.12689081
0.19329955 0.109697185 0.044666726 0.23355038 0.035138678 0.2340119 0.03139756 0.017114421
-0.0049216095 0.028525228 0.034369558 0.32906887 0.07495876 -0.19211373 0.16577102 -0.024237601
0.10372395 -0.30191672 -0.3131559 -0.047414895 -0.20991927 0.25698987 -0.102981284 0.18939458
-0.09569238 0.077953674 0.024718016 -0.101008594 0.052123077 -0.04497988 0.116508864 -0.32155797
0.14133893 0.009762745 0.42025423 -0.06987464 0.03937343 -1.0045184 0.28270307 -0.76447505
0.29892004 -1.0636052 -0.20563361 -0.32935518 -0.16281971 0.11562632 0.034650635 0.16753629
-0.19549598 -0.14918032 0.1140592 -0.085077085 0.053377725 0.04373364 0.04437228 -0.09560792
-0.23362939 0.18372308 0.07262858 0.039974604 0.12599914 0.59143585 -0.25555864 -0.080611095
0.2814761 0.022688905 -0.049730163 -1.2137976 -0.13866746 -0.8994666 -0.0248851 -1.1513884
0.0152518945 -0.06544254 -0.351544 -0.16108155 -0.16490369 -0.1588974 0.26278722 0.008441666
0.04985 -0.27382278 -0.12814337 -0.09891329 0.08180974 -0.24016468 -0.06981599 -0.16754554
-0.0042092926 -0.09607664 -0.017892092 -0.17496324 -0.17812961 -0.1506337 -0.08928405 -0.20379144
0.21558885 -0.056935046 0.22215348 0.07475831 -0.21864204 0.17299087 -0.07104209 0.0065580867
-0.13416734 -0.2423085 0.08158071 -0.088592306 0.17228986 -0.2147075 0.30409056 -0.19601178
0.11841515 0.11489823 0.2962948 0.2694151 0.39820778 -0.14376323 0.07947507 0.10572364
0.16972245 -0.15442418 0.50096947 -0.060443167 0.65960956 0.2670023 0.6001259 -0.92763346
0.30431056 -0.7312999 0.10283543 -1.015578 0.17800952 -0.10229821 0.017454015 0.26952815
0.049123164 -0.13153292 -0.1809194 0.14955774 0.13754138 0.087524176 -0.8431861 -0.06330758
-0.8887585 0.117192894 -0.49600783 -0.21796808 -0.06611491 0.1655421 0.0997098 -0.25891122
0.01041311 0.123265 0.102209605 -0.026889415 -0.06963919 -0.022022394 0.015332275 -0.1265884
0.22598638 0.17225114 0.035383154 -0.05780992 0.003767699 -0.015416607 0.062073916 0.072356015
-0.23451088 -0.09528513 0.21743688 0.10058266 -0.012842193 -0.1556696 -0.15796739 -0.231286
-0.08416313 0.08719483 0.35963005 0.110058814 -0.18598759 -0.07799636 0.09693946 0.3030029
0.035983793 -0.061470713 0.11345069 -0.025463533 -0.24190001 0.26133603 -0.19218281 0.02111942
-0.33163667 0.04581358 0.21228555 0.104515135 -0.40428704 -0.2063767 -0.10537398 0.46739185
0.28007656 0.48098904 -0.3655997 0.07904968 -0.5033908 -0.18266033 -0.7220796 -0.2278045
0.2884392 -0.12364552 -0.073675476 -0.06188106 0.08121028 -0.10140975 -0.17158958 0.1203286
-0.07201438 0.23384988 -0.14331397 -0.114953704 -0.10603794 -0.050708823 -0.13947527 -0.21378213
00000000: 7ac5 263d ca1b 783e c885 49bd f663 ef3e
00000010: eea2 abbe bf55 0c3d ceea 87be 49c6 3b3e
00000020: b6e4 b63d 946b 4abe ad73 993e a220 243d
00000030: 0a37 883e 15d7 da3c b394 4c3e 876a a6bd
00000040: 6617 783e b557 f23c 9897 60be 838a 893c
00000050: 08c4 d1bc a61a 5f3e 2e06 e43c dea1 d53e
00000060: 8e59 16bf 3cc7 f3bd 13ad e9be 4df9 1ebe
00000070: 8dde b7be ac91 82be 8cba f33e aaef 01be
00000080: 51f0 453e eba8 e03d 75f4 363d d527 6f3e
00000090: 93ed 0f3d d1a0 6f3e ba9a 003d 8b33 8c3c
000000a0: 7445 a1bb bdad e93c 18c7 0c3d b77b a83e
000000b0: fa83 993d 76b9 44be e1bf 293e ef8d c6bc
000000c0: 396d d43d d494 9abe f855 a0be 1f36 42bd
000000d0: 14f5 56be 2d94 833e dae7 d2bd a7f0 413e
000000e0: 5efa c3bd 2da6 9f3d 707d ca3c 98dd cebd
000000f0: 027f 553d d33c 38bd 339c ee3d 3fa3 a4be
00000100: 27bb 103e ecf3 1f3c 902b d73e 6f1a 8fbd
00000110: 0946 213d 0f94 80bf 75be 903e a3b4 43bf
00000120: 0c0c 993e 3724 88bf 9e91 52be 3ea1 a8be
00000130: 36ba 26be 7ecd ec3d d3ed 0d3d a28e 2b3e
00000140: 1930 48be bac2 18be df97 e93d e53c aebd
00000150: 9aa2 5a3d 0c22 333d b5bf 353d 16ce c3bd
00000160: 8b3c 6fbe e721 3c3e 4bbe 943d 69bc 233d
00000170: eb05 013e 5768 173f 95d8 82be 6e17 a5bd
00000180: a31d 903e 15de b93c dbb1 4bbd b85d 9bbf
00000190: d8fe 0dbe 7143 66bf d6db cbbc b260 93bf
000001a0: 15e3 793c bd06 86bd 93fd b3be 90f2 24be
000001b0: 83dc 28be 00b6 22be 0c8c 863e ea4e 0a3c
000001c0: 832f 4c3d 8032 8cbe 0438 03be 0d93 cabd
000001d0: dd8b a73d bbed 75be b0fb 8ebd 0f91 2bbe
000001e0: 1bee 89bb d4c3 c4bd 7092 92bc 9029 33be
000001f0: 9c67 36be b83f 1abe 8eda b6bd b4ae 50be
00000200: 53c3 5c3e b934 69bd 347c 633e e31a 993d
00000210: b3e3 5fbe 8524 313e 847e 91bd 38e5 d63b
00000220: 2a63 09be b81f 78be ca13 a73d e26f b5bd
00000230: c16c 303e 48dc 5bbe c2b1 9b3e 50b7 48be
00000240: a483 f23d c34f eb3d f4b3 973e c7f0 893e
00000250: e4e1 cb3e ab36 13be d3c3 a23d a385 d83d
00000260: b9cb 2d3e 5f21 1ebe 893f 003f 4193 77bd
00000270: 2cdc 283f 87b4 883e daa1 193f 6379 6dbf
00000280: 98ce 9b3e 7836 3bbf 629b d23d 76fe 81bf
00000290: 2148 363e b981 d1bd b9fb 8e3c 98ff 893e
000002a0: 5f35 493d 91b0 06be ef42 39be aa25 193e
000002b0: a6d7 0c3e e03f b33d 0bdb 57bf 68a7 81bd
000002c0: ad85 63bf d402 f03d bdf4 fdbe 0633 5fbe
000002d0: 4167 87bd de83 293e a734 cc3d 0390 84be
000002e0: c09b 2a3c 5c72 fc3d 4553 d13d 3147 dcbc
000002f0: fe9e 8ebd 4f68 b4bc 3934 7b3c 64a0 01be
00000300: f968 673e 9a62 303e eded 103d 18ca 6cbd
00000310: 80eb 763b f095 7cbc 3841 7e3d 642f 943d
00000320: 9f23 70be da24 c3bd c6a7 5e3e 48fe cd3d
00000330: 1068 52bc da67 1fbe 34c2 21be 3dd6 6cbe
00000340: b85d acbd 3493 b23d 6e21 b83e 8466 e13d
00000350: 8873 3ebe 8ebc 9fbd 3288 c63d 3223 9b3e
00000360: be63 133d b7c8 7bbd d658 e83d e698 d0bc
00000370: a3b4 77be d6cd 853e 92cb 44be a202 ad3c
00000380: 48cc a9be 05a7 3b3d 6261 593e 080c d63d
00000390: b6fe cebe 6a54 53be 50ce d7bd fc4d ef3e
000003a0: 3266 8f3e 3244 f63e e22f bbbe cce4 a13d
000003b0: 38de 00bf 4f0b 3bbe 35da 38bf 9545 69be
000003c0: 4eae 933e dd39 fdbd 2be3 96bd ff76 7dbd
000003d0: 9351 a63d eaaf cfbd 2eb5 2fbe d76e f63d
000003e0: 467c 93bd 5876 6f3e e6c0 12be d96c ebbd
000003f0: 6b2a d9bd 0eb4 4fbd 9bd2 0ebe b4e9 5abe

model.0.bias f4 [512]
-0.14987323 -0.19802429 0.009876886 0.24260831 0.13456447 0.17383972 -0.060834218 0.21786577
-0.12354151 -0.02471637 -0.16623622 0.10044464 0.007168146 -0.24781741 0.23378867 0.040349193
0.2621649 -0.06291501 0.059668195 -0.053474937 0.21334444 -0.16803746 0.16689393 -0.0294011
0.22534424 -0.1898288 -0.14389884 0.045255482 -0.010918945 0.06054109 0.048679855 0.236677
0.18120968 -0.15698242 0.22817041 -0.04733418 -0.2645902 0.12169061 0.08067349 0.24720988
0.03353918 0.19225107 0.14598854 -0.05851645 0.10071306 -0.16698027 -0.053969227 -0.093256064
-0.10472696 0.12930161 0.14579247 -0.25444317 0.15879522 -0.22847688 -0.14047685 0.09814139
0.06112819 -0.18277597 0.227197 0.07332323 -0.19357473 0.21951413 0.045226924 0.035863537
-0.19863619 0.00063847506 0.08529629 0.0044825175 0.2488917 -0.12116408 0.015745297 -0.060773145
-0.033925664 0.12846287 -0.09028981 0.17265601 0.14369437 0.044856764 -0.094901346 -0.10189593
0.086608246 0.24169295 0.009080374 -0.1756788 -0.02304051 -0.1392305 -0.12375684 -0.36450556
0.16646269 0.17754565 -0.07633873 0.24042562 0.0564498 -0.16427086 0.04402099 -0.25450388
0.0642918 -0.2066371 -0.10376047 0.0825972 0.104001544 0.04590291 -0.27291122 -0.24714032
0.029077694 0.22967286 0.10013037 0.24295281 0.062243346 0.12885115 -0.18089706 0.16041747
0.063035145 0.09350976 -0.12850873 -0.13262314 -0.075013936 -0.054713022 -0.13711715 0.1381005
0.07772223 0.084733516 -0.25145468 0.079804696 -0.08994617 -0.20688026 -0.19289896 -0.23482475
-0.24332033 0.14187106 0.17846675 -0.17975628 0.01782179 0.043749724 0.27702942 0.1977151
0.14495298 -0.12347852 -0.058501408 0.043889727 -0.098659836 -0.19215818 0.07660325 0.015155964
0.112394005 0.10532301 -0.24722318 -0.14329602 -0.2399229 -0.16722345 -0.1757013 0.19504665
0.12700081 0.2400089 0.08727669 0.06939515 0.18489581 -0.2635946 0.02083467 0.0763099
0.09376322 0.20988534 0.028960917 0.16224846 0.048131067 -0.002931924 -0.20093864 -0.10275941
0.0019270838 0.121405646 0.07072307 -0.021429012 0.048466057 0.18128121 0.1678311 0.119605884
-0.09613355 -0.08681697 0.17835514 0.2400582 0.001186359 0.071142 -0.06981983 0.17422336
-0.012438617 -0.21163528 -0.08442845 0.120962575 0.117032714 -0.10201477 0.22915997 0.11974552
0.19805126 0.114803135 -0.2747469 -0.017241301 0.12515703 0.17277217 -0.24767162 0.014542763
0.095337704 -0.112434015 0.19268614 -0.1071962 0.014489208 0.1292262 0.11897564 -0.1921122
0.08751093 0.06139771 -0.081924066 0.052393816 0.068702646 0.18413584 -0.21496625 0.240311
0.1381353 0.075858936 0.2392258 -0.09238755 -0.22247246 0.08811742 0.15532131 0.16997562
-0.03138717 0.2431175 0.13748063 0.12831849 -0.10561586 0.094055995 0.030426912 -0.20858099
-0.005840798 0.028942995 -0.06555085 -0.08719732 0.23906934 0.13347013 -0.24549839 0.07143024
0.2223596 0.055346332 0.05262608 0.07341244 0.015888093 -0.06444339 -0.111568406 0.09346968
0.20003134 -0.10838828 -0.16313775 -0.060098816 -0.061804164 0.08624956 -0.045309357 0.077392526
00000000: 5e78 19be e1c6 4abe aad2 213c 506e 783e
00000010: 45cb 093e 0a03 323e 4d2d 79bd 3418 5f3e
00000020: 5503 fdbd fc79 cabc d439 2abe ebb5 cd3d
00000030: c4e2 ea3b d9c3 7dbe 4c66 6f3e 3245 253d
00000040: 7a3a 863e 96d9 80bd a366 743d 8908 5bbd
00000050: f776 5a3e 0312 2cbe 3ee6 2a3e 93da f0bc
00000060: a4c0 663e 7b62 42be 385a 13be d05d 393d
00000070: 60e5 32bc eff9 773d 8764 473d 755b 723e
00000080: 088f 393e 00c0 20be 81a5 693e 7ce1 41bd
00000090: 5e78 87be ed38 f93d 2538 a53d 9624 7d3e
000000a0: 6160 093d 77dd 443e 057e 153e f2ae 6fbd
000000b0: a642 ce3d e0fc 2abe d60e 5dbd 09fd bebd
000000c0: 177b d6bd a467 043e 9f4a 153e 6046 82be
000000d0: 379b 223e d8f5 69be 2ad9 0fbe 5afe c83d
000000e0: 8e61 7a3d a029 3bbe 55a6 683e 7d2a 963d
000000f0: 7438 46be 50c8 603e de3f 393d a5e5 123d
00000100: 4967 4bbe 565f 273a d2af ae3d 15e2 923b
00000110: 77dd 7e3e e024 f8bd 48fc 803c 43ed 78bd
00000120: a3f5 0abd c58b 033e dde9 b8bd bdcc 303e
00000130: 9e24 133e babb 373d a35b c2bd d0ae d0bd
00000140: aa5f b13d 5b7e 773e d9c5 143c 25e5 33be
00000150: 74bf bcbc 7192 0ebe 3a74 fdbd 79a0 babe
00000160: 3275 2a3e 87ce 353e 7b57 9cbd 2232 763e
00000170: e837 673d 9f36 28be 5b4f 343d 554e 82be
00000180: 6bab 833d ad98 53be 5f80 d4bd b928 a93d
00000190: c3fe d43d b104 3c3d 05bb 8bbe 5a12 7dbe
000001a0: 5834 ee3c 5d2f 6b3e 2711 cd3d 9fc8 783e
000001b0: e1f2 7e3d 8ef1 033e 143d 39be 7a44 243e
000001c0: 9218 813d 0c82 bf3d cb97 03be 5cce 07be
000001d0: e8a0 99bd c31a 60bd 7068 0cbe 386a 0d3e
000001e0: d52c 9f3d c488 ad3d abbe 80be a570 a33d
000001f0: b335 b8bd 6bd8 53be 4e87 45be e675 70be
00000200: f728 79be a646 113e fdbf 363e 0812 38be
00000210: 01ff 913c e932 333d cdd6 8d3e d475 4a3e
00000220: 8e6e 143e 4ee2 fcbd 2c9f 6fbd b7c5 333d
00000230: 2b0e cabd 1dc5 44be 2ae2 9c3d b850 783c
00000240: d42e e63d 97b3 d73d 1328 7dbe 31bc 12be
00000250: 59ae 75be a03c 2bbe 0beb 33be 4fba 473e
00000260: 800c 023e e5c4 753e 1fbe b23d 0b1f 8e3d
00000270: 5455 3d3e dff5 86be 78ad aa3c 5d48 9c3d
00000280: ee06 c03d 2fec 563e 723f ed3c 7624 263e
00000290: 1525 453d 8625 40bb dcc2 4dbe 8773 d2bd
000002a0: 3496 fc3a 86a3 f83d 42d7 903d e58b afbc
000002b0: 5884 463d c8a1 393e eadb 2b3e eef3 f43d
000002c0: abe1 c4bd 18cd b1bd bba2 363e d1d1 753e
000002d0: 9a7f 9b3a e6b2 913d b3fd 8ebd 9c67 323e
000002e0: 57cb 4bbc ebb6 58be d3e8 acbd 3abb f73d
000002f0: d9ae ef3d 1fed d0bd e9a8 6a3e 243d f53d
00000300: f3cd 4a3e e81d eb3d a0ab 8cbe a13d 8dbc
00000310: 2a29 003e 30eb 303e a19d 7dbe c544 6e3c
00000320: 6a40 c33d ce43 e6bd 844f 453e ae89 dbbd
00000330: 2564 6d3c df53 043e 80a9 f33d 10b9 44be
00000340: ee38 b33d 2a7c 7b3d cec7 a7bd e69a 563d
00000350: f9b3 8c3d 1b8e 3c3e 1d20 5cbe 1614 763e
00000360: 5773 0d3e ee5b 9b3d 9cf7 743e af35 bdbd
00000370: d2cf 63be e876 b43d 8d0c 1f3e 170e 2e3e
00000380: d58f 00bd cbf3 783e b9c7 0c3e ec65 033e
00000390: 214d d8bd 6ea0 c03d dc41 f93c 4196 55be
000003a0: 2a64 bfbb dc19 ed3c 863f 86bd 8294 b2bd
000003b0: 98ce 743e 65ac 083e ee63 7bbe 054a 923d
000003c0: 3cb2 633e d6b2 623d 728e 573d 4359 963d
000003d0: bf27 823c e5fa 83bd fa7d e4bd 086d bf3d
000003e0: 04d5 4c3e adfa ddbd 950d 27be 2d2a 76bd
000003f0: 5d26 7dbd 9ca3 b03d 4e96 39bd f97f 9e3d

model.2.weight f4 [1, 512]
-0.080496304 -0.184515 0.16478385 -0.06579617 -0.23296323 -0.05787029 -0.43218958 0.024747947
0.0072951247 -0.19009288 -1.0104427 -0.17815013 -0.05749915 -0.008029297 0.07949242 -0.15602024
0.091037735 -0.11664811 0.13627097 -0.30884182 -0.038836304 -0.010290812 0.1431861 -0.18945046
0.098945886 -0.2109743 -0.49192616 -0.23944752 -0.6814046 0.18848944 -0.032745104 0.05938397
0.12732367 0.032859594 -0.12802339 0.09439635 -0.94813764 -0.12609477 -0.21130563 0.08811467
-0.1263784 0.11254874 -0.2600787 -0.18040101 -0.052810956 -0.028469486 0.043048102 -0.37939653
-0.3539126 0.040605485 0.00027420753 0.035447177 0.08015815 -1.1476198 -0.1949572 -0.15447912
0.23677735 -0.013353233 -0.06012561 -0.10360836 0.8769966 -0.14281484 0.24014059 0.21906435
-0.011881596 0.03838142 -0.20219369 -0.29225358 -0.14601576 0.60151625 0.27176774 -0.22847977
-0.4667052 -0.16851352 -0.26039544 -0.035834234 -0.73259556 -0.13293499 -0.2632003 0.020019278
0.04150501 -0.01550558 0.27730832 -0.036008496 -0.16384932 -0.05820297 -0.03702242 -0.68237513
-0.037216406 -0.012600327 -0.16158943 -0.043891188 -0.27054086 0.009642608 -0.08207921 0.014555048
-0.8678339 -0.31260493 -0.21609688 -0.060546342 0.098284274 0.06041272 -0.008264642 -0.03578458
-0.10504849 0.03493253 -0.17544337 0.03621199 -0.13647062 -0.12200809 -0.9096915 -0.056930266
-0.05518052 -0.11598396 -0.054666493 0.75748354 -0.09206518 -0.03904377 -0.017522695 -0.16308776
-0.11718741 0.1931064 0.024271052 0.07615527 -0.19321848 0.016273698 0.99025655 -0.036265824
-0.60759264 -0.023897497 0.0009801836 0.15204754 -0.10632027 -0.1650072 -0.09054756 0.080582194
0.06566344 -0.44891492 -0.12946145 0.17667353 0.31090978 -0.04190195 0.09678148 0.31376374
-0.0427156 -0.084670484 1.1932998 -0.088378325 -0.48256648 -0.08600284 0.022809107 -0.041621134
-0.7393823 0.03057189 -0.552774 -0.5465397 0.11829786 0.0027305894 0.30710927 -0.07367441
-0.24952811 0.0651955 0.13542071 0.008934632 0.11265308 0.00055226753 -0.14807585 -0.49840364
0.06059555 -0.04972416 -0.11748785 -0.12503804 -0.2796153 -0.011177318 0.059791382 0.12064139
-0.34629706 -0.012755152 0.03162323 0.012603527 0.28400248 -0.0024950155 -0.23195228 0.04785361
-0.24634181 -0.0036379255 -0.5671486 -0.14492571 0.1259265 -0.43644154 -0.0655931 -0.03431888
0.083988994 -0.08374948 0.009244951 -0.45126075 -0.03249096 0.11507019 0.014250758 0.28490973
-0.038855027 -0.20450383 0.077890106 -0.031463303 -0.07113801 -0.059689123 0.15066035 1.3041486
-0.23363063 -1.079434 -0.110513814 0.15922071 -0.12606697 -0.03354992 -0.10257598 -0.10164506
-0.018122124 -0.04020716 -0.09012667 -0.18085752 0.0357367 -0.10660618 0.14652498 0.073843494
-0.2156168 0.055120803 -0.20505208 -0.35714695 -0.10300939 -0.19770263 0.277323 -0.010070998
-0.5100777 -0.4232776 0.0050354064 -0.14611138 -0.06575377 0.073553495 0.13045786 0.12667412
0.06991543 0.2412488 0.12135502 0.072455406 0.25246096 -0.43433544 -0.003626539 -0.18121023
0.05980819 -0.41093636 1.3154181 -0.26411608 -0.016771326 -0.09095621 -0.13621475 0.056122642
00000000: 3fdb a4bd 80f1 3cbe 19bd 283e 24c0 86bd
00000010: ea8d 6ebe 6609 6dbd f447 ddbe 35bc ca3c
00000020: f10b ef3b b5a7 42be 3056 81bf fd6c 36be
00000030: 3b84 6bbd 508d 03bc eccc a23d c5c3 1fbe
00000040: fe71 ba3d 34e5 eebd 9e8a 0b3e 8420 9ebe
00000050: d112 1fbd cb9a 28bc 619f 123e 4dff 41be
00000060: 24a4 ca3d a609 58be bfdd fbbe bb31 75be
00000070: 8870 2ebf 6003 413e bb1f 06bd 9b3c 733d
00000080: 2361 023e c897 063d 9018 03be e052 c13d
00000090: 26b9 72bf fd1e 01be 8160 58be 7775 b43d
000000a0: 5769 01be f47f e63d 0929 85be 0bbb 38be
000000b0: 4d50 58bd d738 e9bc 3553 303d 4340 c2be
000000c0: 0834 b5be f051 263d 83c3 8f39 0f31 113d
000000d0: f529 a43d 35e5 92bf dca2 47be c62f 1ebe
000000e0: c375 723e 85c7 5abc 4646 76bd 9f30 d4bd
000000f0: d982 603f 0e3e 12be 6ae7 753e 6852 603e
00000100: 07ab 42bc d635 1d3d dd0b 4fbe 43a2 95be
00000110: 2885 15be f8fc 193f 2425 8b3e 9af6 69be
00000120: fcf3 eebe cf8e 2cbe 8d52 85be ebc6 12bd
00000130: 628b 3bbf 1c20 08be 31c2 86be 78ff a33c
00000140: 2801 2a3d 1e0b 7ebc 5bfb 8d3e a57d 13bd
00000150: 1ec8 27be 3d66 6ebd d2a4 17bd 23b0 2ebf
00000160: 3b70 18bd 9a71 4ebc b377 25be 3fc7 33bd
00000170: 5584 8abe 08fc 1d3c 2519 a8bd 4c78 6e3c
00000180: 5d2a 5ebf c10d a0be 8048 5dbe 71ff 77bd
00000190: 4449 c93d 5473 773d 6c68 07bc da92 12bd
000001a0: aa23 d7bd 6a15 0f3d 6da7 33be 0653 143d
000001b0: f4be 0bbe 61df f9bd 8be1 68bf b62f 69bd
000001c0: f804 62bd 0089 edbd f9e9 5fbd 71ea 413f
000001d0: ab8c bcbd 5cec 1fbd c18b 8fbc 7a00 27be
000001e0: f4ff efbd afbd 453e 16d4 c63c 4bf7 9b3d
000001f0: 11db 45be 6b50 853c 7481 7d3f 798b 14bd
00000200: 318b 1bbf afc4 c3bc 8179 803a 5ab2 1b3e
00000210: 71be d9bd a6f7 28be 0071 b9bd 4708 a53d
00000220: 8e7a 863d 2dd8 e5be 8b91 04be e8e9 343e
00000230: 912f 9f3e 61a1 2bbd 5e35 c63d a4a5 a03e
00000240: 8ef6 2ebd b867 adbd 0cbe 983f b2ff b4bd
00000250: f412 f7be 4222 b0bd 2ada ba3c ec7a 2abd
00000260: 2948 3dbf e671 fa3c 9982 0dbf 07ea 0bbf
00000270: 2646 f23d b0f3 323b 6d3d 9d3e 9ce2 96bd
00000280: 4c84 7fbe 3885 853d baab 0a3e 9062 123c
00000290: a8b6 e63d 0cc6 103a 32a1 17be c32e ffbe
000002a0: 0a33 783d 90ab 4bbd 789d f0bd f909 00be
000002b0: bd29 8fbe 1221 37bc cfe7 743d d512 f73d
000002c0: d94d b1be fcfa 50bc 5c87 013d 067f 4e3c
000002d0: c668 913e 6a83 23bb e684 6dbe 2602 443d
000002e0: 0741 7cbe 436a 6ebb a730 11bf 6867 14be
000002f0: e0f2 003e 4475 dfbe ad55 86bd f491 0cbd
00000300: 6c02 ac3d d984 abbd 2378 173c a60b e7be
00000310: 3e15 05bd eba9 eb3d 037c 693c b0df 913e
00000320: 7326 1fbd 7469 51be d984 9f3d aadf 00bd
00000330: ceb0 91bd 957c 74bd b546 1a3e 57ee a63f
00000340: de3c 6fbe e52a 8abf 1155 e2bd c10a 233e
00000350: b317 01be a46b 09bd 5b13 d2bd 492b d0bd
00000360: d974 94bc 43b0 24bd 5594 b8bd b732 39be
00000370: a560 123d 5754 dabd a50a 163e 423b 973d
00000380: a7ca 5cbe 5ac6 613d 2cf9 51be f7db b6be
00000390: 96f6 d2bd 8f72 4abe 48fd 8d3e d400 25bc
000003a0: 7494 02bf d7b7 d8be 0d00 a53b 399e 15be
000003b0: eaa9 86bd 37a3 963d bf96 053e dcb6 013e
000003c0: d22f 8f3d ed09 773e fb88 f83d 8063 943d
000003d0: 9042 813e 3761 debe 3aab 6dbb 2d8f 39be
000003e0: 6ff9 743d 4066 d2be 9f5f a83f 393a 87be
000003f0: 0564 89bc 4047 babd e17b 0bbe dbe0 653d

exp_avg f4 [512, 15]
-6.3545945e-06 2.0520267e-05 2.8385928e-05 2.401782e-05 1.2174229e-05 1.21608255e-05 8.122464e-06 4.2956617e-06
8.034693e-06 -4.203211e-06 -8.7579083e-10 -4.203211e-06 -8.7579083e-10 -4.203211e-06 -8.7579083e-10 -9.84933e-06
6.2815685e-05 -4.907837e-06 1.33666645e-05 3.5904188e-06 1.1642276e-05 -4.4917165e-06 6.939071e-06 -4.4661697e-06
1.1001595e-06 0.0 1.1001595e-06 0.0 1.1001595e-06 0.0 6.6260645e-06 -3.734927e-05
-7.6502256e-05 1.6420647e-05 5.7561338e-06 8.930287e-05 1.1260579e-05 9.187627e-05 1.0492607e-05 -1.5524001e-05
1.8913688e-09 -1.5524001e-05 1.8913688e-09 -1.5524001e-05 1.8913688e-09 -7.9733145e-06 1.6808075e-05 2.5028625e-05
-1.1206349e-06 8.662079e-07 -2.4996907e-05 -3.2771954e-06 -2.6015376e-05 -2.9442099e-06 8.729636e-06 -7.6297757e-10
8.729636e-06 -7.6297757e-10 8.729636e-06 -7.6297757e-10 -3.7002705e-05 0.000119261524 0.000112672904 -4.2104857e-05
-1.1244813e-05 -0.00013237297 -2.4225701e-05 -0.00013105736 -2.3062332e-05 9.431878e-06 -7.317797e-12 9.431878e-06
-7.317797e-12 9.431878e-06 -7.317797e-12 -1.2767114e-06 9.048946e-06 2.6906135e-05 -8.327107e-06 -3.493359e-06
-3.725632e-05 -2.9993655e-06 -3.6129906e-05 -2.7302274e-06 6.5543377e-06 -2.2860007e-10 6.5543377e-06 -2.2860007e-10
6.5543377e-06 -2.2860007e-10 -1.3484828e-05 0.00014465646 0.0002600627 -8.336748e-05 7.4985576e-07 -0.00044268862
-1.2164364e-05 -0.00041999025 -1.1383372e-05 1.8752788e-05 -6e-45 1.8752788e-05 -6e-45 1.8752788e-05
-6e-45 8.1314744e-07 4.535574e-07 -1.3905113e-05 3.3886124e-06 2.0675327e-06 1.604424e-05 1.8502168e-06
1.5517953e-05 1.738631e-06 -2.0083946e-06 6.6933854e-11 -2.0083946e-06 6.6933854e-11 -2.0083946e-06 6.6933854e-11
6e-45 0.0 0.0 0.0 6e-45 0.0 6e-45 0.0
6e-45 6e-45 0.0 6e-45 0.0 6e-45 0.0 -2.3300146e-05
-4.78805e-05 1.8606874e-05 -5.262621e-05 -2.4999219e-05 -0.00017778644 -2.1046877e-05 -0.0001682112 -2.0677644e-05
1.4685302e-05 -2.1791027e-09 1.4685302e-05 -2.1791027e-09 1.4685302e-05 -2.1791027e-09 -2.037385e-05 -2.161724e-05
0.00047785052 8.774684e-05 -1.3565487e-05 -0.00020671744 -8.136035e-05 -0.0002537989 -8.038823e-05 1.0818766e-05
-3.1756733e-11 1.0818766e-05 -3.1756733e-11 1.0818766e-05 -3.1756733e-11 -1.9270958e-05 4.5574667e-05 6.1458566e-05
-2.176467e-05 -4.4228245e-06 -9.6097894e-05 -1.3213518e-05 -9.684726e-05 -1.2381383e-05 5.3486438e-06 -6e-45
5.3486438e-06 -6e-45 5.3486438e-06 -6e-45 -1.677952e-05 1.3912414e-05 1.8695926e-05 1.3632948e-05
-2.451254e-06 -1.2923426e-05 -5.2792793e-06 -1.228879e-05 -5.1393836e-06 1.7562002e-06 -6.612533e-10 1.7562002e-06
-6.612533e-10 1.7562002e-06 -6.612533e-10 0.0 0.0 0.0 0.0 0.0
0.0 0.0 0.0 0.0 0.0 0.0 0.0 0.0
0.0 0.0 7.73492e-06 -1.7495773e-05 -3.7002785e-05 7.676083e-06 1.2440623e-06 4.637708e-05
4.4462654e-06 4.7289243e-05 4.072869e-06 -7.1042214e-06 9.0555313e-10 -7.1042214e-06 9.0555313e-10 -7.1042214e-06
9.0555313e-10 -2.7137045e-05 6.632164e-05 5.79322e-05 -4.629038e-05 -1.3400111e-05 -0.00011793797 -2.3710021e-05
-0.00011625704 -2.2810062e-05 4.0797504e-06 -6e-45 4.0797504e-06 -6e-45 4.0797504e-06 -6e-45
8.824998e-06 -2.0344349e-05 -4.2363517e-05 8.581158e-06 1.3775768e-06 5.2970132e-05 5.04566e-06 5.4044216e-05
4.617025e-06 -8.143969e-06 1.0383447e-09 -8.143969e-06 1.0383447e-09 -8.143969e-06 1.0383447e-09 -2.6458189e-05
00000000: 8d39 d5b6 f022 ac37 511e ee37 e079 c937
00000010: ea3f 4c37 5906 4c37 b845 0837 7423 9036
00000020: becc 0637 4f09 8db6 4dbc 70b0 4f09 8db6
00000030: 4dbc 70b0 4f09 8db6 4dbc 70b0 8d3e 25b7
00000040: eabb 8338 00ae a4b6 6341 6037 edf2 7036
00000050: 3253 4337 8db7 96b6 2bd6 e836 1bdc 95b6
00000060: 31a9 9335 0000 0000 31a9 9335 0000 0000
00000070: 31a9 9335 0000 0000 7655 de36 79a7 1cb8
00000080: d66f a0b8 12bf 8937 d024 c136 1d48 bb38
00000090: d2eb 3c37 b2ad c038 6709 3037 8a39 82b7
000000a0: 50f9 0131 8a39 82b7 50f9 0131 8a39 82b7
000000b0: 50f9 0131 20c5 05b7 11ff 8c37 90f4 d137
000000c0: b968 96b5 5b85 6835 73b0 d1b7 caed 5bb6
000000d0: 983b dab7 2495 45b6 8075 1237 c6b9 51b0
000000e0: 8075 1237 c6b9 51b0 8075 1237 c6b9 51b0
000000f0: 5a33 1bb8 0b1c fa38 ce4a ec38 bf99 30b8
00000100: 1ba8 3cb7 99cd 0ab9 4c38 cbb7 716c 09b9
00000110: fb75 c1b7 9c3d 1e37 6ebc 00ad 9c3d 1e37
00000120: 6ebc 00ad 9c3d 1e37 6ebc 00ad 785b abb5
00000130: edd0 1737 7cb4 e137 a7b4 0bb7 736f 6ab6
00000140: ab43 1cb8 b548 49b6 318a 17b8 f338 37b6
00000150: 55ed db36 3359 7baf 55ed db36 3359 7baf
00000160: 55ed db36 3359 7baf e53c 62b7 ecae 1739
00000170: 0659 8839 93d5 aeb8 b249 4935 a918 e8b9
00000180: 8c15 4cb7 2332 dcb9 36fb 3eb7 4e4f 9d37
00000190: 0400 0080 4e4f 9d37 0400 0080 4e4f 9d37
000001a0: 0400 0080 1147 5a35 7480 f334 014a 69b7
000001b0: eb67 6336 f1bf 0a36 be96 8637 f754 f835
000001c0: 8d2c 8237 e85a e935 f5c7 06b6 6930 932e
000001d0: f5c7 06b6 6930 932e f5c7 06b6 6930 932e
000001e0: 0400 0000 0000 0000 0000 0000 0000 0000
000001f0: 0400 0000 0000 0000 0400 0000 0000 0000
00000200: 0400 0000 0400 0000 0000 0000 0400 0000
00000210: 0000 0000 0400 0000 0000 0000 af74 c3b7
00000220: 4cd3 48b8 f515 9c37 f6ba 5cb8 6ab5 d1b7
00000230: 2f6c 3ab9 d38d b0b7 da61 30b9 e774 adb7
00000240: e460 7637 2ebf 15b1 e460 7637 2ebf 15b1
00000250: e460 7637 2ebf 15b1 82e8 aab7 ab56 b5b7
00000260: 0388 fa39 ba04 b838 5397 63b7 4ac2 58b9
00000270: 01a0 aab8 5010 85b9 1a96 a8b8 3f82 3537
00000280: e7aa 0bae 3f82 3537 e7aa 0bae 3f82 3537
00000290: e7aa 0bae 11a8 a1b7 6d27 3f38 51e3 8038
000002a0: 4693 b6b7 c667 94b6 2a88 c9b8 a1af 5db7
000002b0: 7a1a cbb8 a3b9 4fb7 8078 b336 0400 0080
000002c0: 8078 b336 0400 0080 8078 b336 0400 0080
000002d0: bfc1 8cb7 5d69 6937 32d5 9c37 11b9 6437
000002e0: 3980 24b6 b1d1 58b7 aa24 b1b6 f32b 4eb7
000002f0: f872 acb6 94b6 eb35 90c3 35b0 94b6 eb35
00000300: 90c3 35b0 94b6 eb35 90c3 35b0 0000 0000
00000310: 0000 0000 0000 0000 0000 0000 0000 0000
00000320: 0000 0000 0000 0000 0000 0000 0000 0000
00000330: 0000 0000 0000 0000 0000 0000 0000 0000
00000340: 0000 0000 0000 0000 3ac5 0137 e3c3 92b7
00000350: 7033 1bb8 87c8 0037 a8f9 a635 0385 4238
00000360: 2131 9536 7058 4638 aea9 8836 cc60 eeb6
00000370: a3ea 7830 cc60 eeb6 a3ea 7830 cc60 eeb6
00000380: a3ea 7830 5ca4 e3b7 2916 8b38 3afc 7238
00000390: eb27 42b8 0ad1 60b7 7755 f7b8 e2e4 c6b7
000003a0: 06cf f3b8 3c58 bfb7 cae4 8836 0400 0080
000003b0: cae4 8836 0400 0080 cae4 8836 0400 0080
000003c0: 140f 1437 28a9 aab7 7baf 31b8 cbf7 0f37
000003d0: 2ee5 b835 3f2c 5e38 e44d a936 89ad 6238
000003e0: f1eb 9a36 15a2 08b7 82b5 8e30 15a2 08b7
000003f0: 82b5 8e30 15a2 08b7 82b5 8e30 87f2 ddb7

exp_avg_sq f4 [512, 15]
3.071739e-09 7.4463244e-08 1.0008595e-08 3.875576e-08 1.1056219e-09 4.405105e-08 1.0076285e-09 3.5327513e-08
1.0071195e-09 2.7580632e-10 1.1428555e-13 2.7580632e-10 1.1428555e-13 2.7580632e-10 1.1428555e-13 1.1814488e-09
1.6801862e-07 9.460431e-09 5.4353015e-09 5.491015e-10 6.69723e-09 4.7495596e-10 5.2970464e-09 4.749074e-10
1.4309674e-11 0.0 1.4309674e-11 0.0 1.4309674e-11 0.0 2.3571666e-08 1.4193434e-07
1.1798904e-07 1.9293975e-07 9.833348e-09 2.3738298e-07 9.54064e-09 1.9007065e-07 9.542918e-09 3.6269938e-09
1.5431771e-13 3.6269938e-09 1.5431771e-13 3.6269938e-09 1.5431771e-13 5.331176e-09 4.2307203e-08 2.0888518e-08
3.0004006e-08 1.6554952e-09 3.1014203e-08 1.5846061e-09 2.463675e-08 1.5856999e-09 6.0649225e-10 5.944907e-14
6.0649225e-10 5.944907e-14 6.0649225e-10 5.944907e-14 1.9404636e-08 1.9112144e-07 1.4784122e-07 1.1661932e-07
9.650009e-09 1.5035752e-07 9.427125e-09 1.205032e-07 9.413582e-09 1.3095959e-10 3.2548882e-13 1.3095959e-10
3.2548882e-13 1.3095959e-10 3.2548882e-13 3.7229277e-09 4.3541912e-09 2.2398591e-08 3.1809655e-08 1.685519e-09
3.9897163e-08 1.6560628e-09 3.1982996e-08 1.6570221e-09 6.645127e-10 1.32357055e-14 6.645127e-10 1.32357055e-14
6.645127e-10 1.32357055e-14 4.3178517e-08 8.2695357e-07 4.9931305e-07 8.287854e-07 2.8937295e-08 8.004267e-07
2.804278e-08 6.410831e-07 2.8054103e-08 2.612883e-10 2.6221526e-17 2.612883e-10 2.6221526e-17 2.612883e-10
2.6221526e-17 1.3361905e-09 1.6841413e-10 1.3914848e-09 2.0885973e-09 1.0744997e-10 2.5871087e-09 1.0561082e-10
2.0799944e-09 1.0560696e-10 3.9590366e-11 1.7696833e-15 3.9590366e-11 1.7696833e-15 3.9590366e-11 1.7696833e-15
2.1029783e-17 0.0 0.0 0.0 2.9730367e-20 0.0 2.9730367e-20 0.0
2.9730367e-20 3.847328e-16 0.0 3.847328e-16 0.0 3.847328e-16 0.0 1.2794036e-08
4.6302887e-08 5.94836e-09 1.9524734e-07 7.74452e-09 2.5557526e-07 7.43942e-09 2.0527487e-07 7.44212e-09
4.1016155e-09 2.5612422e-13 4.1016155e-09 2.5612422e-13 4.1016155e-09 2.5612422e-13 6.210706e-08 3.5462713e-06
2.407518e-06 5.605297e-07 6.915738e-08 1.1669606e-06 6.3889104e-08 9.4740324e-07 6.393127e-08 2.8392746e-10
2.852097e-13 2.8392746e-10 2.852097e-13 2.8392746e-10 2.852097e-13 1.6895203e-08 1.8988865e-07 1.0665196e-07
1.6591285e-07 8.362379e-09 2.0243463e-07 8.141562e-09 1.6204962e-07 8.142604e-09 2.5971605e-10 2.6863687e-14
2.5971605e-10 2.6863687e-14 2.5971605e-10 2.6863687e-14 1.1117997e-08 4.176647e-08 2.1933714e-08 9.542219e-09
6.860708e-10 1.431405e-08 6.51026e-10 1.1457238e-08 6.5176486e-10 2.8825797e-10 2.5050063e-13 2.8825797e-10
2.5050063e-13 2.8825797e-10 2.5050063e-13 0.0 0.0 0.0 0.0 0.0
0.0 0.0 0.0 0.0 0.0 0.0 0.0 0.0
0.0 0.0 6.274023e-09 5.2698677e-08 2.4846107e-08 4.2404025e-08 2.2111732e-09 5.1752007e-08
2.1296342e-09 4.1441737e-08 2.1312891e-09 7.8326007e-10 5.349568e-15 7.8326007e-10 5.349568e-15 7.8326007e-10
5.349568e-15 2.4525125e-08 1.9455484e-07 9.507298e-08 5.3786692e-08 4.7379682e-09 9.75956e-08 4.7018514e-09
7.8736136e-08 4.6926996e-09 2.1290181e-10 7.522372e-15 2.1290181e-10 7.522372e-15 2.1290181e-10 7.522372e-15
1.5374315e-08 7.649325e-08 3.883886e-08 6.2406215e-08 3.2548693e-09 7.6329876e-08 3.1343697e-09 6.1082716e-08
3.1368286e-09 1.1644595e-09 1.4850692e-14 1.1644595e-09 1.4850692e-14 1.1644595e-09 1.4850692e-14 8.662114e-09
00000000: 9b16 5331 9ae8 9f33 44f2 2b32 6974 2633
00000010: 9df4 9730 a432 3d33 c77c 8a30 03bb 1733
00000020: de6a 8a30 4aa0 972f 91ac 002a 4aa0 972f
00000030: 91ac 002a 4aa0 972f 91ac 002a 8960 a230
00000040: 9b68 3434 6a87 2232 6bc1 ba31 95ef 1630
00000050: 751d e631 0e8e 0230 5001 b631 a38a 0230
00000060: 0bbd 7b2d 0000 0000 0bbd 7b2d 0000 0000
00000070: 0bbd 7b2d 0000 0000 a47a ca32 9d66 1834
00000080: 2961 fd33 e02a 4f34 86ef 2832 56e3 7e34
00000090: 2ee8 2332 3916 4c34 32f2 2332 c03e 7931
000000a0: 0dbf 2d2a c03e 7931 0dbf 2d2a c03e 7931
000000b0: 0dbf 2d2a 852d b731 43b5 3533 566e b332
000000c0: c1dd 0033 8f87 e330 7a34 0533 5fc9 d930
000000d0: c9a0 d332 dbef d930 19b6 2630 0ede 8529
000000e0: 19b6 2630 0ede 8529 19b6 2630 0ede 8529
000000f0: 3faf a632 1037 4d34 49be 1e34 2670 fa33
00000100: 30c9 2532 f671 2134 eff4 2132 ab63 0134
00000110: 5fb9 2132 d9fd 0f2f e23b b72a d9fd 0f2f
00000120: e23b b72a d9fd 0f2f e23b b72a 70d6 7f31
00000130: df9b 9531 0667 c032 169f 0833 eda7 e730
00000140: 655b 2b33 889b e330 ad5d 0933 48bd e330
00000150: eda8 3630 eb6e 6e28 eda8 3630 eb6e 6e28
00000160: eda8 3630 eb6e 6e28 4873 3933 d1fb 5d35
00000170: 8808 0635 b379 5e35 c991 f832 e7dc 5635
00000180: bae2 f032 e516 2c35 a0fb f032 0fa5 8f2f
00000190: d4d9 f123 0fa5 8f2f d4d9 f123 0fa5 8f2f
000001a0: d4d9 f123 06a5 b730 5d2c 392f 853e bf30
000001b0: fe86 0f31 f548 ec2e e6c8 3131 9b3d e82e
000001c0: a6ef 0e31 6f3b e82e ca1e 2e2e ca09 ff26
000001d0: ca1e 2e2e ca09 ff26 ca1e 2e2e ca09 ff26
000001e0: 2cf7 c123 0000 0000 0000 0000 0000 0000
000001f0: cf65 0c1f 0000 0000 cf65 0c1f 0000 0000
00000200: cf65 0c1f 8ac8 dd25 0000 0000 8ac8 dd25
00000210: 0000 0000 8ac8 dd25 0000 0000 c4cc 5b32
00000220: 90de 4633 5462 cc31 2ea5 5134 c20c 0532
00000230: ff35 8934 d59d ff31 8769 5c34 94b5 ff31
00000240: 31ee 8c31 642f 902a 31ee 8c31 642f 902a
00000250: 31ee 8c31 642f 902a b85f 8533 7afc 6d36
00000260: d890 2136 4f77 1635 ac83 9433 76a0 9c35
00000270: 6833 8933 0e51 7e35 964a 8933 3d17 9c2f
00000280: 0d8f a02a 3d17 9c2f 0d8f a02a 3d17 9c2f
00000290: 0d8f a02a f220 9132 32e4 4b34 8908 e533
000002a0: c725 3234 22aa 0f32 cf5c 5934 f8de 0b32
000002b0: dcff 2d34 8de3 0b32 c9c7 8e2f 72f7 f128
000002c0: c9c7 8e2f 72f7 f128 c9c7 8e2f 72f7 f128
000002d0: 7801 3f32 b862 3333 bf68 bc32 1fef 2332
000002e0: f195 3c30 dce9 7532 e2f3 3230 77d5 4432
000002f0: e027 3330 b478 9e2f f204 8d2a b478 9e2f
00000300: f204 8d2a b478 9e2f f204 8d2a 0000 0000
00000310: 0000 0000 0000 0000 0000 0000 0000 0000
00000320: 0000 0000 0000 0000 0000 0000 0000 0000
00000330: 0000 0000 0000 0000 0000 0000 0000 0000
00000340: 0000 0000 0000 0000 e492 d731 cf56 6233
00000350: 2b6d d532 b81f 3633 5ff3 1731 ef45 5e33
00000360: ec58 1231 acfd 3133 0976 1231 074d 5730
00000370: 0ebd c027 074d 5730 0ebd c027 074d 5730
00000380: 0ebd c027 52ab d232 d4e6 5034 ec2a cc33
00000390: 1803 6733 9ccb a231 c095 d133 ec8d a131
000003a0: a615 a933 6c3d a131 8816 6a2f d182 0728
000003b0: 8816 6a2f d182 0728 8816 6a2f d182 0728
000003c0: 7a10 8432 9c44 a433 c7cf 2633 2e04 8633
000003d0: 44ac 5f31 cbea a333 6a64 5731 942c 8333
000003e0: ac8f 5731 c70a a030 5dc3 8528 c70a a030
000003f0: 5dc3 8528 c70a a030 5dc3 8528 61d0 1432

exp_avg f4 [512]
3.150918e-05 6.2709536e-05 0.00013232413 -3.0968273e-05 -0.0004105177 -4.693323e-05 -0.00019430075 2.848273e-05
6e-45 -0.0002825307 -0.00010085807 -0.00031191876 -2.655956e-05 0.0 6.680324e-05 -0.00028896003
7.560348e-05 -0.00021619243 0.00011080219 6.207222e-05 -2.6581993e-05 4.0705027e-06 0.00018041617 -0.00024222769
0.0001212233 -0.00021407609 0.00029833807 -0.00033231472 0.00045185862 0.00015217502 -5.3187046e-05 4.4689037e-05
0.0001680967 -3.7955997e-06 -5.217931e-05 -2.5924033e-05 -8.236637e-05 -0.0002359501 -0.00022627748 7.331392e-05
0.00010895325 0.00013575154 -0.0005791166 -0.0002928916 -5.6570014e-05 6e-45 3.5183475e-05 -0.00028807812
0.000214961 3.215247e-05 4.212671e-06 0.0 6.7540954e-05 -0.0005888166 -0.00010258143 -0.00039908866
0.0003677596 5.613585e-06 -4.2828775e-05 -0.00015934797 -0.0007897637 -7.0746623e-06 0.00039736196 0.00021541146
-4.4582564e-13 4.519589e-05 -0.00034871866 8.1440436e-07 -0.00011512999 -0.00049806695 0.0002169293 -0.00025604328
-0.0004124176 -0.00019603496 -0.00015746045 -1.1979052e-05 -0.0004280724 -0.0002871963 -0.0003812608 1.9597181e-14
4.7181766e-05 -7.520494e-06 0.00022138389 0.0 -0.00021299928 4.0127736e-05 1.0272588e-05 -0.00032750657
-2.568188e-05 -6.677174e-06 -0.00034118662 -2.6726178e-05 -0.00036544137 0.0 -2.3659393e-05 8.0407354e-14
-0.0018298514 9.8385295e-05 -8.631881e-05 -4.347129e-05 8.205143e-05 5.1098126e-05 -4.7476867e-09 0.0
-9.090793e-05 3.2146454e-05 -0.0001280071 3.301172e-05 -0.000103469996 -0.000121412304 0.0007462583 -4.3565844e-05
-4.7921334e-05 -8.846719e-05 2.6114525e-05 -0.00031143756 -0.00018591285 4.804678e-06 0.0 -0.00012888931
-0.0001294557 0.00022987815 2.3759311e-14 3.2548534e-05 0.00033999083 6e-45 -4.333745e-05 0.0
-8.522274e-05 -2.9047289e-05 4.558864e-06 -8.8093926e-05 3.4738566e-06 -0.00016182478 -8.2456514e-05 6.185203e-05
4.105544e-05 0.0007143067 -0.0001290229 0.0001421963 0.00037294967 4.356673e-05 6.392638e-05 0.0002478619
-5.1674953e-05 -6.2658066e-05 0.00018185397 4.092061e-05 6.385518e-05 8.382607e-05 0.0 -2.560139e-05
-0.0018377206 4.7137346e-05 0.00012478714 -0.0009488066 9.7100965e-05 1.5735732e-10 0.0002443185 -4.3307897e-05
-0.0003092932 7.347025e-05 0.00017607158 1.0506912e-05 9.282553e-05 3.2282907e-07 -6.828122e-06 0.0006853986
6.647818e-05 -3.498712e-05 -7.960468e-05 -0.0001626841 -0.0006075834 -5.0689605e-06 5.0687773e-05 9.821468e-05
8.059565e-05 0.0 4.6374054e-05 1.35847395e-05 0.00014827536 6.705316e-07 0.00020304786 4.1031653e-05
-0.00012616963 -9.790583e-15 -0.0006202544 -0.000109561144 0.000102791004 0.00011662914 -4.733267e-05 -2.2735027e-05
0.00013810687 -0.00015554234 2.2698353e-10 -0.0006553554 -2.6098525e-05 8.454065e-05 6e-45 0.00022771349
-4.6407302e-05 0.00022185719 6.52473e-05 -1.9354413e-05 -4.3802705e-05 -4.03308e-05 0.00012434956 -0.0009334062
-0.00044263023 8.116839e-06 -0.00019613128 0.00012730988 -0.00014024167 -2.1474449e-05 -8.681197e-05 -7.480771e-05
-9.80461e-06 -6.972008e-05 -6.760421e-05 0.0002965201 0.0 -8.129142e-05 0.00020394493 6.173848e-05
4.387913e-05 4.690979e-05 -0.0003996885 0.00015155322 7.5265634e-05 -0.00031086424 0.00022044743 0.0
-0.0007127632 0.00013888307 2.8710545e-08 0.00026094736 7.831396e-06 6.125431e-05 -8.231452e-06 0.00013994226
5.868298e-05 0.00019327785 9.907306e-05 6.061772e-05 0.00022736311 0.00015853145 -1.4145949e-09 -0.00022777119
5.0414714e-05 0.00058359705 -0.00074591825 9.633778e-05 -2.2314266e-06 -0.0001153535 0.00012439665 4.7673617e-05
00000000: b928 0438 ed82 8338 7dc0 0a39 eee3 01b8
00000010: c13a d7b9 2cda 44b8 36bd 4bb9 32ee ee37
00000020: 0400 0000 a120 94b9 c483 d3b8 0789 a3b9
00000030: 39cc deb7 0000 0000 b718 8c38 8f7f 97b9
00000040: 4f8d 9e38 b7b1 62b9 795e e838 c52c 8238
00000050: 65fc deb7 5a95 8836 192e 3d39 80fe 7db9
00000060: 4339 fe38 9d79 60b9 426a 9c39 873a aeb9
00000070: 70e7 ec39 2c91 1f39 2815 5fb8 7d70 3b38
00000080: 1d43 3039 e8b7 7eb6 1cdb 5ab8 7077 d9b7
00000090: 1cbc acb8 5f69 77b9 e644 6db9 1cc0 9938
000000a0: d57d e438 8758 0e39 dbcf 17ba 3f8f 99b9
000000b0: 9745 6db8 0400 0000 f891 1338 3109 97b9
000000c0: 2767 6139 74db 0638 915a 8d36 0000 0000
000000d0: c6a4 8d38 d05a 1aba fc20 d7b8 c63c d1b9
000000e0: dccf c039 545c bc36 0ca3 33b8 a516 27b9
000000f0: 2508 4fba e362 edb6 0555 d039 13e0 6139
00000100: 3ffa faaa b890 3d38 3ad4 b6b9 719d 5a35
00000110: f171 f1b8 b590 02ba 8477 6339 8c3d 86b9
00000120: c139 d8b9 bc8e 4db9 f81b 25b9 a3f9 48b7
00000130: e86e e0b9 d692 96b9 f5e3 c7b9 0684 b028
00000140: 09e5 4538 8d58 fcb6 4923 6839 0000 0000
00000150: 8f58 5fb9 d44e 2838 6e58 2c37 30b5 abb9
00000160: 6b6f d7b7 7d0c e0b6 4be1 b2b9 0832 e0b7
00000170: b698 bfb9 0000 0000 2978 c6b7 af0f b529
00000180: a0d7 efba 3454 ce38 0f06 b5b8 f154 36b8
00000190: 0713 ac38 3252 5638 1821 a3b1 0000 0000
000001a0: d3a5 beb8 fed4 0638 a539 06b9 1076 0a38
000001b0: 08fe d8b8 bc9e feb8 8ca0 433a 78ba 36b8
000001c0: 24ff 48b8 7687 b9b8 8410 db37 7148 a3b9
000001d0: 9af1 42b9 df37 a136 0000 0000 7626 07b9
000001e0: 80be 07b9 720b 7139 3e01 d628 b984 0838
000001f0: cc40 b239 0400 0000 3cc5 35b8 0000 0000
00000200: 9cb9 b2b8 94aa f3b7 58f8 9836 11bf b8b8
00000210: 6720 6936 82af 29b9 81ec acb8 8eb6 8138
00000220: f132 2c38 5040 3b3a 524a 07b9 871a 1539
00000230: 7588 c339 6cbb 3638 3710 8638 76f3 8139
00000240: 8fbd 58b8 4b67 83b8 0eb0 3e39 2ca2 2b38
00000250: fde9 8538 c7cb af38 0000 0000 91c2 d6b7
00000260: acdf f0ba 57b5 4538 4bd9 0239 55b9 78ba
00000270: afa2 cb38 2604 2d2f e017 8039 80a5 35b8
00000280: a128 a2b9 0a14 9a38 db9f 3839 d846 3037
00000290: 54ab c238 4a51 ad34 1f1d e5b6 52ac 333a
000002a0: 336a 8b38 22bf 12b8 70f1 a6b8 2e96 2ab9
000002b0: 3b46 1fba 0a16 aab6 9599 5438 9bf8 cd38
000002c0: 7605 a938 0000 0000 c381 4238 03ea 6337
000002d0: 5d7a 1b39 95fe 3335 3fe9 5439 6719 2c38
000002e0: 674c 04b9 185f 30a8 9198 22ba 31c4 e5b8
000002f0: 8091 d738 cb96 f438 1187 46b8 19b7 beb7
00000300: c8d0 1039 1419 23b9 2f92 792f 28cc 2bba
00000310: 28ee dab7 6a4b b138 0400 0000 60c6 6e39
00000320: 76a5 42b8 56a2 6839 61d5 8838 495b a2b7
00000330: ccb8 37b8 de28 29b8 d563 0239 d4af 74ba
00000340: d310 e8b9 8f2d 0837 97a8 4db9 7c7e 0539
00000350: d60d 13b9 0724 b4b7 d20e b6b8 15e2 9cb8
00000360: 7b7e 24b7 af36 92b8 bcc6 8db8 4176 9b39
00000370: 0000 0000 007b aab8 0dda 5539 9879 8138
00000380: db0a 3838 01c1 4438 488d d1b9 42ea 1e39
00000390: eed7 9d38 7efb a2b9 e827 6739 0000 0000
000003a0: bbd8 3aba 24a1 1139 289f f632 c3cf 8839
000003b0: 9763 0337 a875 8038 d119 0ab7 77bd 1239
000003c0: 5f22 7638 a1aa 4a39 72c5 cf38 c83f 7e38
000003d0: 5268 6e39 763b 2639 a26b c2b0 ddd5 6eb9
000003e0: 6374 5338 89fc 183a ba89 43ba f408 ca38
000003f0: 9ebf 15b6 f0e9 f1b8 7970 0239 28f5 4738

exp_avg_sq f4 [512]
3.6641907e-07 1.6799304e-07 3.3644374e-06 5.596422e-07 3.1527359e-06 5.8197264e-07 1.0246251e-05 3.6928245e-08
1.1782461e-15 2.8438014e-06 1.2706626e-05 2.947819e-06 2.2663126e-07 0.0 7.5883315e-07 1.529534e-06
1.1161529e-06 1.5562545e-06 2.4781896e-06 4.1961807e-06 3.5507492e-07 1.8291491e-08 2.583733e-06 2.2575591e-06
1.0639872e-06 2.279665e-06 4.3682363e-07 6.155929e-06 2.4973915e-05 4.8669035e-06 1.09261e-07 3.998338e-07
1.9328807e-06 9.954778e-09 1.4004027e-06 6.7052646e-08 7.2261646e-06 1.2119744e-06 5.965138e-06 9.696814e-07
1.4197175e-07 1.3362124e-06 5.502384e-06 2.797699e-06 5.830135e-07 1.2894255e-12 2.2716937e-07 2.2580902e-07
6.3634025e-06 1.9534562e-07 7.4020825e-09 0.0 9.179529e-07 9.026403e-06 2.306784e-06 1.985716e-06
6.006021e-06 1.2810724e-08 6.4401445e-07 6.469416e-07 3.5009264e-06 2.4089525e-06 5.3648673e-06 5.5720075e-06
3.4011615e-14 1.7504411e-07 1.0228289e-06 2.0290114e-08 3.6606964e-06 1.503915e-05 1.0044074e-05 2.2516792e-06
1.2733486e-05 1.9853028e-06 6.845314e-06 2.5166003e-07 9.943692e-06 1.1622014e-06 4.5729735e-06 7.885634e-12
1.3171922e-07 6.998945e-08 1.0237942e-05 0.0 1.7735525e-06 5.14708e-08 1.1875273e-08 8.1184453e-07
2.545851e-07 5.6793702e-08 2.320242e-06 4.5259245e-07 1.8066911e-06 0.0 7.5068236e-08 1.8193998e-13
2.4776256e-05 4.0459045e-07 1.8686437e-06 8.5589073e-07 1.3502914e-06 4.990577e-07 4.4710557e-13 0.0
7.044303e-07 1.451181e-07 7.629615e-07 1.3051427e-07 3.284638e-06 2.2670301e-06 2.1668704e-06 3.8364067e-07
6.596481e-07 2.2141294e-06 4.823315e-08 7.5752955e-06 7.506841e-07 1.5201998e-08 0.0 1.5054505e-06
1.9776098e-06 4.515317e-06 6.599757e-15 5.103179e-07 1.7276897e-06 3.046653e-14 6.4029864e-06 0.0
4.5817418e-07 1.0570573e-07 1.8691635e-08 1.8399971e-08 4.3934625e-07 3.6994154e-06 6.814814e-07 7.535328e-07
4.7654845e-07 1.4339907e-06 1.7214913e-06 4.259731e-06 1.0268727e-05 3.2261482e-08 1.2171054e-06 1.3058922e-05
3.55703e-07 1.4548023e-06 8.0724675e-07 2.8402944e-08 5.5047417e-07 1.3475102e-07 0.0 3.941357e-07
2.1151198e-05 1.0330964e-07 1.124496e-05 9.437443e-06 1.7993746e-06 2.337607e-10 1.27432395e-05 2.3373265e-07
8.489229e-06 4.6430137e-07 1.9304314e-06 3.1828947e-08 1.8146861e-06 7.232994e-08 2.1291959e-07 1.9219003e-06
3.5292112e-07 5.0249236e-07 7.7323165e-07 1.600256e-06 3.680284e-06 3.4227195e-08 5.21458e-07 1.9687361e-06
5.511564e-06 0.0 8.5703356e-08 5.4197496e-08 1.0561359e-05 1.0707445e-08 2.5737218e-06 2.5858796e-07
1.2042682e-06 1.1696606e-15 1.2718707e-05 3.5258454e-06 2.1278242e-06 1.4905867e-06 9.06702e-07 2.7985936e-07
7.1265487e-07 4.5027153e-07 9.189956e-13 1.1963254e-05 2.635146e-07 1.7893038e-06 7.622012e-15 1.1200756e-05
1.1411157e-07 9.571612e-07 8.25775e-07 1.2106814e-08 1.01204606e-07 3.2171505e-07 2.989992e-06 7.9346055e-06
1.089165e-06 5.5049163e-06 1.2681983e-06 3.4045581e-06 2.3557218e-06 2.5072717e-07 5.1036764e-08 1.7711516e-06
2.0701592e-07 1.704782e-07 1.3878374e-06 1.671841e-06 0.0 2.225913e-06 2.3393573e-06 6.449705e-07
2.1006897e-06 3.840104e-07 2.8866082e-06 2.5234103e-06 1.7970807e-07 9.0669494e-07 1.0644026e-05 0.0
1.3141206e-05 9.779015e-07 7.95124e-10 2.9921551e-07 5.047804e-07 6.8989243e-07 2.5049526e-10 1.7741075e-06
6.80516e-07 8.320785e-06 2.0478244e-06 6.593898e-07 8.447357e-06 4.178784e-06 6.956449e-13 4.938148e-06
4.455376e-07 8.131292e-06 5.2515634e-06 3.5559253e-06 1.1842672e-08 1.4008239e-06 2.4949102e-07 3.698691e-07
00000000: 41b8 c434 9361 3434 98c8 6136 523a 1635
00000010: 9793 5336 db38 1c35 50e7 2b37 099b 1e33
00000020: 9ccd a926 23d8 3e36 8b2e 5537 25d3 4536
00000030: ed57 7334 0000 0000 9eb2 4b35 634a cd35
00000040: b9ce 9535 7fe0 d035 f94e 2636 ebcc 8c36
00000050: 20a1 be34 6a1f 9d32 3264 2d36 9280 1736
00000060: 52ce 8e35 59fc 1836 9584 ea34 078f ce36
00000070: 137f d137 624e a336 dfa2 ea33 bda8 d634
00000080: a3b6 0136 9405 2b32 78f5 bb35 95fe 8f33
00000090: 4878 f236 20ab a235 2528 c836 0026 8235
000000a0: e670 1834 e957 b335 1ea1 b836 1ac0 3b36
000000b0: 6280 1c35 7378 b52b d7eb 7334 e975 7234
000000c0: 3685 d536 32c0 5134 6855 fe31 0000 0000
000000d0: 3e69 7635 1b70 1737 3fce 1a36 5742 0536
000000e0: 5487 c936 2916 5c32 56e0 2c35 7da9 2d35
000000f0: 75f1 6a36 7da9 2136 dc03 b436 2ef7 ba36
00000100: b92c 1929 c2f3 3b34 2248 8935 6f4a ae32
00000110: 49aa 7536 a850 7c37 f882 2837 8e1b 1736
00000120: e8a1 5537 3e3b 0536 cdb0 e536 e41b 8734
00000130: d5d3 2637 f0fc 9b35 8b71 9936 bdb9 0a2d
00000140: b46e 0d34 1b4d 9633 a0c3 2b37 0000 0000
00000150: cd0a ee35 be10 5d33 0104 4c32 88ed 5935
00000160: e9ad 8834 56ed 7333 74b5 1b36 d5fb f234
00000170: 6f7d f235 0000 0000 3335 a133 a1d8 4c2a
00000180: 9bd6 cf37 7d36 d934 1cce fa35 5dc0 6535
00000190: a93b b535 fcf6 0535 b4b2 fb2a 0000 0000
000001a0: 1518 3d35 c2d1 1b34 51ce 4c35 7d23 0c34
000001b0: a76d 5c36 4823 1836 8d6a 1136 2cf7 cd34
000001c0: ac12 3135 7496 1436 e928 4f33 4b2f fe36
000001d0: 9e82 4935 8c95 8232 0000 0000 e30e ca35
000001e0: 14b7 0436 4782 9736 04c8 ed27 c7fc 0835
000001f0: f7e2 e735 8535 0929 3cd9 d636 0000 0000
00000200: fbfa f534 5700 e333 578f a032 f70d 9e32
00000210: 4adf eb34 7943 7836 0cef 3635 6146 4a35
00000220: 52d8 ff34 8c77 c035 fe0d e735 d0ee 8e36
00000230: d947 2c37 e08f 0a33 6c5b a335 a517 5b37
00000240: 73f7 be34 a042 c335 93b1 5835 bcfa f332
00000250: 4cc4 1335 14b0 1034 0000 0000 9999 d334
00000260: da6d b137 13db dd33 bca8 3c37 8255 1e37
00000270: 0a82 f135 e582 802f cccb 5537 f1f7 7a34
00000280: f66c 0e37 1845 f934 8f8c 0136 4cb4 0833
00000290: 2490 f335 ce53 9b33 e49e 6434 fff9 0036
000002a0: 1c79 bd34 03e3 0635 1390 4f35 61c8 d635
000002b0: ccfa 7636 3301 1333 52fa 0b35 a11e 0436
000002c0: f9ef b836 0000 0000 eb0b b833 c7c6 6833
000002d0: b130 3137 d7f3 3732 34b8 2c36 0fd4 8a34
000002e0: 57a2 a135 dc90 a826 6e62 5537 909d 6c36
000002f0: becb 0e36 2b10 c835 1664 7335 943f 9634
00000300: 454d 3f35 d9bc f134 4e56 812b c9b5 4837
00000310: 2c79 8d34 0328 f035 544e 0928 e1ea 3b37
00000320: 800d f533 cf77 8035 d3aa 5d35 55fe 4f32
00000330: d255 d933 2eb8 ac34 aca7 4836 df1e 0537
00000340: 6d2f 9235 dfb6 b836 f636 aa35 dd79 6436
00000350: fe16 1e36 ae9b 8634 8433 5b33 4eb8 ed35
00000360: 1a48 5e34 b10c 3734 bb45 ba35 0564 e035
00000370: 0000 0000 e560 1536 dafd 1c36 0922 2d35
00000380: 93f9 0c36 fd29 ce34 8db7 4136 dc57 2936
00000390: c7f5 4034 9a63 7335 be93 3237 0000 0000
000003a0: 0d79 5c37 7140 8335 e18f 5a30 dea3 a034
000003b0: 3f80 0735 0c31 3935 13b6 892f df1d ee35
000003c0: b4ac 3635 8099 0b37 5b6d 0936 ec00 3135
000003d0: 1fb9 0d37 7b37 8c36 7fce 432b 5eb2 a536
000003e0: 3932 ef34 a26b 0837 9636 b036 55a2 6e36
000003f0: 9f74 4b32 f103 bc35 c9f1 8534 6c92 c634
