checkpoints/LSTM-20250610_231920-bs64-ep1-pat10-114.17937219730942-traindur7-testdur7-hidden_size64epoch=00-val_loss=1.37.ckpt (torch, 699283 bytes, 49 tensors)

lstm.weight_ih_l0 f4 [256, 15]
00000000: ebbf f33d 52c0 bb3d 676a 92bc 5146 ff3d
00000010: a3b2 d5bc 6187 a13c c628 8cbd fc03 953d
00000020: ba34 db3d fcac d7bd 430d d83d c5a3 ee3b
00000030: bb1c df3d 5013 883b 0964 893d a3ae b1bc
00000040: 3e5b c43d 367c 0a3c bfb9 91bd 894c c83c
00000050: eed3 83bd 7e0d 99bc f086 69bd 7e7b a93d
00000060: 7f61 c0bd f283 58bd 1ae6 0bbd 867c 8cbd
00000070: 4034 b13b 314b 14be de15 053e 21de aabd
00000080: e9b4 f53d 088e 8e3d aa98 e7bc ae34 f73d
00000090: 665e 183d e9d7 143e 7378 db3c 4310 04bd
000000a0: 6361 1b3c 9b06 f0bb bf6c 4c3d 6f53 1d3e
000000b0: 6c37 b13d bb51 7abd c7c3 5a3d f315 be3c
000000c0: d10d 4b3d caa4 adbd 95dd 06be 8ef2 66bd
000000d0: 7b2d d6bd bbee c33d b693 fd3c a296 233d
000000e0: 6ef9 fb3c 4abd 2aba 7868 ad3d 6f66 a0bd
000000f0: 42b3 ab3c 75d7 5ebd 95b0 233d 60ea 59bd
00000100: 8f35 453d 8484 15bd 1525 e13d 6cf6 b0bd
00000110: 7d1d 8abd a6f6 a0bd 9586 243e 13e7 cf3c
00000120: cd65 273e c5a4 f9bd f6fa a6bd 3dfc dfbd
00000130: 81b5 d0bd 22b2 f93c 4bc9 3c3d 4f82 c43d
00000140: 8821 38bd 59fc acbd 9fb2 b13d b8ca 45bd
00000150: 6a6f b03d 230e 86bc c2c4 c73d 289c 07be
00000160: 9013 edbc 12ec babc f6ca 0f3d ce28 d6bc
00000170: f971 9e3d 3b00 9a3d 7e13 94bd 0ddd 98bd
00000180: 6cbb 043e 68f2 3ebd de57 f4bc 52e5 e6bd
00000190: f377 a8bd 7bf2 0f3d 11a3 c8bc fe62 b0bd
000001a0: f74c 5b3c aa36 a1bd a0cf b9bd 92e7 4abd
000001b0: a9e9 d2bd 6881 9cbd 9c1b 0b3e 68c7 fe3c
000001c0: acf0 4e3d 5a04 e3bd 843d a4bd b6c5 fcbc
000001d0: 30a1 ba3c fb5a ccbd 17fa 59bd 3df2 85bd
000001e0: 28dc 6abb cbdc eabc 243e ec3a c2ec b0bd
000001f0: ca36 aabd 9bef a1bd 672c 18bd 4fdc d2bd
00000200: c2df e13d f347 053b 3041 eb3d f1c5 3d3d
00000210: 652b cabd aba1 b13d 45b9 e5bc b667 31bd
00000220: a91c a1bd af76 0fbe 5e14 643c 60d1 e6bc
00000230: 362e 163d 0b23 d1bd 242e a93d 5a37 b9bd
00000240: 234f 7abc e87e 4f3d c0fa 753d e919 c03d
00000250: 45bd e03d fd4c c2bd 5ecd 833c 5cb9 70bd
00000260: 5d67 dbbc f790 d2bd 8194 c33d c566 cdbd
00000270: 3e01 4e3d 33ff 073d cf4f d03c 5b00 92bd
00000280: c7ee 023e eab0 a63b a99b de3c 391a 04be
00000290: 3756 923d 45b9 11bd d794 59bd f919 c43d
000002a0: 5c5a 993c 3174 a7bd 5d5b 8dbd 426f 5bbc
000002b0: 48b8 7e3d 8813 23bd c575 97bd cf20 bebc
000002c0: 9dfc c2bd a772 623d a802 c23d 39d8 e8bd
000002d0: f013 173d 1ea6 883d 4874 743c df77 5dbd
000002e0: 573c 903d ee4d 7a3d c797 5b3d 56f2 f7bc
000002f0: 4131 dabc 701c 443c d654 28bd 9d62 fbbc
00000300: 1de3 8f3d 90be e23d 9560 f73a b634 763a
00000310: 8c10 8e3c 7dcb c53c 3e38 5b3d 7e3c 623d
00000320: ddd6 b2bd 042b e0bc d1ef ff3d f055 883d
00000330: 2795 043d 1edc 94bd 0d9d 64bd 766f cbbd
00000340: 3dbb 9dbc 0111 513d bebe 463d 1515 4b3d
00000350: 261b debd 9000 7cbd f09c 1fbd 11d3 fe3d
00000360: 19d3 853b b948 febc 1376 183d f865 5dbd
00000370: d131 b0bd 7915 c83d 54bc 78bd 9266 9cbc
00000380: 6f7e 1dbe c4dc c33d b028 c93d 6d06 6c3d
00000390: 5598 bebc 8302 edbd 6304 5ebd 13c5 da3d
000003a0: f92d d53d c453 f93d fe5a a93d 5a1e 2b3b
000003b0: 5d99 2f3d 1539 c2bd 292c 8abd 2a17 15be
000003c0: 7440 683d 29ad 63bd 0774 08bd 9c2e c5bd
000003d0: 8d3f 29bc cbb7 b1bd bb3e 8ebd 9cc7 303d
000003e0: e81d c1bc 082d bc3d 09b2 28bd 6f24 a8bd
000003f0: b18c 8cbc d4e2 3abd 57ab 23bd 7425 05be
0.1190184 0.091675416 -0.017873002 0.12464584 -0.026086157 0.019717874 -0.068437144 0.072761506
0.10703416 -0.10531041 0.105494045 0.0072827064 0.10894152 0.004152693 0.06708533 -0.021689719
0.095877156 0.008452466 -0.071155064 0.024450557 -0.06436907 -0.018683191 -0.057013452 0.082755074
-0.09393596 -0.052860208 -0.03415499 -0.068596885 0.00540784 -0.14481808 0.12996623 -0.08343149
0.119973965 0.06960684 -0.028271038 0.12070595 0.0371994 0.14535488 0.026790833 -0.03224207
0.009483668 -0.007325006 0.049908396 0.15363859 0.08653149 -0.0611131 0.053409364 0.023203826
0.049573723 -0.08478697 -0.13170464 -0.056383662 -0.104578935 0.095670186 0.030954223 0.039938577
0.030758586 -0.00065131916 0.084671915 -0.07832038 0.0209595 -0.054404695 0.039963324 -0.053202033
0.04814678 -0.03650333 0.10993401 -0.08640751 -0.06743906 -0.078595445 0.16066964 0.02537874
0.16347428 -0.121896304 -0.08153336 -0.109367825 -0.10190869 0.030480448 0.046090405 0.09595167
-0.044953853 -0.08446569 0.086766474 -0.04828903 0.086150005 -0.016364163 0.097543254 -0.13243163
-0.028939992 -0.022817645 0.035105668 -0.026142504 0.07736582 0.07519575 -0.0723028 -0.07464037
0.12962121 -0.046617895 -0.029827055 -0.11274208 -0.082260035 0.035143357 -0.024491819 -0.08612631
0.013385049 -0.078717545 -0.090728045 -0.04953725 -0.102984734 -0.0764187 0.13584751 0.031100944
0.05052249 -0.11084814 -0.08019546 -0.030855995 0.022781938 -0.09978291 -0.05321702 -0.06540344
-0.003583679 -0.028669735 0.001802389 -0.08638908 -0.083112314 -0.07907029 -0.03715172 -0.10295927
0.110290065 0.0020337075 0.11487043 0.04633135 -0.09871558 0.08673414 -0.028042445 -0.043311797
-0.078667946 -0.14010118 0.013920872 -0.02817601 0.036665164 -0.10211762 0.08260754 -0.090437606
-0.015277657 0.050658137 0.060053587 0.09379942 0.109736 -0.094873406 0.016089138 -0.058770522
-0.026782686 -0.10281556 0.09549809 -0.10029367 0.050294153 0.03320236 0.02542868 -0.07128974
0.12786399 0.005087008 0.027173834 -0.12900628 0.071453504 -0.035577077 -0.05312046 0.095752664
0.018719845 -0.081764586 -0.06902192 -0.013393225 0.062187463 -0.03981355 -0.0739551 -0.023209004
-0.095208384 0.055285122 0.09473163 -0.11369366 0.03688425 0.06672309 0.014920302 -0.054069396
0.07042759 0.061109476 0.053611543 -0.030266922 -0.026634814 0.011969671 -0.04109653 -0.03068667
0.0702574 0.11071503 0.0018873388 0.000939201 0.017341875 0.024144882 0.053520434 0.05523347
-0.08732388 -0.027364261 0.12496913 0.06657016 0.032368805 -0.072685465 -0.055813838 -0.09933369
-0.019254321 0.051041607 0.04852175 0.049580652 -0.10845022 -0.061523974 -0.038968027 0.124426015
0.0040840027 -0.031040536 0.03722198 -0.054052323 -0.08603252 0.097697206 -0.06072648 -0.019091878
-0.15380262 0.09563592 0.09822214 0.057623316 -0.023265997 -0.11572745 -0.054203402 0.1068212
0.10409159 0.1217418 0.082693085 0.002611062 0.042870868 -0.09483544 -0.06746704 -0.14559618
0.056702092 -0.05558506 -0.033313777 -0.09628031 -0.010330093 -0.08677634 -0.06945559 0.043159112
-0.02357383 0.091882765 -0.041185413 -0.08210074 -0.01715693 -0.045626476 -0.039958324 -0.13002568

lstm.weight_hh_l0 f4 [256, 64]
00000000: fba7 c0bd 6fb6 e23c eee3 a33d 12d9 2fb8
00000010: 05fe b73c e503 703d 996f ecbd ffcc 73bc
00000020: 7602 2dbd 2539 a1bd a006 823d 4e8c fc3d
00000030: 87c6 883c bb02 803d 6520 afbd 6874 a93c
00000040: a7e1 33bc ef5c 89bd 7fab 4d3d 1467 283d
00000050: d008 dcba fa05 363d 3507 8b3d 5821 f33d
00000060: 8c6c 883c 75d4 ed3b 1fa8 ca3c 261b 883c
00000070: f481 b9bd edb2 dbbc 59ec c9bd 98bf aebd
00000080: af06 c2bd 945d ee3d e98c 56bd dc1d 7dbc
00000090: 0dd5 a23c 9f07 ce3d 2966 553d 5842 8abd
000000a0: 7b71 0d3e 0edc d3bd 7b79 073d 9af1 ed3d
000000b0: 6cc7 fc3d 83db 12bd db26 b4bd 504e 673d
000000c0: e2b4 df3d aa21 90bd 0794 9cbc bd4c 8ebd
000000d0: 1acb 403d c29a 4a3c bb11 8d3d 6006 2ebd
000000e0: c54c 08be 397e 3ebd 1898 c1bd 8818 8ebc
000000f0: 145c 403d cc0f 04be 4295 a1bb e163 fbbd
00000100: 8cf0 a7bd 9015 c7bd 51a5 07bd eb9f 96bd
00000110: c004 a43c 954a 963d 4fca c33d b7dd 2f3d
00000120: b1d3 6cbb 917e 90bc 6628 ab3d 2faf 94bd
00000130: 7233 c53d 62cd 01be ffe0 bdbd c48e 2c3d
00000140: 9c14 4bbd b67a dc3c 171d e23d b062 563d
00000150: d5f3 ed3d ca44 75bd 7b3e 69bd 7906 dcbc
00000160: 5bd0 8abc 1449 4bbd 4acf 72bc 7fa3 f33d
00000170: fea8 54bd e987 9d3d baf6 703d 115f a53d
00000180: 431d 133d 07dd 2ebd 7d7f 343d 6a8c 6dbd
00000190: 758f a2bd 3306 da3d adb5 cd3d 2e7c b1bd
000001a0: 5068 c13d f05d cd3c 9431 b53c a58f fc3d
000001b0: 6ea0 11bc ed39 1bbd 9487 a53d eb88 22bd
000001c0: e435 22bd 08ad 41bd 18eb 003e b3a4 893d
000001d0: 35cc 9dbc a96f a0bb 5e62 253c dc4e a1bd
000001e0: e85e 0d3d 5a57 c2bd fdd5 7f3a 8231 9cbc
000001f0: fa61 58bd 0294 013e fccd 133d 9b96 713d
00000200: fa10 ccbd fa41 153d db29 ae3b 12e1 bd3d
00000210: 3cfa 58bd 5c8b 573c 11d5 14be a47a 573d
00000220: 8614 de3d 95e9 6d3d 6233 603d d8ce cf3d
00000230: 6148 073e c12b 9f3d a7eb a73b 7439 f3ba
00000240: 3386 a0bd 2f87 60bc c5ea 123d a72c 87bd
00000250: 9e5d ebbc c7d0 57bd 47e1 dfbd c168 c93d
00000260: a25f 883d cd03 62bd 1bec b73c 703a 8abd
00000270: 16dd e4b9 d6c6 20bd 437e bebd 9914 bbbd
00000280: 70dd b83d 72b7 453d 3ba3 74bd 4050 323d
00000290: 45f1 e7bd 1499 ec3c 6bba d83d e023 3d3c
000002a0: 2c12 143d 1418 f1bd 1e11 353c fb79 a63d
000002b0: d39d a6bd 97d5 1abd fcb7 f33d baea 9c3d
000002c0: dece c33d 76ea 22be 88d8 1f3d 35c3 ebbc
000002d0: c0e6 83bc ae56 103e e30f f4bd 1531 b53d
000002e0: 93cd e7bd 332c 763d 27e9 2a3d b8a7 1cbc
000002f0: d76f b3bb 0ee4 f13c 3690 e7bd f812 5b3d
00000300: f9af e53d 0476 d4bd 9b1e eebc 4b63 373d
00000310: 7c74 093d 20e0 e5bb c310 ee3d a167 b4bc
00000320: 0548 d73c a997 933d a448 64bc 5133 923d
00000330: 1ab3 983d e211 383d 1a80 b3bc e320 f53d
00000340: b91b 6dbd 4d26 363d 938d 7f3c 8450 ad3d
00000350: a5a8 abbd 8bce 4c3c f3e0 78bd d2fe 793d
00000360: 3a61 503d 50ad b0bd 62d7 2fbc 1c5a 343d
00000370: 9e8d fe3c e8c3 f53d a5e0 813d fed1 003d
00000380: 082c a53d 31e8 e6bd fbbd 993d 0648 c7bc
00000390: 0622 983d 4d2f c73c d0fa 8dbc 0c02 b83d
000003a0: f58c 8abd d73b 483d f484 903d 15a0 4abd
000003b0: 5eed 543d 1ce4 04be a369 8abd 81be 533d
000003c0: 62d9 563d 724b d4bd 2856 503d a3ff a93c
000003d0: 5ef2 043e 7978 04be 3c6a 37bd 2a41 98bd
000003e0: ad15 aebd 7dcf 02bc ba26 01be 81ce d63d
000003f0: 0888 4cbd eecb 163d 8f4a 8abd a3d8 1fbc
-0.0940704 0.027674882 0.080024585 -4.1925414e-05 0.022459993 0.058597464 -0.11544723 -0.014880418
-0.042238675 -0.078722276 0.0634892 0.123314485 0.016696228 0.06250521 -0.08551101 0.02068539
-0.010979093 -0.06707179 0.05021238 0.041113928 -0.0016787294 0.044439293 0.06788484 0.11871594
0.016653322 0.007257993 0.02473837 0.016614508 -0.0905799 -0.026818717 -0.09859533 -0.08532637
-0.09473931 0.11638942 -0.052380476 -0.015449014 0.019876981 0.10060047 0.05209938 -0.06750935
0.1381282 -0.103447065 0.033074837 0.116183475 0.12342724 -0.035853874 -0.087964736 0.05647117
0.109231725 -0.07037671 -0.019113554 -0.069482304 0.047068693 0.012365999 0.068881474 -0.04248655
-0.13310535 -0.046507094 -0.09452838 -0.017345682 0.046962813 -0.12896651 -0.004931123 -0.1227491
-0.082001776 -0.097209096 -0.033116642 -0.07354721 0.020021796 0.07338444 0.09560072 0.042936053
-0.003613692 -0.017638477 0.08357315 -0.07259976 0.09628953 -0.12676004 -0.0927143 0.04212834
-0.0495802 0.026913982 0.11040705 0.05234021 0.11618773 -0.059880055 -0.05694435 -0.026858555
-0.016945055 -0.04963024 -0.014819929 0.11896419 -0.051918976 0.076919384 0.058829047 0.08074773
0.035916578 -0.042691257 0.044066895 -0.057995237 -0.079375185 0.10645714 0.100444175 -0.086662635
0.09443724 0.025069207 0.022118367 0.123320855 -0.008888347 -0.03789704 0.080825 -0.039681356
-0.039602175 -0.047284156 0.12589681 0.06720867 -0.019262413 -0.0048961234 0.010094253 -0.07876369
0.034514338 -0.09489317 0.0009759365 -0.019066576 -0.052827813 0.12654117 0.036085114 0.05898152
-0.099641755 0.036439873 0.005315048 0.092714444 -0.052973017 0.013155784 -0.14534403 0.052607194
0.10843758 0.05808409 0.054736502 0.10146874 0.13211204 0.07772017 0.0051245275 -0.0018556551
-0.078380965 -0.013704105 0.035868425 -0.06600314 -0.028731164 -0.05268934 -0.1093164 0.09834433
0.066588655 -0.055179406 0.022451451 -0.06749427 -0.0004365227 -0.039252125 -0.09301426 -0.09134788
0.09026611 0.04827065 -0.05972598 0.043533564 -0.113253154 0.028881587 0.105824314 0.011544198
0.036150143 -0.11772171 0.011051444 0.08128735 -0.08135571 -0.03780135 0.119003266 0.07661958
0.09560941 -0.15909752 0.03902486 -0.028779605 -0.016101241 0.14095566 -0.11917093 0.08847252
-0.11318507 0.060100745 0.041726258 -0.009561472 -0.005475979 0.02952769 -0.11306803 0.053484887
0.11215205 -0.10374072 -0.029067328 0.044772428 0.033558354 -0.007015243 0.11624291 -0.02202207
0.026279459 0.07206661 -0.0139333345 0.07138694 0.07456036 0.04493893 -0.02191167 0.11969163
-0.057887767 0.04447012 0.015597719 0.08462623 -0.08381776 0.012500416 -0.060761403 0.06103403
0.050873972 -0.08626807 -0.010732504 0.044031247 0.031073388 0.12000257 0.06341676 0.031450264
0.08065039 -0.11274756 0.07506939 -0.024326336 0.074283645 0.024314547 -0.01733151 0.089847654
-0.06765167 0.048885193 0.07056609 -0.049469072 0.051984183 -0.12977642 -0.0675843 0.05169535
0.052453406 -0.103659526 0.050863415 0.02075178 0.1298308 -0.12936582 -0.044779047 -0.07434304
-0.08500228 -0.007984039 -0.1261243 0.10488606 -0.049934417 0.036815576 -0.06752502 -0.00975624

lstm.bias_ih_l0 f4 [256]
00000000: 98c1 48bd 4d72 9ebd 419b 193e b27c 06be
00000010: 1785 c2bd 8d62 923d 855d e63d 90a1 44bd
00000020: 245e 87bd b2e7 8abd c910 8b3d 476b 5fbc
00000030: 5283 ccbd cb4f f7bc c4b7 d2bd ac85 be3d
00000040: 7272 3cbd 8f6d 003c db5d a23d 27fd 883d
00000050: 5694 0fbe c544 5e3d 8b4b d43d adbc ac3d
00000060: 8e70 303d e061 073c edd0 a7bd 8eeb 5cbd
00000070: 72f2 6abd 0b78 51bd 36fe 4d3d 8620 e43d
00000080: a60f 833d 7a38 3cbd cac1 153a 484b 4bbd
00000090: 84dd 37bd 3f82 00bd 248e a3bb f18f 013c
000000a0: dcfb 273d f893 0f3d 655e cc3d 2b2d 393c
000000b0: bfd9 bebd 6f73 043c 6593 163d 401e c8bd
000000c0: 001e c53c 581a a43d ed6d c2bd eef1 783d
000000d0: 44e7 91bd fa28 403d 5440 253d 98fd 613d
000000e0: 9916 cdbd 93e1 b43d 5bee a3bd f9b1 5cbd
000000f0: 6bb3 0e3d 9f42 bcbd 98a0 883d 3fb9 b33d
00000100: 7ecc d63d 9acb a0bd 46e1 6a3d a05a cb3d
00000110: e63e 2f3d eb20 d0bb d2df d93d 5ccc c43d
00000120: 61ef ff3c 050c 2cbd 28f5 b2bd 8937 d43d
00000130: ce00 86ba d193 6eba 1292 94bb 05d9 26bb
00000140: 65fd 9e3d 9e57 dd3c e1db f93c debe 17bd
00000150: 2241 e03c b695 dd3d ccf2 623d 3770 be3d
00000160: 7115 393d 32a6 963d 9832 2fbd 4d2c a0bd
00000170: 6921 c73d 2c7d 12ba 15f0 a5bc bd52 8a3c
00000180: f490 183d 725e 0fbc 4dc9 223d fdaa f53d
00000190: fc62 a6bc 4c05 f1bc e6c9 60bd 441f 9d3d
000001a0: 0698 57bd f130 a23c f724 85bd a498 f43c
000001b0: 8bd7 a9bd 374c a13c 9b34 97bd 1561 d1bd
000001c0: 8a92 e53c c4b4 ea3c 36d4 c3bd fd21 88bd
000001d0: d88a b63d 156d acbc 69b9 ac3d d4e4 77bd
000001e0: c5eb 28bd ef1f d23d 1644 d0bd 0a2a 403d
000001f0: 75bd afbd 98de 86bd 7cdb a53c ee27 c53d
00000200: 23f2 7cbd b776 c13c 7707 2dbd 7873 b7bd
00000210: 083b e3bc ec8b 373d 003d 83bd cf41 81bd
00000220: 61ce e83d aef7 8fbd 0175 903b 25c6 bf3d
00000230: 94a6 66bd eeeb b9bd 3a79 7fbd 4c3c 0fbe
00000240: 142a 953d a367 75bd 625a 103d b2d7 823d
00000250: 90d4 a5bc fa76 743d 30f2 df3d 9e4f 8fbc
00000260: e4e1 2c3d c911 8dbd 1806 af3d ae2a 01be
00000270: 9ea2 07bd 1f7b f03b 1147 bfbd e3ae c9bd
00000280: 2c96 a23d f539 c5bd 271b ecb9 668b e63d
00000290: 0266 bebd f587 063e 346b d13d 0faa 17bd
000002a0: b707 023d cfd2 8fbc f961 9abc 8a10 7c3d
000002b0: dc93 933c f180 2a3d c1b1 ef3d cbe5 f63a
000002c0: 5bee 273c 0553 e8bd 7e4d d3bd 0d18 6bbd
000002d0: 17c3 a8bd a3dd bb3d 8f1c 88bd 5de1 c2bc
000002e0: 36ab 983d a05b c2bd 9b36 353c 2369 ffbd
000002f0: ed02 ad3d 43cd 09be 8766 853d 2810 943c
00000300: fc29 74bd 01e4 f1bc 9f9c 88bd 9840 46bd
00000310: 7a6b ad3d cb82 073e 9519 933d 356c 06bd
00000320: 3ca8 13bd 9cec 3c3d 484d 08be 2a57 f7bd
00000330: a916 febd 816f 143e 65a0 4f3d 8394 87bc
00000340: 3e65 89bc 869c ae3c 3df8 053d 03b7 abba
00000350: b277 1b3d 7413 6d3c bccd 31bd 1e58 b13c
00000360: b2be 993d 9bf1 38ba e77e b73c 8cbc e9bd
00000370: 93de c5bd 0c8d 07be fa62 ae3c c33c aebd
00000380: bfed 423d 7307 c3bb 9dec 023d 5f16 d9bd
00000390: 7962 d83d f4d7 ebbd b737 1cbd 2306 5dbc
000003a0: 55bc 0c3c 996f d6bc 1d1d dcbd 7dd4 acbd
000003b0: 1589 82bd 7578 003e e8f9 9f3c a2b4 bc3d
000003c0: cd85 04bd ec21 a23d 83ce 89bd ed93 183d
000003d0: 2796 633d 7aad f53d 69c8 f93c e810 71bb
000003e0: 1ffc b43d f704 f53d 7ab7 98bd 4dbe 37bd
000003f0: 3e5e 8d3d 1508 41bd 744f 66bd f5ba ec3b
-0.04901275 -0.07736645 0.15000631 -0.13133505 -0.09498041 0.07147703 0.11248306 -0.04800564
-0.06609753 -0.067824736 0.06790311 -0.013636417 -0.09985985 -0.030189415 -0.10288957 0.0930284
-0.04600758 0.007838621 0.07928058 0.0668891 -0.1402143 0.054264802 0.10365971 0.084344245
0.04307609 0.008263081 -0.08194146 -0.05393558 -0.05736012 -0.051139873 0.050291263 0.11139016
0.06399469 -0.045952298 0.0005712776 -0.04963234 -0.044888988 -0.031374212 -0.0049913097 0.007907853
0.041011676 0.035053223 0.09978942 0.011302273 -0.093188755 0.008084162 0.03676166 -0.09771395
0.024062157 0.08012837 -0.09493623 0.060777597 -0.071241885 0.04691408 0.04034455 0.055173486
-0.10014076 0.08832087 -0.08004447 -0.053880665 0.034839075 -0.091923945 0.06671256 0.08775567
0.104882225 -0.07851334 0.057343744 0.09929395 0.042784594 -0.0063515804 0.106383935 0.09609291
0.031242074 -0.04200365 -0.08738166 0.10362155 -0.0010223628 -0.0009101006 -0.0045340145 -0.0025458944
0.07763175 0.027019318 0.030500354 -0.03704726 0.027374808 0.10819571 0.05540733 0.09298747
0.045186464 0.07355918 -0.04277286 -0.0782095 0.09723169 -0.000558811 -0.020256082 0.016885156
0.037247613 -0.008750545 0.039742757 0.11995504 -0.020310871 -0.029421471 -0.054880045 0.07671979
-0.052635215 0.019798728 -0.06501191 0.029857941 -0.08293065 0.019689662 -0.073830806 -0.10223595
0.028023977 0.028650649 -0.095619604 -0.06647108 0.08913201 -0.021048108 0.08433802 -0.060520962
-0.041240472 0.10259997 -0.10169236 0.04691509 -0.08581058 -0.06585425 0.02024626 0.096267566
-0.061754357 0.023616178 -0.042243447 -0.08957571 -0.02773811 0.044811174 -0.06408119 -0.0631138
0.11367489 -0.07029663 0.004408479 0.09363965 -0.056311205 -0.09078203 -0.06237147 -0.13987845
0.072834164 -0.05991329 0.035242446 0.06388797 -0.02024296 0.059683777 0.109348655 -0.01749402
0.042207614 -0.06888158 0.08546084 -0.12613937 -0.03311407 0.007338896 -0.09339727 -0.0984781
0.07938799 -0.09630195 -0.00045033658 0.11257057 -0.092968 0.13137801 0.102255255 -0.037027415
0.03174564 -0.017556576 -0.018845545 0.06153921 0.01801484 0.041626874 0.11703826 0.0018836794
0.0102496995 -0.1134396 -0.10317515 -0.057395983 -0.082403354 0.09173133 -0.06646072 -0.023789102
0.07454531 -0.09490132 0.011060382 -0.12471225 0.08447824 -0.13457207 0.06513696 0.01807411
-0.059610352 -0.029527666 -0.06670498 -0.048401445 0.08467765 0.13233487 0.07182614 -0.032818038
-0.036049113 0.046124086 -0.1331073 -0.12077172 -0.12406666 0.1449566 0.050690074 -0.016550308
-0.016771909 0.02131487 0.03270744 -0.0013100806 0.037955947 0.01446997 -0.043409094 0.021648463
0.07507075 -0.0007055045 0.022399379 -0.114129156 -0.09661593 -0.13237399 0.02128743 -0.08507683
0.047590014 -0.0059518158 0.031963933 -0.1059997 0.10565657 -0.11515799 -0.03813907 -0.013490233
0.008589824 -0.02617626 -0.107477404 -0.084389664 -0.063738026 0.1254595 0.019528344 0.092141405
-0.032354165 0.07916626 -0.06728842 0.037250448 0.05556312 0.11995979 0.03049107 -0.0036783759
0.08837151 0.119638376 -0.074568704 -0.04485922 0.06902741 -0.04712685 -0.056228116 0.0072244355

lstm.bias_hh_l0 f4 [256]
00000000: eaab 8b3d 97f5 e3bd c4d6 ce3d fc2b 753b
00000010: 4a21 6a3d 2447 80bd ca63 50bc 7fba ea3d
00000020: 6dd8 72bd fe8b 183c 3b62 82ba d136 a0bd
00000030: 1661 ec3d 8cdc c4bd 9fe1 423c a8ec a33c
00000040: 56eb 023e 0194 953d e749 dbbd ea6f 10bd
00000050: db4c c23d 45f6 aa3b b939 5d3d f9e7 edbd
00000060: a121 12bd 4b7f ddbd 33ea cabd 0ad6 a2bd
00000070: 4843 fbbb d1a3 853a c03c 10be 04b4 5abd
00000080: 89fd 0dbc 3303 e53d 0b05 42bd 40f6 abbd
00000090: 2529 903c bdf2 b13b e95c d73a 444b e5bc
000000a0: 7a4a c3bc 228b b53d d589 abbd f02a 3e3d
000000b0: b07b 40bd e99d 163d dabd a3bd 9c9c acbd
000000c0: d77a 913d 98c9 193d 6288 4a3d 1abb 30bd
000000d0: 31ab f23c 08dc b53d 4202 b83d 6afe ae3d
000000e0: a600 22bd d513 02bd d4c6 a43c 5325 99bd
000000f0: 016c 57bd 29fc 323c 25ab 243d 10c6 283c
00000100: a98a 053d 4e1e eabd 1359 923d ce6d a4bd
00000110: d062 d8bd 8461 193d d061 dc3d 456e 113d
00000120: 224d 2b3d 1e58 9bbc 249b 7dbb 6588 c03b
00000130: 4590 6cbd 7e44 f53d 8514 a8bd 56c1 023e
00000140: 0edf d23d 03f1 8abd 3995 e83d 9640 063d
00000150: 618a c03d 78cb 533d a34a adbd 9f98 5f3d
00000160: 549d dc3d 889e af3d 8c42 2e3d e3a7 f43c
00000170: b519 293d 815f d83d c761 9dbd 43d7 da3c
00000180: c362 89bc 181a df3d 8bee 603d f72b a0bd
00000190: 8538 603d 72e5 0fbd b76b b93d d2e4 dbbd
000001a0: 2b22 06be 90ec 3f3d e7ae 65bc c6f2 bf3c
000001b0: 9173 eb3d 1be9 b1bd 418b 87bc 5f3b 03bd
000001c0: 6750 b63d 739f 70bd 5692 c53d 44f8 ac3b
000001d0: f954 293d 7f84 83bd 526a ceb9 de0f dbbd
000001e0: baa3 81bd 152e 0c3b 724f c5bd 45c2 0b3c
000001f0: ee78 643d c4c3 a0bd ec07 4ebc c479 f13d
00000200: fab7 93bd 2da1 463d 2a64 4abd 4452 d23d
00000210: b933 99bc 05c1 0a3e f2bd 3cbd 948e c7bd
00000220: e5b5 823c 75f3 8cbd 8e24 50bd 6956 b23d
00000230: f178 de3d 6cfd 9bbd 903d fcbd b6f9 94bb
00000240: 1292 f6bd 81af 1bbd 1664 393d b5af 2b3d
00000250: 961f eb3c db6e 773d 421f 88bd 6df8 2abd
00000260: 10e4 21bd f36c 06be e18b a3bd eb43 083c
00000270: 277e f03c 706e 6bbd 3d3e b83d cbd8 95bd
00000280: 4143 ba3c 91be f13d 3a48 ac3d 0bbf f03d
00000290: 77f0 383d 149c a1bd 8203 21bd 4860 24bd
000002a0: 95c4 cfbd a614 febc 59fa 90bd 41b4 94bd
000002b0: 3b2f 00be cce5 f33d 6420 bf3c 10d4 0b3e
000002c0: 037e c33d 8fe4 ee3d 6be4 f3bc 6b0f 3fbd
000002d0: 8274 6dbd 4b68 f3bd af41 b8bc 8faf 803c
000002e0: c8f5 5e3d 8d3e 76bd 0db9 373d e951 1a3d
000002f0: bdca 903c d26e 9a3c d818 6dbd 5fa0 c53d
00000300: 234e 02be fee8 443c c3fc c33d df38 903d
00000310: e761 543d 7b5f 353c 85b3 b43d 3f96 d8bd
00000320: 8355 ffbc 98a2 49bd a2cb 813d 6c39 cf3d
00000330: 06e5 1ebd e9c5 4b3d 16ee b6bc 7ad7 153c
00000340: dda6 893d 2ec8 e83c ea34 87bd cb29 e63b
00000350: 46a5 c33d 2f09 bdbd 3a84 e5bc ff4a 00be
00000360: c936 0bbd c717 093e 3697 943d 7410 dcbd
00000370: fbbd c3bd 2782 26bc 5af8 08bd d5c4 ac3d
00000380: ad79 30bd 3c68 a73d 9bee afbd b12c c9bc
00000390: a8b6 d8bb a2fe 8ebd 1c73 c73b 6f46 e6bc
000003a0: 7d9f 99bd 7833 dabd 1802 783c ab6f e23d
000003b0: ac07 5d3d 7379 c0bd 47d4 9dbd 20f6 c13d
000003c0: 7f95 dabc ce41 07bc 8bde 92bd a64e 773d
000003d0: 2cb6 9dbd b44b f5bd 71a8 c4bd 9d42 d2bd
000003e0: dee7 1bbb 221f 593d 6971 f7bc f98d 7a3d
000003f0: 3bed a0bb e6b7 cd3c 5a3b 7b3d d9ca 4d3d
0.068198994 -0.11130827 0.10099557 0.003741025 0.057160653 -0.06263569 -0.012719104 0.114613526
-0.05928843 0.0093107205 -0.0009947488 -0.078229554 0.11541955 -0.096123785 0.011894613 0.020010307
0.12785086 0.0730362 -0.10707455 -0.03526298 0.09487315 0.005217346 0.054010127 -0.11616511
-0.035676602 -0.10815295 -0.09907951 -0.07950981 -0.0076679327 0.0010195916 -0.14085674 -0.053394333
-0.0086664045 0.11182251 -0.04736809 -0.08396578 0.017597744 0.005430548 0.0016430888 -0.027989991
-0.023839224 0.08864428 -0.08375899 0.046427667 -0.046992958 0.03677169 -0.07995196 -0.08428308
0.07103508 0.03754577 0.04944647 -0.043147184 0.029622646 0.08879858 0.08984806 0.085446194
-0.0395514 -0.031757195 0.02011434 -0.07477822 -0.052593235 0.0109243775 0.04020228 0.010301128
0.03260294 -0.114315614 0.07145896 -0.08028756 -0.10565722 0.037446514 0.10760844 0.03550555
0.041821606 -0.018962916 -0.0038697207 0.0058756345 -0.057754774 0.119759545 -0.08207039 0.12769064
0.102964506 -0.067842506 0.11356587 0.032776438 0.09401394 0.051707715 -0.084615014 0.05458891
0.107721955 0.08575159 0.042543933 0.02986521 0.04128428 0.10565091 -0.07684665 0.026713973
-0.016770726 0.10893649 0.054914992 -0.07820886 0.0547414 -0.035130925 0.09053748 -0.107370034
-0.13098972 0.046856463 -0.014018751 0.023431193 0.11496652 -0.086870395 -0.016545894 -0.032039043
0.08902054 -0.058745813 0.09647052 0.005278619 0.041340802 -0.06421756 -0.00039370597 -0.10696386
-0.063300565 0.0021389772 -0.096342936 0.008530204 0.05577939 -0.07849839 -0.012575131 0.11790803
-0.07212825 0.048493553 -0.04941193 0.10269597 -0.018701421 0.13550194 -0.046079583 -0.097439915
0.015955875 -0.06882373 -0.05081611 0.08707888 0.108629115 -0.07616696 -0.123164296 -0.0045463694
-0.120395795 -0.03800917 0.045261465 0.041915614 0.028701585 0.060408454 -0.06646587 -0.041740824
-0.039524138 -0.13127498 -0.07985664 0.008316974 0.02935703 -0.05747837 0.08996246 -0.073167406
0.022737147 0.11803926 0.084122136 0.117551886 0.0451512 -0.07891098 -0.039309986 -0.040130883
-0.10144917 -0.031015705 -0.07079 -0.07260943 -0.12518017 0.11909065 0.023330875 0.13655114
0.09545519 0.11664688 -0.029772004 -0.046645563 -0.05797244 -0.11885127 -0.022492258 0.015708713
0.054433614 -0.060118247 0.044854213 0.03767577 0.017674798 0.018851671 -0.05788502 0.09649729
-0.1272512 0.01201844 0.09569695 0.07042097 0.05185118 0.011070128 0.08823303 -0.10575532
-0.031168705 -0.049227327 0.06337668 0.10118374 -0.038792633 0.04974929 -0.022330325 0.009145612
0.0672128 0.028415766 -0.066018894 0.007024025 0.09553008 -0.09230267 -0.028017152 -0.12528609
-0.033987794 0.13387977 0.07255404 -0.10745326 -0.0955772 -0.010162867 -0.03343997 0.0843598
-0.04308479 0.08174178 -0.08590432 -0.024557443 -0.006613571 -0.06982161 0.00608672 -0.028109757
-0.07501123 -0.10654348 0.015137218 0.11056455 0.053962395 -0.093981646 -0.07706504 0.09470773
-0.026682613 -0.008255435 -0.07171353 0.06037774 -0.07700762 -0.1197733 -0.0960244 -0.10266612
-0.0023789327 0.053008206 -0.030205445 0.061170552 -0.0049110926 0.025112104 0.0613359 0.05024228

lstm.weight_ih_l1 f4 [256, 64]
00000000: ff0d 133e 7d41 bd3d 96c9 7ebd 2eca af3d
00000010: 5301 81bc 87ed 70bc b0ed fe3c 8bd5 b1bd
00000020: 7497 9f3d c355 c23d 530f f83d 2c66 303d
00000030: 1e18 2dbd 5cd7 afbc 9010 07bd 375e c9bd
00000040: c425 0c3d c1e6 d73b 0831 3abd e0fe 9cbd
00000050: 698c 45bd 464f 643c 7a95 cc3d f90f 3b3d
00000060: adc7 d83d 26e6 ef3d 100f 70bd ae3e a0bc
00000070: 6bdb b5bd 23f0 a1bd 3c0b 4a3d 868f 583d
00000080: 3851 5c3d 8361 ec3d a6bb 523d 80d4 78bd
00000090: 2ff8 11bd cb38 593c 0330 5b3d 27f1 3fbd
000000a0: 83cf 62bd f0ca e53c 0d91 113d e594 ca3d
000000b0: 660c e23d 8dd4 74bd 1b93 383d 4e39 80bd
000000c0: 45ee f1bc 4db1 8abc 08b5 e33c 3897 fa3d
000000d0: 9833 c2bd ff3e d93d 601a a33d 0fa1 88bd
000000e0: c5da 0cbd 0fb6 dcbc 33f5 9a3d e1b4 cfbc
000000f0: 743f 063d cb15 45bd b9d3 e13d 4aed eaba
00000100: 3851 f43d 98cb c7bd 915f 23bd 02d0 963d
00000110: f05f b93c 02e9 c3bd 7e71 d4bd 928d c0bd
00000120: bfca eabd 4de0 3abd d40d 68bd 7bfb 16bd
00000130: 60e5 df3d 6740 42bc cd45 82bd e074 c43d
00000140: 6c32 a0bd ff30 86bd d0e2 3fbc 5a1d aebc
00000150: bc38 b6bd 1f68 d1bd ce16 f1bd fa5c 73bd
00000160: 0bbb 8f3d 212d dd3c 0354 a43d eb5d 193d
00000170: 8e52 aebd 3647 c13c b3dc d5bc bd5c a03d
00000180: ec69 e33c 6aef f43d dae1 ecbd 3ac0 35bd
00000190: 98cb f7bd 6f44 783c 44ab b9bd 7ca4 4abd
000001a0: 03ef f83d 4eac 36bd f70a 783d 80a2 953d
000001b0: 858a 963d 36d2 c53d 1684 6f3d 7f26 723b
000001c0: d1b1 be3d c947 fc3d 1b53 bcbd 3f35 023d
000001d0: e72a c33d 31ce aabd 17a0 1d3d 8a10 963d
000001e0: a134 0e3b 34fc 00bd cb02 9abc 7559 dc3d
000001f0: 0e16 c3bd 0169 7b3d caa8 86bd 2c6c 8c3d
00000200: 69f4 0dbd 0ae3 103d 6afc b53d 5028 7dbb
00000210: d318 abbc ccf7 e33d 2db1 043e 88b2 aa3d
00000220: e83b 89bc a0bf 3e3c 821c a3bd b723 af3d
00000230: edbb 753d e589 d83d 5728 82bd 3f6f 2a3d
00000240: b1c4 f33c bbb9 15bd c077 0abc 6652 db3c
00000250: 8dbe 46bd f2fe dc3d a52e cbbd 185a 77bc
00000260: 4707 4bbd 927e df3d d159 44bd ee6d 10bd
00000270: 0c78 b33d 9854 eabd 7ce6 5cbd 5585 ea3d
00000280: c470 bf3d e144 b8bc 196d e6bc be1e 88bd
00000290: bde8 d33c e65d ef3c 4296 813d 9cd9 963d
000002a0: 6d80 863d 2c5f 74bb 0c66 b8bd 9cef 8d3d
000002b0: e062 e63b 67bc b6bd 6c9b 083c 97bf 033e
000002c0: 469c e9bc b02e ebbd 2f80 9a3d e79c f83d
000002d0: 40a0 98bd dc8d e3bd 6e95 debd 5a64 793d
000002e0: 1c3c 9bbd a33c f7bd eaa5 c8bc 07e3 8abd
000002f0: 1ce4 18bd a078 51bd 72ac c7bc e312 a2bd
00000300: b625 0ebd cbdb afbd 98c8 88bc f3b7 94bd
00000310: 6187 3abb e257 a73d 5e26 e1bc 510a ccbc
00000320: 54fc 23bd 2c42 f1bc 399c acbd 0a70 123b
00000330: 183e 27bd 1ba6 8dbb 8e07 96bc 679f 97bd
00000340: b486 5fbd acc2 883d 102c b13d eb7a 54bd
00000350: c083 4a3d 830f 8bbd 9706 81bb fc9e edbd
00000360: f02b bdbc 10bc 2f3d d767 b13d a60f 323d
00000370: 02ba 843d 7826 d2bc 6c18 ef3d b937 b5bd
00000380: 6bbf b5bc c170 febc 273a 923d bc6f 1a3d
00000390: 1380 e43d f858 9cbd f80b 1a3d c9dd c4bd
000003a0: 83c4 103d 5263 6abd 9daa 24bd 1b63 59ba
000003b0: e55d a73c 853b eb3d 8506 d03d 5924 f1bb
000003c0: 2391 d63c cb4d 393d 188f debc 4ab0 e2bd
000003d0: 4279 e8bd 835f 6c3c 8c44 9ebd 8c09 d73d
000003e0: 9800 5dbd a0ca 193d 9072 aebd 25ce ed3d
000003f0: 92c5 5f3d 0be2 7c3d 9417 2b3d 5daf 0ebd
0.14360808 0.092410065 -0.062203966 0.085834846 -0.015747702 -0.014705068 0.031119198 -0.08683308
0.07792559 0.09489014 0.12112298 0.04306619 -0.042259328 -0.021464996 -0.03297478 -0.09832423
0.034215704 0.0065887873 -0.045456916 -0.07665801 -0.04822961 0.013934916 0.09989448 0.04566953
0.1058496 0.11713819 -0.058608115 -0.019561138 -0.08879741 -0.079071306 0.04932712 0.05287125
0.053788394 0.115420364 0.051448487 -0.06074953 -0.035637077 0.013258169 0.053512584 -0.04686084
-0.05537368 0.02805087 0.03553872 0.09891681 0.11037521 -0.059773017 0.045062166 -0.0626093
-0.029532561 -0.016930247 0.027796283 0.12235874 -0.09482497 0.10607719 0.07964015 -0.066713445
-0.034388322 -0.026942281 0.07566299 -0.025354804 0.032775357 -0.048116487 0.11026711 -0.0017923501
0.11929554 -0.09755629 -0.03988606 0.07363893 0.022628754 -0.09565927 -0.103732094 -0.094020024
-0.11464452 -0.045624066 -0.056653813 -0.036860924 0.10932422 -0.011856175 -0.0636097 0.09592605
-0.07822117 -0.06552314 -0.011711791 -0.02125423 -0.0889754 -0.10224938 -0.11771928 -0.05941484
0.070180975 0.026999058 0.080238365 0.037443083 -0.0851184 0.023593526 -0.026106214 0.078301884
0.027760468 0.11959727 -0.11566515 -0.044372775 -0.12099379 0.015153035 -0.090658695 -0.04947327
0.12154963 -0.044597916 0.060557332 0.07306385 0.07350639 0.09659235 0.058475576 0.0036949215
0.093112595 0.123183794 -0.091955386 0.03178906 0.09529667 -0.08340109 0.03848275 0.07327373
0.002169885 -0.03149052 -0.01880016 0.1075925 -0.09525691 0.061379436 -0.06575163 0.0685657
-0.034656916 0.03537277 0.08886035 -0.0038628764 -0.02088586 0.11131248 0.12958212 0.083348334
-0.016752198 0.011642367 -0.07964422 0.08551734 0.059993673 0.10573176 -0.063553505 0.04161
0.029756876 -0.03655408 -0.008451402 0.02677269 -0.048521567 0.107908145 -0.09921006 -0.015097164
-0.049567487 0.10912813 -0.047937218 -0.035261087 0.087631315 -0.11441916 -0.053930745 0.11451212
0.0934768 -0.022493782 -0.028128194 -0.066464886 0.025867814 0.029219579 0.063274875 0.073657244
0.06567464 -0.0037288172 -0.09003839 0.069304675 0.00703083 -0.08922654 0.008337837 0.12866054
-0.0285169 -0.11483514 0.0754398 0.12139302 -0.0745244 -0.11111042 -0.10868345 0.06088672
-0.07579824 -0.120721124 -0.024493176 -0.06781583 -0.037326917 -0.051140428 -0.02437422 -0.079137586
-0.034703933 -0.08586844 -0.016697213 -0.07261648 -0.002846204 0.08171059 -0.027484115 -0.024907263
-0.04003556 -0.029450499 -0.084282346 0.0022344613 -0.0408307 -0.00432278 -0.01831415 -0.074034505
-0.054571822 0.06677756 0.086509824 -0.051875036 0.049442053 -0.06790068 -0.003937553 -0.116025895
-0.02309224 0.04290396 0.08662384 0.043471955 0.06480791 -0.025653109 0.1167458 -0.08848519
-0.022186002 -0.031059625 0.07139998 0.037704214 0.11157241 -0.07634157 0.03760907 -0.09612615
0.03534366 -0.057223625 -0.040201772 -0.0008292661 0.020430515 0.11485962 0.101574935 -0.0073590693
0.026192253 0.045240205 -0.027167842 -0.11068781 -0.11351253 0.014427069 -0.07727918 0.10499868
-0.053955644 0.037546754 -0.08517945 0.116115846 0.054631777 0.06173901 0.041770533 -0.03483521

lstm.weight_hh_l1 f4 [256, 64]
00000000: cfeb 3c3d f320 883d 7fb4 aa3d e864 013d
00000010: d3ad d63d e175 b13d d47d 1f3d 8829 063d
00000020: 3142 803c 8c60 d33a b8c1 433c cdd0 cbbd
00000030: 95f1 de3d dee0 59bd 58b2 cc3d aca6 28bc
00000040: cc23 f73d 1177 913c 374e a43d 8051 2dbd
00000050: e787 16bd 2d86 e03d 9a7d 5cbc 4973 e03a
00000060: 4f0a e3bd 5830 d03d b5de a63c f2a1 e23d
00000070: 0a58 cdbd 8e0b c4bd 4d1f 823d 2e09 b03c
00000080: cf1d 5fbd c85e bebc 7154 953b 6600 babc
00000090: fe4d 423d f4ba e9bc 95a1 b53c 6c1a eb3d
000000a0: 2f9f df3d 38ca 89bd 9c74 93bd ba9d 483d
000000b0: d36e ccbd c599 56bd f933 8abd 8644 06be
000000c0: 400c bf3d 8f3c fe3d 1a7a 483d 10ae a13c
000000d0: e6fc b0bd 4c2f 81bc 4541 c0bd 4469 943d
000000e0: 52fc 85bc b10b 72bb 2727 0ebd 2f4d 9fbc
000000f0: aae3 dfbc 606f 263d 8f6a c2bb 6733 2a3a
00000100: f54c 043d 86ca f0bc 8599 b2bd eb1d 71bd
00000110: c9ba f63d df40 66bd 3fe9 d83d 3a8c d83d
00000120: 60fa d1bd a11e 8fbd c1bd fa3d 56a1 bdbd
00000130: 8f20 0a3e fd82 92bc 6de8 f8bb 81f6 fa3d
00000140: dd13 2f3c 9435 bd3d 6d37 073e 5659 5abc
00000150: c701 bbbd 00de c0bd b66c 073d 8881 9abd
00000160: 2644 29bd e0af 393b 4fbd e63d 1010 3ebc
00000170: dc42 303c 0b67 74bd 8cc8 703d a06f 08bd
00000180: fd10 efbc 6f59 e4bc 2c65 993d db08 e23d
00000190: 8042 4bbd c6d1 e33d 4eee a0bd 2baf 2a37
000001a0: 2395 8d3d 21e9 a63d 5153 1bbd b4d3 4ebc
000001b0: a343 94bd d129 993d 8d7c c9bd 5f7a 8b3c
000001c0: 38f8 5d3c 308e e8bd 238e 483d e7fc 703d
000001d0: f044 c63c 7e6a d4bd 3961 54bd 20e1 4dbc
000001e0: f5ef c13c a2fb e838 ba7b 793d dc95 c0bc
000001f0: cc9a 0bbc 954d fcbd 13cb ee3b 89ed 03bd
00000200: 6dc6 293d 9b98 99bc d511 cd3c f1c4 99bc
00000210: 9c1e 01bd 547d e53d f75c 6fbd 6027 fabd
00000220: 1561 603d cf9d d9bd 9824 ef3d 2986 773d
00000230: f8be 4cbd 0371 9dbd 37b5 803d 0e6a 8e3d
00000240: 3bf9 bf3d dc5a 573b 2846 7e3d 9a4e c33d
00000250: 0948 f7bc 38ef 35bd 049b e3bd bd37 5dbd
00000260: 2cca f13c d44d 21bd 4a8b c9bd d3fa c63b
00000270: 4122 643d 762a 1abd 7308 95bd d045 093e
00000280: 4c6c 903d 91c4 1ebd 60db ec3c fc64 e43d
00000290: c09e dc3d 4ed9 65bd da67 983c 75fc ce3d
000002a0: 2225 cd3d 77d0 473d a1c5 a63b 3648 5c3c
000002b0: a7e2 f4bd 9647 a4bd 9e07 a53d 523a 3bbd
000002c0: 13b2 61bd 5501 3f3d a3f1 d0bd 8c25 dc3b
000002d0: 325f f13d 2d5e a53d 2ed4 7b3d f3b4 043e
000002e0: a6f3 c03d 332a d5bc a625 903d 77f9 64bd
000002f0: d9ff 5ebb 4c22 dfbd 8655 e23c ad53 753d
00000300: ee7f bc3d 2683 533d dc6d 0cbd 09da 093d
00000310: 347d 39bd c53b 293d 5085 ebbd b658 5d3d
00000320: fb56 f8bd 42d1 a03d 66e1 0e3c 32fb 5bbd
00000330: a358 853d 94d7 95bd 43aa 71bd 59a5 553d
00000340: d8eb aabc a179 efbd 6dfd 88bd 7868 e73d
00000350: 8155 14bc 026f c53c 72fe ccbc 94a8 ad3d
00000360: e4c2 f53c 9e9a f63d 164e 15bd 0d57 4bbd
00000370: d72e c7bd fdf2 223d f1b0 523d 13d5 933d
00000380: 557e a53c e59e aebd 4b40 d6bd 6c04 c5bb
00000390: d532 fdbc 910e 59bd 9c9d 20bb d1e2 ba3d
000003a0: 9d45 08bd 84f2 8bbd 5d98 063c a189 823c
000003b0: aad3 edbd a8c8 00be ff22 8bbd 8d97 7abd
000003c0: 9425 bebd f438 23bd 7e79 8b3d a0e9 65bd
000003d0: 532c a8bd d052 813c e34a c9bc 6328 de3b
000003e0: 9076 f83d cf05 d8bc 16d0 7a3d 80bb c73c
000003f0: def5 09bd e9e5 863d 83e1 5cbd cc90 b6bd
0.046123322 0.066469096 0.08335208 0.031590372 0.10482373 0.08665062 0.03893836 0.03275445
0.015656563 0.0016126796 0.011948042 -0.09951935 0.10885922 -0.053192966 0.09994954 -0.010293644
0.120673746 0.01775697 0.08022731 -0.042314053 -0.0367507 0.10963092 -0.01345768 0.0017124201
-0.110859506 0.10165471 0.020369867 0.11066045 -0.10026558 -0.095725164 0.063536264 0.021488752
-0.054471787 -0.023238555 0.0045571853 -0.022705268 0.04743766 -0.028531529 0.022171775 0.11479649
0.10919034 -0.06728023 -0.07199976 0.048978545 -0.099820755 -0.05239274 -0.06748194 -0.13112077
0.093285084 0.124138944 0.04894457 0.01973632 -0.086419865 -0.015769623 -0.09387449 0.0724664
-0.016355667 -0.0036933238 -0.034705307 -0.019445984 -0.027330238 0.04063356 -0.005933113 0.0006492645
0.032299954 -0.029393446 -0.08720688 -0.058866423 0.12047345 -0.05621421 0.10591363 0.10573621
-0.10252833 -0.06988264 0.12243224 -0.09259288 0.13488983 -0.017884726 -0.0075960667 0.12254048
0.010685888 0.09238735 0.13204737 -0.013326963 -0.091311984 -0.09417343 0.03306266 -0.075442374
-0.041324757 0.002833359 0.112665765 -0.011600509 0.010758128 -0.059668582 0.058785006 -0.03330958
-0.029182905 -0.027874677 0.0749 0.11036845 -0.049623966 0.111239955 -0.07857953 1.0173574e-05
0.06913211 0.081499346 -0.037921254 -0.012623716 -0.07239463 0.07478679 -0.09838209 0.017026125
0.0135479495 -0.11355245 0.048963677 0.058834936 0.024202794 -0.10371874 -0.05185053 -0.012565881
0.02367399 0.00011109492 0.06090901 -0.023508959 -0.008520793 -0.12319485 0.007287392 -0.032208953
0.041449 -0.018749526 0.025032917 -0.018770667 -0.031523332 0.11205545 -0.058438268 -0.122145414
0.054780085 -0.10625803 0.116769016 0.06043068 -0.04998681 -0.07687571 0.06284564 0.06953822
0.09373709 0.0032860553 0.062078625 0.095364764 -0.030185716 -0.04441759 -0.11113551 -0.054008234
0.029515348 -0.039380863 -0.098410204 0.006072381 0.05569673 -0.03763815 -0.07277002 0.13405538
0.07051906 -0.03876168 0.0289132 0.11152074 0.10772467 -0.05611544 0.018604208 0.10106746
0.10016848 0.048782792 0.005089477 0.013444951 -0.11957293 -0.080214664 0.080580935 -0.045709915
-0.055101465 0.04663213 -0.102023385 0.006718343 0.11785735 0.08074603 0.061481647 0.12959652
0.09421472 -0.026021099 0.07038431 -0.05590197 -0.0034027009 -0.108952135 0.027628671 0.059894253
0.09204088 0.051638745 -0.034284458 0.0336552 -0.04528542 0.041316766 -0.11500037 0.05403968
-0.12125965 0.07852413 0.008720731 -0.053706355 0.06511047 -0.07316509 -0.059000265 0.05215964
-0.020864412 -0.11693121 -0.06688962 0.11299223 -0.009053589 0.024100784 -0.025023673 0.08479419
0.030000158 0.1204121 -0.03645142 -0.049643565 -0.09725731 0.039782513 0.051438276 0.07218375
0.020201841 -0.085264005 -0.10461482 -0.00601249 -0.030908028 -0.052992407 -0.0024508005 0.09125293
-0.033269513 -0.068333656 0.008215037 0.015934767 -0.11612637 -0.12576544 -0.06793784 -0.061179686
-0.09284511 -0.039849237 0.06810282 -0.056131005 -0.08211579 0.015786558 -0.024571842 0.006779717
0.12131989 -0.026369957 0.061233602 0.0243814 -0.033681743 0.06586821 -0.053926002 -0.089143366

lstm.bias_ih_l1 f4 [256]
00000000: 2d1d 00bd 6c17 92b9 0bdd 06be 2890 c3bd
00000010: fc46 edbd 8bf6 de3d c283 993a 4c21 debd
00000020: 8c6a a83c b054 0f3d c4a2 3ebc 528d ae3d
00000030: cbd5 c33d bee4 abbd 2f91 cfbd 4dd9 78bc
00000040: 8e2f 59bb 1335 1dbd 4848 c9bd 7f11 c23d
00000050: 9d72 cc3d 0e36 6a3c b202 fb3d 31eb 0c3d
00000060: b4b6 ff3d 5aa9 efbc 1de0 f83a 5f48 0d3d
00000070: bda5 d23d b05a 01be 7b80 b43d 2771 48bd
00000080: dfc4 16bc cd14 ac3d 5117 97bd eacb 93bd
00000090: 9c4c aa3d a7f3 c4bd 859b cf3d a0c8 6ebd
000000a0: 5567 e5bd 26f5 9bbd b0f9 f03d 9d93 713d
000000b0: b0ba 8b3c 20f1 d63d 6878 37bd 9ac0 103e
000000c0: 5689 993d c11a c93d 938d cb3d 5442 57bc
000000d0: 1324 803d 0335 303d 1032 73bd 2312 48bc
000000e0: 946f 9fbd b6a6 92bd b5ab 51bd a4d2 16be
000000f0: ceea c8bd 784c 45bd 4d63 e0bc 4fbe 403d
00000100: f821 33bd 48c1 85bd fda6 b0bd 3cf6 8bbd
00000110: 815a 5c3d 1fb4 bfbd 4dc7 2abd c2e9 d3bb
00000120: ca61 1fbd 822f 813d fafd e9bd c0f8 f3bd
00000130: b0d8 063e ffba 27bd 3d61 e43c 79b4 5a3d
00000140: b0af 70bd 250a c6bd f992 ad3d a50c 0abc
00000150: 011e 803d ea65 00be 47ca 103d d654 cebc
00000160: 78f2 df3c 8a93 ee3c 5caa d73d 7f0d f23d
00000170: 34cc a9bc 9911 be3d 4ff9 60bd 939f a73d
00000180: a060 bcbd 14be 63bc aaf9 8a3b 219b f23c
00000190: 55a9 fdb9 fd38 eebd ea60 193d adae f1bd
000001a0: 454f 813d 9455 dc3d 00c1 bcbd e173 0c3d
000001b0: ac0a 90bd 5232 f43d 6dc3 913d 3c4f 2cbd
000001c0: dc33 cabc da7a cabd 74c3 b73d 01b6 c63d
000001d0: ee7a a73d d49a c4bd 36e8 71bd e6d0 ebbd
000001e0: b4c9 aebd 1274 8c3d 04f3 38bb 5584 46bc
000001f0: d963 ebbc 5865 acbd 4f4f c33d aceb cebd
00000200: 1b50 d1bd 1730 163d 84e4 9ebd 1527 173c
00000210: 1eae edbc 4f3b ba3d 03e8 953d ed71 613d
00000220: a018 b83d 335d 0ebd 86a5 af3d 461e 223c
00000230: c9ef f0bc 38cf 20bc dbd3 443d 7b63 6d3d
00000240: a249 543c 0cae c1bc 64a0 5b3d cf71 413a
00000250: b9e2 04bd 2304 913d 980f 323c 6312 c63d
00000260: 5a83 02bb fca8 a6bd add0 d6bd b199 6b3d
00000270: ce6a 6abc b947 a93d 5577 393d d2de 48bd
00000280: d0d2 97bd d25c c43d 19d3 733a ed0e c2bd
00000290: f2f8 b3bb d2d0 98bd e9c5 753c fea1 11bd
000002a0: 5892 79bc 3366 783d 0436 ccbd 72fb 813c
000002b0: e02b aa3b 4ea5 913d 1916 d73d 2cb5 f1bc
000002c0: 5bf8 e7bd 278f 1f3d 06c4 b83d 92dd 05be
000002d0: 8cc6 773d 9a4e 0cbe aea3 5bbd acf1 edbb
000002e0: 3835 b3bd 830f c8bd f96b d83d 38d9 0e3d
000002f0: c605 6e3b ac94 b2bd e782 623d 4011 a93d
00000300: ddc7 b2bd 588a b9bd 58da c33d 4dd9 69bd
00000310: 4a5e e6bd c4d9 88bc b44a 06bd a005 cfbd
00000320: ad22 763d 1d58 803d 6515 84bd 85a5 aabc
00000330: c824 883d bbfb ee3d 0c12 b8bc c9c6 13bc
00000340: 0431 9ebc 547a edbd 958f 913d 5b7f 223d
00000350: a82b 2c3b 29bc a43d cce9 d4bd a52f 9dbc
00000360: 788b d93d acc5 05bd ea81 4d3d aab2 5dbd
00000370: aedd 19bd 5118 fd3c 0cc0 07be cf28 ce3d
00000380: 8e1c 443c ded2 c3bd 4740 1c3d 16e2 02bd
00000390: 755b c13c dbf8 7abd 1ec1 bf3c 7712 c23d
000003a0: a09d 9e3d 2936 b73d 3393 85bd 4dd6 973c
000003b0: eef5 5d3d 1fc9 a9bd ed3e 003d 183e 963c
000003c0: 969e 2e39 3604 ccbd 574c 223c 3651 943d
000003d0: a771 b13c 4674 6dbd e627 9e3d a42e c6bd
000003e0: 73e8 be3c 0a73 e0bd f55f 86bd 964c a5bc
000003f0: 9650 4abc b8a3 943d 4488 2f3d a8ab 7bbd
-0.031277824 -0.0002786474 -0.13170259 -0.0954898 -0.11585805 0.10886868 0.001171224 -0.108461946
0.020558618 0.034992874 -0.011635486 0.085230485 0.09562262 -0.083932385 -0.101351134 -0.015188527
-0.0033139917 -0.038380694 -0.0982824 0.09475993 0.09982798 0.014295114 0.122563735 0.034403984
0.1248602 -0.029255558 0.0018987689 0.034492847 0.10285518 -0.12632251 0.08813568 -0.048936035
-0.009202211 0.08402405 -0.07377494 -0.07216628 0.08315393 -0.096167855 0.10137085 -0.0582968
-0.1120135 -0.07615118 0.11766374 0.058978666 0.017056793 0.1049521 -0.044792563 0.14135972
0.07496898 0.09819556 0.099391125 -0.013138372 0.062568806 0.043019306 -0.059373915 -0.012211355
-0.07784954 -0.07160704 -0.051189143 -0.1472879 -0.098104104 -0.04816863 -0.0273911 0.047056492
-0.043733567 -0.06531006 -0.086256005 -0.06834075 0.05379725 -0.09360527 -0.041693974 -0.006467075
-0.03891162 0.063078895 -0.11425395 -0.1191268 0.13168597 -0.040949818 0.027878398 0.05339477
-0.0587613 -0.09669904 0.084752984 -0.008425866 0.06255723 -0.12538877 0.035349157 -0.025186937
0.027337298 0.029123086 0.1053054 0.118189804 -0.020727254 0.092807 -0.05492526 0.08184733
-0.09198117 -0.013900299 0.004241188 0.029614987 -0.00048382083 -0.116319634 0.03744594 -0.11800895
0.063139476 0.1075851 -0.09216499 0.0342902 -0.070332855 0.1192366 0.07117353 -0.04206775
-0.024682932 -0.09886713 0.089728266 0.09702683 0.08177744 -0.095998436 -0.059059344 -0.115144536
-0.085345656 0.06858076 -0.002822102 -0.012116511 -0.028734135 -0.08417767 0.09536611 -0.101035446
-0.10220357 0.036666956 -0.0775843 0.0092256265 -0.02901369 0.090933435 0.07319643 0.05504029
0.08989072 -0.03475685 0.08576493 0.009894913 -0.029411213 -0.00981503 0.048053604 0.0579562
0.012957009 -0.023642562 0.053619757 0.00073793245 -0.032442782 0.07080867 0.010867976 0.09671476
-0.0019914717 -0.081377 -0.104890205 0.05751962 -0.014307691 0.08265633 0.04527982 -0.049040623
-0.07413256 0.095880166 0.00093011704 -0.09475503 -0.005492323 -0.07461704 0.015000799 -0.03555488
-0.015232645 0.06064434 -0.0997124 0.015866969 0.0051932186 0.071116075 0.10502262 -0.029505335
-0.11326667 0.03895488 0.090217635 -0.13072804 0.060492083 -0.13701859 -0.053622894 -0.0072614755
-0.08750385 -0.097685836 0.10567469 0.034875125 0.003631936 -0.08719763 0.05530062 0.08255243
-0.08729527 -0.0905959 0.0956313 -0.057092 -0.11248453 -0.016705401 -0.032786086 -0.10108495
0.060091663 0.06266806 -0.06449393 -0.020830879 0.066476405 0.116691075 -0.022469543 -0.009019562
-0.019310482 -0.11595598 0.07107464 0.039672237 0.0026271138 0.08043701 -0.10396156 -0.019187758
0.10622305 -0.032659218 0.050172724 -0.054125465 -0.037564926 0.030895384 -0.13256854 0.10066377
0.011969699 -0.09561704 0.038147237 -0.031953894 0.02360318 -0.061272483 0.023407515 0.09476178
0.07744908 0.08945877 -0.06522217 0.018534804 0.054189615 -0.08290314 0.03131001 0.018340155
0.00016653011 -0.09961741 0.009905896 0.07242052 0.021660639 -0.057972215 0.07722454 -0.09676865
0.0233042 -0.10959442 -0.06561271 -0.02017812 -0.012348315 0.072577894 0.042854562 -0.061443
