checkpoints/LSTM_REF-20250616_122605-run1bs512-ep20-pat5-171.26905829596413-traindur7-testdur7-hidden_size128epoch=13-val_loss=0.05.ckpt (torch, 696121 bytes, 21 tensors)

lstm.weight_ih_l0 f4 [400, 15]
0.1056089 0.10949478 0.0041969735 0.119448766 0.0071410867 0.049024615 -0.019420354 0.087543964
0.11731293 -0.04303357 0.11375513 0.04857077 0.09961388 0.042859845 0.07354331 0.014469851
0.099816814 0.027390758 -0.02492441 0.053906925 -0.0220819 0.016734617 -0.016907457 0.09470384
-0.053574175 -0.020985208 -0.002213688 -0.035102926 0.03565622 -0.07298838 0.12172306 -0.05336252
0.102739714 0.047041338 -0.0011146258 0.0939567 0.047139417 0.11317808 0.042394012 0.00074504246
0.053089615 0.0061002714 0.06768044 0.121937305 0.08230451 -0.01910934 0.07979663 0.038854547
0.073823765 -0.036391888 -0.074654326 -0.01400154 -0.05235783 0.10654074 0.054306816 0.06157194
0.057247456 0.017547967 0.10341444 -0.051786825 0.028531013 -0.05451081 0.04912373 -0.014204424
0.052745916 0.0005315019 0.10511482 -0.037876498 -0.037670434 -0.03674963 0.09653184 0.055811338
0.10383488 -0.060524505 -0.09310427 -0.061272822 -0.052747577 0.055455454 0.050031714 0.100045435
-0.035078578 -0.051142175 0.06967208 -0.023594666 0.0792491 -0.016016236 0.07562046 -0.07417149
-0.032739855 0.037437417 0.050340515 0.0016111559 0.08712434 0.09638003 -0.043342795 -0.024093479
0.12078267 -0.004460573 -0.0063289553 -0.06645487 -0.031346843 0.05495833 0.01241589 -0.042950887
0.028002687 -0.038825598 -0.05736819 -0.025350574 -0.05924826 -0.034233674 0.12919202 0.048392374
0.06005157 -0.06385864 -0.035655137 -0.0072689634 0.045537602 -0.061346203 -0.013458901 -0.03349092
0.026783153 -0.011704931 0.019117579 -0.042270537 -0.04215406 -0.032019675 -0.007707931 -0.052596122
0.11027829 0.0077825384 0.110419385 0.05835093 -0.060097665 0.0960106 -0.003314079 -0.021718174
-0.06890301 -0.08610652 0.043171834 -0.0053003705 0.05503214 -0.06545155 0.0903728 -0.056973442
0.00046137 0.03069816 0.06932043 0.08986512 0.10814021 -0.070811875 0.036190197 -0.036278374
0.014359272 -0.066929854 0.10184767 -0.06400419 0.06423833 0.044843383 0.04309628 -0.042182967
0.11340023 0.03335348 0.037619445 -0.07693955 0.06348433 0.0065289275 -0.031677473 0.101199344
0.043250658 -0.034019504 -0.027942108 0.016594287 0.07847686 -0.004443334 -0.033944756 -0.027474174
-0.0519325 0.045251895 0.09946746 -0.08181744 0.051129453 0.082012385 0.039128937 -0.008443078
0.079971395 0.08054452 0.06526846 0.010419042 0.001285056 0.039794203 0.008169691 -0.0016350755
0.09025212 0.11381352 0.016646942 0.00804128 0.028550185 0.020737052 0.053276543 0.058469277
-0.060366612 -0.0064055403 0.114678904 0.069349565 0.026640264 -0.039202996 -0.02984873 -0.06814876
-0.0016585897 0.055073034 0.0920093 0.07203123 -0.06212128 -0.03338571 0.012516044 0.12449859
0.042858362 0.0019886694 0.06966272 -0.008746096 -0.04025303 0.10215516 -0.021154942 0.008826099
-0.07527413 0.0955293 0.08304226 0.06658561 -0.045448255 -0.06983358 -0.054394834 0.10361612
0.074972466 0.11315412 0.0814191 0.05235838 0.02786281 -0.047559205 -0.05791535 -0.06674714
0.0676064 -0.023650369 0.0042361757 -0.031929664 0.008423713 -0.043783896 -0.038640536 0.059760064
-0.0031128288 0.08921758 -0.008456932 -0.046110325 0.006326356 -0.021543441 -0.0068504764 -0.08549434
00000000: 7b49 d83d cd3e e03d c486 893b 8ea1 f43d
00000010: c7ff e93b 09ce 483d 6f17 9fbc 404a b33d
00000020: c341 f03d f843 30bd 73f8 e83d 25f2 463d
00000030: 5d02 cc3d ce8d 2f3d e09d 963d f412 6d3c
00000040: c26c cc3d 9562 e03c 472e ccbc 82cd 5c3d
00000050: 1ae5 b4bc 0917 893c 8281 8abc 16f4 c13d
00000060: 9870 5bbd 2ce9 abbc 8613 11bb 16c8 0fbd
00000070: 420c 123d ef7a 95bd f149 f93d a892 5abd
00000080: 3369 d23d 6bae 403d a318 92ba 5f6c c03d
00000090: 4315 413d e9c9 e73d 58a5 2d3d f44e 433a
000000a0: 7f74 593d c9e4 c73b 0b9c 8a3d 44ba f93d
000000b0: 448f a83d 318b 9cbc 6a6c a33d f225 1f3d
000000c0: ea30 973d a90f 15bd 5ee4 98bd b766 65bc
000000d0: 2a75 56bd 0832 da3d d370 5e3d dc32 7c3d
000000e0: 4f7c 6a3d c1c0 8f3c f3ca d33d 6c1e 54bd
000000f0: dfb9 e93c ba46 5fbd f735 493d acb9 68bc
00000100: 1a0c 583d 7d54 0b3a 7046 d73d 6324 1bbd
00000110: 504c 1abd c886 16bd 7cb2 c53d 6e9a 643d
00000120: 62a7 d43d 8be8 77bd 74ad bebd 36f9 7abd
00000130: d80d 58bd 4225 633d 0eee 4c3d 9fe4 cc3d
00000140: 8eae 0fbd 757a 51bd 3cb0 8e3d 9a49 c1bc
00000150: 5a4d a23d 7b34 83bc e6de 9a3d 39e7 97bd
00000160: 3a1a 06bd fa57 193d db31 4e3d 6c2d d33a
00000170: 3f6e b23d e562 c53d 3788 31bd b05f c5bc
00000180: e85c f73d 002a 92bb 2063 cfbb 7e19 88bd
00000190: 8c65 00bd fc1b 613d 046c 4b3c 45ed 2fbd
000001a0: e465 e53c 9707 1fbd e8fa 6abd 02ac cfbc
000001b0: 4eae 72bd 9c38 0cbd ea4a 043e 1537 463d
000001c0: a3f8 753d 52c8 82bd 1f0b 12bd 7c30 eebb
000001d0: a385 3a3d 2846 7bbd b982 5cbc c62d 09bd
000001e0: 5868 db3c 0ac6 3fbc 789c 9c3c df23 2dbd
000001f0: bca9 2cbd 1027 03bd d092 fcbb 086f 57bd
00000200: 96d9 e13d aa04 ff3b 8f23 e23d 6301 6f3d
00000210: f828 76bd 35a1 c43d 0531 59bb 50ea b1bc
00000220: 051d 8dbd 9d58 b0bd f3d4 303d bbae adbb
00000230: 6269 613d 760b 86bd 6015 b93d fc5c 69bd
00000240: 08e4 f139 b57a fb3c dff7 8d3d 340b b83d
00000250: 9d78 dd3d d105 91bd 2c3c 143d a298 14bd
00000260: 2743 6b3c 8512 89bd 8395 d03d a114 83bd
00000270: 638f 833d b2ad 373d ba85 303d 0cc8 2cbd
00000280: 613e e83d a99d 083d d916 1a3d 7c92 9dbd
00000290: 1304 823d 9df0 d53b 3dc0 01bd 9a41 cf3d
000002a0: 9a27 313d 0958 0bbd d9e6 e4bc bef0 873c
000002b0: 7ab8 a03d 6399 91bb a809 0bbd 8511 e1bc
000002c0: 2cb7 54bd 0d5a 393d 98b5 cb3d e78f a7bd
000002d0: 1e6d 513d 1cf6 a73d aa45 203d d654 0abc
000002e0: 0bc8 a33d 86f4 a43d 78ab 853d a1b4 2a3c
000002f0: 536f a83a 3fff 223d 2bda 053c 0850 d6ba
00000300: 1ad6 b83d 1017 e93d 2b5f 883c 93bf 033c
00000310: 14e2 e93c c0e0 a93c 8138 5a3d 7b7d 6f3d
00000320: fb42 77bd 91e5 d1bb c6dc ea3d 2507 8e3d
00000330: af3c da3c 5293 20bd 5385 f4bc 9491 8bbd
00000340: 0965 d9ba 4394 613d 5f6f bc3d 1c85 933d
00000350: e272 7ebd 74bf 08bd 1810 4d3c 1ef9 fe3d
00000360: 408c 2f3d 5654 023b 54ab 8e3d c94b 0fbc
00000370: 5ce0 24bd b936 d13d 214d adbc 589b 103c
00000380: 5329 9abd dea4 c33d 0f12 aa3d 095e 883d
00000390: f327 3abd e804 8fbd 1ecd 5ebd b034 d43d
000003a0: 2a8b 993d 59bd e73d 0fbf a63d be75 563d
000003b0: 8c40 e43c 71cd 42bd a538 6dbd b9b2 88bd
000003c0: 3975 8a3d 6bbe c1bc 9ecf 8a3b aec8 02bd
000003d0: 9d03 0a3c be56 33bd 8a45 1ebd f8c6 743d
000003e0: 9a00 4cbb b5b7 b63d f28e 0abc 2ede 3cbd
000003f0: 524d cf3b df7b b0bc f679 e0bb a817 afbd

lstm.weight_hh_l0 f4 [400, 100]
-0.027302211 -0.045584306 0.057613578 -0.03832549 -0.108371176 -0.11260206 0.063231915 -0.04367081
-0.057079367 0.022984887 -0.06449917 -0.0027324313 0.061836235 0.0832176 -0.04470057 0.0053574513
0.04081556 0.0059740148 -0.014173894 0.03847694 -0.028355243 -0.11674048 -0.0039429227 -0.06386272
-0.024648998 -0.069868974 0.0039287033 -0.04804726 -0.05868836 -0.058493122 0.037364624 -0.08656997
0.04589652 0.08717624 -0.01883267 -0.064495504 -0.031276178 -0.015175766 0.058982957 -0.10082149
-0.037376862 0.008385414 0.09205818 -0.058034092 -0.038938206 -0.04217831 -0.10982907 0.023080427
-0.033577513 -0.014577517 0.07696888 0.060767613 0.024237258 -0.05372566 -0.054689456 0.118625574
0.11086697 0.020841768 0.10689839 0.08058985 0.12197717 0.07604591 -0.050900504 -0.062094606
-0.08495609 0.10739274 0.12388116 -0.026754994 -0.106920496 -0.016189262 0.07829249 0.12297268
-0.012541208 -0.09702363 0.11715311 0.05496922 -0.07371129 -0.0218488 0.027282128 -0.050196674
0.051711127 0.012247249 0.029156081 -0.019749107 -0.13157563 -0.0016934301 -0.0021316565 -0.08852174
0.11105086 -0.012069336 -0.058089536 -0.06139659 -0.023392228 0.00026951171 0.010280735 -0.12344903
0.08794892 0.060013082 -0.00019000459 -0.13325785 0.04548767 -0.07481728 -0.0025978012 0.02845751
0.013065432 -0.041852117 -0.014618058 0.0064503085 -0.10709169 -0.016632898 0.07694437 0.09886779
-0.02697834 0.014790674 0.07249092 -0.05571391 0.0028896779 0.05310835 0.046252716 -0.035330154
-0.111457385 -0.09749801 -0.018909434 -0.04290352 -0.062502846 -0.01644876 0.06352712 -0.013494294
-0.06363038 0.00023938049 0.025036544 -0.08093361 0.10926504 -0.0325422 -0.1242775 0.043208517
-0.08767648 -0.007293311 -0.053820014 -0.05361422 0.11343838 -0.072861776 -0.0364017 -0.05491255
-0.111766145 -0.0150026465 -0.054199923 0.10953914 -0.13309088 -0.029706338 0.078713104 0.046348
-0.061104406 0.06298192 -0.096701995 0.12727039 0.06015459 0.015583592 0.102246344 0.044358227
0.04697344 -0.018968623 -0.057547692 0.07528969 0.041908596 0.0746187 0.016785711 -0.122973725
-0.035273176 0.05910592 -0.045124732 0.11748044 -0.03624954 -0.006245919 0.11903285 0.009150418
-0.08672601 0.07130233 0.026400626 0.0779631 -0.081050046 0.043222994 -0.03880435 0.02066134
-0.101118065 0.02337629 0.12999205 -0.1281682 -0.013351103 -0.0748079 -0.10596944 0.12396125
-0.043474454 -0.019643167 -0.11597867 -0.03249269 -0.04146868 -0.10046621 0.067229345 0.014877024
0.077284895 0.040253762 -0.018854555 0.052701455 -0.112413265 -0.0083764605 -0.113108516 -0.035888728
-0.08908483 -0.093483865 -0.0669504 -0.018900827 -0.088820554 -0.020026892 -0.0016837417 -0.05481022
0.115532994 -0.0020924367 -0.06290266 -0.13656747 -0.0856903 0.0037786998 0.05623077 0.021016208
0.023231009 -0.019250715 0.015857574 -0.044804998 -0.061861794 -0.03430559 0.06510116 0.026079629
-0.03962375 0.007809444 -0.031421967 0.042934448 -0.018554617 -0.0382905 0.113306604 -0.11078313
0.0011620842 0.0633103 0.011134484 -0.08403258 -0.13673654 0.032778844 -0.03952311 0.0847781
-0.020256657 -0.11006756 0.0008761548 0.10694786 -0.08477061 -0.08128731 0.03776452 -0.008655284
00000000: e3a8 dfbc 9cb6 3abd 37fc 6b3d 30fb 1cbd
00000010: b5f1 ddbd e99b e6bd bc7f 813d 2ae0 32bd
00000020: 0ecc 69bd cd4a bc3c 2418 84bd 9712 33bb
00000030: fe47 7d3d fd6d aa3d f217 37bd 8f8d af3b
00000040: 372e 273d abc1 c33b 9f39 68bc ff99 1d3d
00000050: 4149 e8bc a215 efbd a233 81bb 75ca 82bd
00000060: b2ec c9bc 7717 8fbd 5abc 803b 34cd 44bd
00000070: 3563 70bd 7c96 6fbd a60b 193d 994b b1bd
00000080: fdfd 3b3d 7589 b23d f946 9abc 3816 84bd
00000090: 731b 00bd c7a3 78bc 1d98 713d 7f7b cebd
000000a0: 7b18 19bd fa62 093c 0089 bc3d 28b5 6dbd
000000b0: ab7d 1fbd 2ac3 2cbd 10ee e0bd 2a13 bd3c
000000c0: 9388 09bd 8ad6 6ebc dca1 9d3d 76e7 783d
000000d0: 378d c63c 700f 5cbd 0d02 60bd f7f1 f23d
000000e0: 390e e33d 5bbc aa3c 8bed da3d 4b0c a53d
000000f0: 2bcf f93d f5bd 9b3d 0c7d 50bd ea56 7ebd
00000100: 75fd adbd baf0 db3d 68b5 fd3d 4a2d dbbc
00000110: 22f9 dabd 589f 84bc d057 a03d 1ad9 fb3d
00000120: a479 4dbc 53b4 c6bd f8ed ef3d 6827 613d
00000130: f2f5 96bd 41fc b2bc c57e df3c 079b 4dbd
00000140: 0ccf 533d afa8 483c bcd8 ee3c e1c8 a1bc
00000150: c3bb 06be 16f6 ddba 43b3 0bbb e34a b5bd
00000160: a26e e33d 77be 45bc 4bef 6dbd fe7a 7bbd
00000170: 0fa1 bfbc 404d 8d39 8770 283c d8d2 fcbd
00000180: 901e b43d 47d0 753d f83b 47b9 bf74 08be
00000190: 4751 3a3d cd39 99bd df3f 2abb b91f e93c
000001a0: 6510 563c 206d 2bbd 9480 6fbc 1c5d d33b
000001b0: e352 dbbd b741 88bc 0395 9d3d 327b ca3d
000001c0: ae01 ddbc 9554 723c 1f76 943d 4534 64bd
000001d0: c060 3d3b 2488 593d 7d73 3d3d 5ab6 10bd
000001e0: c543 e4bd 09ad c7bd f5e7 9abc 9abb 2fbd
000001f0: 7e01 80bd 8dbf 86bc 821a 823d 2c17 5dbc
00000200: a550 82bd 3602 7b39 7019 cd3c 85c0 a5bd
00000210: 59c6 df3d f84a 05bd 3485 febd 6afb 303d
00000220: ba8f b3bd bafc eebb 6072 5cbd 969a 5bbd
00000230: 6252 e83d 8e38 95bd f319 15bd fbeb 60bd
00000240: a6e5 e4bd a9cd 75bc bd00 5ebd 0e56 e03d
00000250: fa48 08be b55a f3bc 5634 a13d 67d7 3d3d
00000260: 9d48 7abd aafc 803d b20b c6bd 2b53 023e
00000270: a964 763d 5252 7f3c 8866 d13d f9b0 353d
00000280: 3967 403d 1664 9bbc 21b7 6bbd 7b31 9a3d
00000290: 59a8 2b3d b0d1 983d 3082 893c a6d9 fbbd
000002a0: 9b7a 10bd 0d19 723d b6d4 38bd 9699 f03d
000002b0: 667a 14bd 91aa ccbb 7fc7 f33d a3eb 153c
000002c0: 689d b1bd f506 923d 2046 d83c 1eab 9f3d
000002d0: 91fd a5bd 980a 313d 4ff1 1ebd f841 a93c
000002e0: fd16 cfbd a27f bf3c a31c 053e 863e 03be
000002f0: 96be 5abc e234 99bd 8106 d9bd 65df fd3d
00000300: 4512 32bd b5ea a0bc 3a86 edbd 0e17 05bd
00000310: 10db 29bd 3ac1 cdbd 8aaf 893d c3be 733c
00000320: 8b47 9e3d 21e1 243d de74 9abc 7bdd 573d
00000330: ed38 e6bd 6c3d 09bc 70a5 e7bd 0f00 13bd
00000340: 1b72 b6bd 7874 bfbd 4b1d 89bd e8d5 9abc
00000350: 8de7 b5bd 700f a4bc ffb0 dcba ae80 60bd
00000360: 909c ec3d 4321 09bb 1cd3 80bd 58d8 0bbe
00000370: 657e afbd 10a4 773b 3c52 663d 2f2a ac3c
00000380: f54e be3c adb3 9dbc bee7 813c 7285 37bd
00000390: cb62 7dbd 0584 0cbd c253 853d f2a4 d53c
000003a0: 834c 22bd 5de6 ff3b 52b4 00bd 08dc 2f3d
000003b0: daff 97bc 80d6 1cbd 4b0d e83d 44e2 e2bd
000003c0: 1351 983a d5a8 813d 696d 363c 4619 acbd
000003d0: aa04 0cbe 1c43 063d fce2 21bd 24a0 ad3d
000003e0: 4af1 a5bc 1a6b e1bd c1ad 653a 7b07 db3d
000003f0: 379c adbd f679 a6bd f8ae 1a3d e4ce 0dbc

lstm.bias_ih_l0 f4 [400]
0.11964691 -0.06115898 -0.037086144 -0.00079889654 -0.07600674 -0.068449445 -0.050873168 0.048702914
-0.040468782 0.033175655 -0.041931573 0.06410686 0.11923766 -0.03884867 -0.028048454 -0.04477197
0.098095335 0.029381039 -0.008037371 -0.043196578 0.075082146 0.05313983 0.09323898 -0.047676187
0.07697496 0.041889057 0.010600839 -0.09201715 0.088539675 0.09989354 0.024127554 0.089387156
0.09914213 0.064486705 -0.06760978 -0.040385485 0.046793766 -0.04742367 0.055515498 -0.031072868
0.046518136 -0.06075413 -0.067586824 0.104643896 0.10328025 0.0987818 0.0442124 0.016501352
-0.03378469 -0.045819987 0.019354178 0.007586374 0.07097501 -0.021353232 0.03818353 -0.0016468817
0.04650667 0.037126325 0.0070935334 0.01973803 -0.03383862 -0.025375584 0.037745655 0.03957125
0.029943109 -0.029845024 -0.060438912 0.12174704 -0.02583769 0.01537501 -0.06921865 0.109805465
0.06465612 0.033477586 -0.07411606 -0.038904052 0.12195084 0.03145119 0.10168259 -0.02701103
-0.030185467 -0.043735124 0.07903528 0.107410535 0.0039264057 0.062571645 0.03395354 0.07547481
-0.029820515 -0.02627947 0.06371382 -0.056784872 0.034672618 0.11052144 -0.0417824 -0.06811759
0.0394941 0.09381095 -0.071388066 0.06597658 0.013476206 -0.004064548 0.08588671 0.054616608
0.1032404 0.07909779 -0.011251601 0.10247655 0.10058362 -0.02794998 0.05637254 0.02840254
0.090593845 0.027716745 -0.033535346 0.07421959 0.03546154 -0.078925304 0.005728859 0.10556281
0.046381492 -0.062058464 -0.031962413 -0.03864791 0.04930932 -0.09389019 -0.0016345124 -0.009724359
0.046377663 0.00450047 -0.051415082 0.0136969425 0.07746555 -0.028549736 0.092807926 0.03732502
0.028920777 -0.038838908 -0.011157264 0.08968125 0.03203462 0.018157791 -0.039149456 0.11962656
-0.00935722 -0.01373054 0.07257424 0.011191436 0.08740747 0.104725726 0.08307051 -0.04752698
-0.00671472 0.0796672 0.064581424 0.06556723 0.069566965 -0.007788164 0.02485138 -0.01235012
0.050667536 0.09410381 -0.08174951 -0.00035313235 0.12484113 -0.05473415 0.0171098 -0.027914776
0.0714839 0.11986803 -0.055647623 0.10484513 0.1026376 0.079568215 0.014569884 -0.010832701
0.091623105 -0.01772307 0.011217108 -0.07581201 -0.042218305 -0.04458212 0.08993604 0.11863567
0.104477696 -0.019442929 0.073007084 0.00839237 0.013829066 -0.06293504 -0.08107303 0.11545697
0.12009853 0.091493286 -0.0051199356 0.027341964 -0.0068326583 0.101131655 0.07060228 -0.03658
0.020640867 -0.02335587 -0.104301445 -0.0070495005 -0.0214708 -0.038465787 -0.08776059 -0.021695893
-0.060113832 0.006579599 0.06922767 -0.00567839 -0.11596479 0.0468711 0.04987928 0.0032701553
0.07444536 -0.0756219 0.10355559 -0.07710278 -0.05158714 -0.09877127 -0.02267503 -0.04373097
-0.04412672 0.035690527 0.014362733 -0.009638003 0.049296867 -0.03274337 0.0047916407 -0.111475624
-0.0064840736 0.06308591 -0.11447663 0.061681036 0.0617572 -0.013477659 0.081103094 0.01762756
-0.05159744 0.00870335 -0.070543125 -0.11794014 0.06853262 -0.081422254 -0.034571797 0.017527223
-0.10213503 -0.08417212 0.06323817 -0.03914972 -0.026814895 -0.11585439 -0.052060388 0.03417475
00000000: 7009 f53d d781 7abd a4e7 17bd 0a6d 51ba
00000010: 6ca9 9bbd 392f 8cbd 6260 50bd b57c 473d
00000020: 98c2 25bd 32e3 073d 71c0 2bbd 754a 833d
00000030: e032 f43d c81f 1fbd dfc5 e5bc d062 37bd
00000040: 35e6 c83d 81b0 f03c 2daf 03bc e5ee 30bd
00000050: abc4 993d 26a9 593d 14f4 be3d 1b48 43bd
00000060: 0ca5 9d3d dc93 2b3d 24af 2d3c 7d73 bcbd
00000070: 4a54 b53d fc94 cc3d 26a7 c53c 9d10 b73d
00000080: 070b cb3d 9b11 843d ff76 8abd 406b 25bd
00000090: d2aa 3f3d 523f 42bd 3864 633d 878c febc
000000a0: cd89 3e3d 53d9 78bd f66a 8abd 8a4f d63d
000000b0: 9984 d33d 1d4e ca3d 1018 353d d82d 873c
000000c0: d161 0abd bdad 3bbd a78c 9e3c 1e97 f83b
000000d0: 595b 913d f9ec aebc 5566 1c3d 2edc d7ba
000000e0: c77d 3e3d c611 183d df70 e83b a6b1 a13c
000000f0: 5d9a 0abd 75e0 cfbc 309b 1a3d 7715 223d
00000100: 404b f53c 8d7d f4bc cb8e 77bd 8356 f93d
00000110: 90a9 d3bc 77e7 7b3c 82c2 8dbd b0e1 e03d
00000120: 6e6a 843d cb1f 093d 29ca 97bd db59 1fbd
00000130: 5dc1 f93d f7d2 003d f63e d03d 3c46 ddbc
00000140: 8347 f7bc 9a23 33bd 40dd a13d 0efa db3d
00000150: 14a9 803b 9025 803d de12 0b3d 8a92 9a3d
00000160: 274a f4bc 0b48 d7bc 647c 823d 4197 68bd
00000170: e004 0e3d 1159 e23d 0624 2bbd 3c81 8bbd
00000180: 91c4 213d f51f c03d e833 92bd bb1e 873d
00000190: 4ecb 5c3c e62f 85bb 5fe5 af3d aab5 5f3d
000001a0: b46f d33d 06fe a13d a358 38bc 3adf d13d
000001b0: c9fe cd3d 5bf7 e4bc e4e6 663d 72ac e83c
000001c0: 4489 b93d 3a0e e33c 5c5c 09bd 7100 983d
000001d0: 1f40 113d 97a3 a1bd 27b9 bb3b 5131 d83d
000001e0: 85fa 3d3d 0431 7ebd 05eb 02bd 454d 1ebd
000001f0: 92f8 493d 8049 c0bd 233d d6ba eb52 1fbc
00000200: 81f6 3d3d ae78 933b 9f98 52bd 2469 603c
00000210: 42a6 9e3d 23e1 e9bc 1512 be3d 1fe2 183d
00000220: 44eb ec3c 8c15 1fbd f5cc 36bc ceaa b73d
00000230: bc36 033d a6bf 943c 2e5b 20bd c5fe f43d
00000240: 064f 19bc 0ff6 60bc cea1 943d 495c 373c
00000250: b002 b33d 717a d63d df20 aa3d a7ab 42bd
00000260: 2707 dcbb 8f28 a33d 4443 843d 1d48 863d
00000270: 2079 8e3d db33 ffbb 1f95 cb3c 2858 4abc
00000280: c388 4f3d 80b9 c03d 496c a7bd 9f24 b9b9
00000290: b5ac ff3d eb30 60bd da29 8c3c 87ad e4bc
000002a0: 2766 923d 5f7d f53d c3ee 63bd 0bb9 d63d
000002b0: a933 d23d a9f4 a23d 86b6 6e3c a47b 31bc
000002c0: e5a4 bb3d f92f 91bc f6c7 373c 5443 9bbd
000002d0: 1aed 2cbd be9b 36bd 6330 b83d 42f7 f23d
000002e0: 67f8 d53d c746 9fbc bd84 953d 2780 093c
000002f0: 4f93 623c 16e4 80bd 9e09 a6bd b474 ec3d
00000300: 38f6 f53d d560 bb3d 22c5 a7bb 41fc df3c
00000310: 7ee4 dfbb 1d1e cf3d ee97 903d e9d4 15bd
00000320: 0917 a93c cf54 bfbc ff9b d5bd 7fff e6bb
00000330: 88e3 afbc 4d8e 1dbd d3bb b3bd 96bb b1bc
00000340: ec39 76bd ad99 d73b 3dc7 8d3d ca11 babb
00000350: f37e edbd e9fb 3f3d 374e 4c3d 1a50 563b
00000360: cf76 983d a8df 9abd f414 d43d 10e8 9dbd
00000370: 094d 53bd 9748 cabd fcc0 b9bc 3f1f 33bd
00000380: 38be 34bd 3b30 123d ab51 6b3c b7e8 1dbc
00000390: 83eb 493d e91d 06bd 3203 9d3b 554d e4bd
000003a0: 5a78 d4bb 3033 813d b972 eabd 41a5 7c3d
000003b0: 1ef5 7c3d 66d1 5cbc 6119 a63d ac67 903c
000003c0: d657 53bd 7f98 0e3c ea78 90bd 9a8a f1bd
000003d0: d55a 8c3d b6c0 a6bd 289b 0dbd 4095 8f3c
000003e0: 2c2c d1bd 6f62 acbd 0483 813d 755b 20bd
000003f0: e9aa dbbc 1145 edbd 463d 55bd d3fa 0b3d

lstm.bias_hh_l0 f4 [400]
-0.018025192 0.031199405 -0.0411875 -0.05094002 -0.027705876 0.053192604 -0.05796265 0.015366532
0.10654536 0.01520402 -0.0681616 -0.03149789 0.06920689 0.08769019 -0.026012307 0.087895684
0.07556183 0.014234591 0.080663964 0.06277665 -0.016821137 0.07928751 0.12781666 -0.05467087
-0.06219397 0.09556876 0.057024505 0.014017978 0.116107486 0.01745691 0.06839497 0.07529577
0.10964512 -0.010771223 0.07156134 -0.0021714352 -0.035920057 0.11429406 -0.01846407 0.02401443
-0.058265623 0.061990377 0.023720767 -0.06719478 -0.05779514 0.06060297 -0.0022291723 -0.065119974
-0.02520055 0.06904191 0.021893686 0.12257963 0.07378473 -0.06351844 0.07073098 0.040984802
0.03210087 0.12701406 -0.024170633 0.058743402 0.083439626 -0.009208902 0.06862683 -0.05260422
0.059055053 0.02255891 0.078582324 -0.044204358 0.08338661 0.10642946 -0.06128578 -0.055266377
-0.0034559339 -0.024422618 0.053249124 0.020359358 0.11664336 0.05108507 -0.057940274 0.06484196
0.0074986164 0.018792633 -0.06288873 0.06388133 -0.06975745 0.08784166 0.047512557 -0.009482732
0.0046994113 -0.013770333 0.04532727 0.06885561 0.084901735 -0.0027147972 0.07174853 0.028967537
0.050355013 0.1090988 0.03841406 0.023056548 0.07106775 0.0025838015 0.10161015 -0.055865575
-0.060523987 0.11389687 0.12272443 0.016477607 0.10027633 -0.00063150574 -0.0635198 -0.026283637
0.025860742 0.07830558 0.066408545 0.0622454 0.07850085 0.079997405 0.0658221 -0.049250137
-0.022887424 -0.071129836 0.03339 -0.067281716 -0.02097014 -0.063419536 -0.030343961 -0.053613152
0.07559193 -0.006331381 -0.037951596 0.09239872 -0.0118566705 0.029950447 -0.016170233 -0.0018476157
0.015404796 0.037555225 0.017973876 -0.031389773 0.09515531 -0.05327085 0.11329888 0.10121255
-0.032976747 0.076417685 -0.056694336 0.02138317 0.08134373 -0.05885791 0.052324723 -0.010176177
-0.056747008 -0.00032816138 0.107447736 -0.050485104 0.015015433 0.047393657 0.009089899 -0.03411146
0.10454462 0.021561382 -0.079279035 0.12068739 -0.015091215 -0.008001618 0.04925449 -0.038916975
0.08733105 0.0762392 0.050379697 0.03353168 0.0446579 -0.031311728 0.044043213 0.037123952
0.09316654 0.09366869 -0.043915227 0.061741687 -0.06742408 0.041644704 0.045906186 -0.012873883
-0.046332672 -0.004720749 -0.069232024 -0.06345928 0.06820489 -0.066447236 -0.020852644 0.003354232
0.08160209 0.099127665 0.08055352 0.11494959 0.08966939 0.09373259 -0.010227741 0.071211316
0.113465175 0.009945988 -0.008623593 0.07837211 -0.0767799 -0.100560226 -0.12635273 -0.052701354
-0.090103224 -0.05578556 -0.10692739 -0.038209453 0.059930068 0.09558 -0.031017426 0.08501953
0.09796361 -0.06368217 0.04740602 -0.112982474 -0.067839876 -0.08460047 -0.014245959 0.10219159
-0.010409525 0.08705911 0.101450704 -0.06828009 0.1054842 -0.06492878 0.07333156 -0.008950378
0.09055076 0.05638722 0.03083939 -0.052792884 -0.082633495 0.057791613 0.106972694 0.020067869
0.113371976 0.0079185385 0.1241775 -0.108376026 -0.07311869 0.007365537 -0.001859192 0.09960739
-0.080836706 -0.07536765 0.08898958 0.10636297 -0.05790606 0.028322121 0.08571396 -0.05324347
00000000: 91a9 93bc e595 ff3c 39b4 28bd 7ba6 50bd
00000010: 6ff7 e2bc 7de0 593d 3e6a 6dbd e8c3 7b3c
00000020: 7434 da3d 481a 793c 4f98 8bbd ee03 01bd
00000030: 58bc 8d3d ea96 b33d c317 d5bc a702 b43d
00000040: 29c0 9a3d 3438 693c 2633 a53d 0b91 803d
00000050: 7bcc 89bc 7d61 a23d 5fe2 023e 90ee 5fbd
00000060: 1bbf 7ebd 8eb9 c33d 8792 693d a9ab 653c
00000070: c3c9 ed3d cb01 8f3c a912 8c3d ab34 9a3d
00000080: 9f8d e03d c979 30bc c08e 923d a34e 0ebb
00000090: e920 13bd 0113 ea3d f641 97bc e9b9 c43c
000000a0: efa7 6ebd 9fe9 7d3d 0e52 c23c 6b9d 89bd
000000b0: 99ba 6cbd d23a 783d 4e17 12bb 9f5d 85bd
000000c0: 6271 cebc d865 8d3d 635a b33c 070b fb3d
000000d0: 731c 973d f515 82bd 67db 903d aedf 273d
000000e0: 347c 033d f90f 023e 7e01 c6bc ec9c 703d
000000f0: 65e2 aa3d efe0 16bc 398c 8c3d 8677 57bd
00000100: b6e3 713d 77cd b83c c5ef a03d a10f 35bd
00000110: 99c6 aa3d b0f7 d93d cc06 7bbd ff5e 62bd
00000120: f37c 62bb f111 c8bc c11b 5a3d abc8 a63c
00000130: b7e2 ee3d 943e 513d c852 6dbd ddcb 843d
00000140: f4b6 f53b 02f3 993c cecb 80bd 37d4 823d
00000150: fedc 8ebd 54e6 b33d 879c 423d 765d 1bbc
00000160: 85fd 993b f69c 61bc 16a9 393d 2c04 8d3d
00000170: f6e0 ad3d bdea 31bb e5f0 923d 544d ed3c
00000180: 0f41 4e3d 316f df3d 1058 1d3d 16e1 bc3c
00000190: f88b 913d ff54 293b fb18 d03d 4dd3 64bd
000001a0: 00e8 77bd c342 e93d f256 fb3d 0cfc 863c
000001b0: ad5d cd3d a28b 25ba ab16 82bd c850 d7bc
000001c0: e8d9 d33c ad5e a03d 3401 883d 08f5 7e3d
000001d0: 0ec5 a03d aed5 a33d bdcd 863d 83ba 49bd
000001e0: 687e bbbc 85ac 91bd f4c3 083d ffca 89bd
000001f0: 92c9 abbc 1ae2 81bd e693 f8bc 7799 5bbd
00000200: f1cf 9a3d 7977 cfbb 2273 1bbd 8a3b bd3d
00000210: 7b42 42bc a45a f53c 7077 84bc b22b f2ba
00000220: 6664 7c3c 82d3 193d f33d 933c 9092 00bd
00000230: cae0 c23d 8932 5abd 3e09 e83d 8748 cf3d
00000240: a012 07bd e080 9c3d 5238 68bd c22b af3c
00000250: 8b97 a63d fe14 71bd 7352 563d fbb9 26bc
00000260: 8d6f 68bd 130d acb9 8f0d dc3d 78c9 4ebd
00000270: 4a03 763c da1f 423d cded 143c 75b8 0bbd
00000280: 7d1b d63d 7fa1 b03c 0c5d a2bd f32a f73d
00000290: 2541 77bc 3819 03bc 13bf 493d 6867 1fbd
000002a0: 9fda b23d 4c23 9c3d f15a 4e3d 8458 093d
000002b0: 34eb 363d ba40 00bd a866 343d 490f 183d
000002c0: 19ce be3d 5fd5 bf3d 74e0 33bd dae4 7c3d
000002d0: a315 8abd a393 2a3d 2008 3c3d fbec 52bc
000002e0: 54c7 3dbd 83b0 9abb 85c9 8dbd f0f6 81bd
000002f0: 01af 8b3d 7d15 88bd 2ad3 aabc add2 5b3b
00000300: ff1e a73d 7203 cb3d 3ef9 a43d b16a eb3d
00000310: 96a4 b73d dff6 bf3d 4192 27bc 3dd7 913d
00000320: 6e60 e83d 7ff4 223c f849 0dbc 8f81 a03d
00000330: c83e 9dbd 85f2 cdbd 9c62 01be 60dd 57bd
00000340: 0a88 b8bd 667f 64bd bffc dabd 8481 1cbd
00000350: 3b79 753d 72bf c33d 4218 febc b81e ae3d
00000360: 25a1 c83d cc6b 82bd d12c 423d 5b63 e7bd
00000370: a2ef 8abd 0343 adbd e267 69bc d349 d13d
00000380: b68c 2abc 0c4c b23d 63c5 cf3d 6fd6 8bbd
00000390: 1a08 d83d 61f9 84bd db2e 963d 9ba4 12bc
000003a0: ad72 b93d 49f6 663d e3a2 fc3c 5a3d 58bd
000003b0: c03b a9bd e6b6 6c3d 8014 db3d 5f65 a43c
000003c0: 912f e83d c2bc 013c c650 fe3d 40f4 ddbd
000003d0: 40bf 95bd 9a5a f13b 22b0 f3ba f6fe cb3d
000003e0: b78d a5bd 5b5a 9abd 2b40 b63d d4d4 d93d
000003f0: e82e 6dbd cb03 e83c cd8a af3d d315 5abd

fc1.weight f4 [100, 100]
0.08535355 -0.0009635816 0.03358902 0.10600884 -0.09529213 -0.032815967 0.059974562 -0.10385781
-0.031423483 -0.019238228 -0.10250621 -0.058116965 0.033282466 -0.00681034 -0.058697592 0.102947325
0.07086767 0.07515387 -0.040952753 -0.047694188 0.0038114274 -0.11427025 -0.012478681 0.006586071
0.033062827 -0.031040857 -0.022285428 0.097780176 -0.024214767 -0.060813144 0.079998426 0.022862332
0.044984683 0.06266194 -0.040871017 -0.05003189 -0.036736287 -0.0034161243 0.071460746 -0.061783615
-0.00014827613 0.09678961 0.0037607262 -0.023053635 -0.07140409 -0.034389086 -0.038109124 0.0776365
-0.109893955 -0.08198109 0.009022101 -0.07739187 -0.083688796 -0.015923375 0.07213674 0.014863431
0.019030813 0.047977 -0.0039571584 0.118680455 0.0100964615 -0.009079117 -0.044852078 -0.050529473
-0.08141553 -0.0044172266 0.01506171 0.034368474 0.022274483 0.05973355 0.04013134 0.07773817
-0.08828398 -0.05573627 0.0002684882 0.01890069 -0.014496849 0.08887833 0.029598463 0.061736614
-0.00928936 -0.07645572 0.06349334 -0.061169 -0.017647922 0.06333068 0.014197979 -0.021255502
0.10482431 -0.05145854 0.031973314 0.106070854 0.053490147 0.07225206 -0.11839657 -0.04898749
0.005890005 0.075500675 0.0031525032 -0.08606251 -0.030051943 0.006127149 0.040364012 -0.09158548
0.10097757 -0.073032185 -0.07797039 0.07811752 0.026417315 0.0069409087 -0.07182201 0.09494863
0.037292115 -0.018977568 -0.03253091 0.0041708588 0.05361819 -0.06706423 -0.03969459 0.009716978
0.09158113 -0.002086562 0.07601875 0.082019076 0.056329023 -0.07639454 -0.058361076 -0.0015294888
-0.035499148 0.092286974 0.03311015 0.0042727254 0.06506689 0.0882218 -0.037361905 0.05135734
-0.011004531 0.08971747 0.0036184369 0.033262055 -0.10429517 0.05097329 0.009444607 0.011392214
0.033818237 0.07212819 -0.03493872 0.08747959 0.03200352 0.03697577 0.08201715 -0.026841935
-0.0062396745 0.08397057 -0.024244709 0.009270161 0.07725414 0.06757882 0.0885755 0.049093094
0.06775727 0.058649607 0.089759044 -0.05015565 -0.05405827 0.00615481 0.033683836 -0.065432936
-0.02341138 0.03970444 -0.031790286 -0.040690504 0.061592165 -0.009413509 -0.033436835 -0.05027798
0.008971089 -0.036807247 -0.033509936 -0.030471602 -0.03407635 -0.018386267 0.077848576 -0.027151182
-0.034320638 -0.023339363 -0.04505429 -0.04908562 -0.093189344 0.08877449 -0.05096653 0.046829153
0.065828815 0.03584368 0.049698915 0.050077416 -0.08264158 -0.08343249 -0.07969991 0.031785075
0.030467534 0.031181937 -0.06714921 -0.027650755 -0.00057727715 0.09640834 0.043547533 -0.020205956
-0.053116936 -0.083502725 -0.008757103 0.056103088 -0.007707523 0.026631052 -0.01609815 -0.0517026
0.03831706 0.060999934 0.08276093 -0.06663624 -0.022182565 0.08466192 0.0072099254 0.06751937
0.05184624 0.026000619 -0.08087241 0.09534891 -0.043534223 -0.08358224 -0.06545042 0.028267778
0.098556034 0.0746672 -0.008512652 0.019516034 -0.017995093 -0.022082632 -0.008853772 0.10093562
-0.08259301 -0.029802112 -0.00015417679 -0.02998237 -0.018014241 -0.03489684 0.026592035 -0.096717425
0.010900012 0.03429248 0.06541969 0.018108968 0.018768622 -0.034808442 -0.09382264 -0.053479355
00000000: d8cd ae3d de98 7cba a494 093d 2a1b d93d
00000010: 8528 c3bd 096a 06bd e3a7 753d 67b3 d4bd
00000020: e9b5 00bd 7d99 9dbc c7ee d1bd 0e0c 6ebd
00000030: 3253 083d 4629 dfbb e36c 70bd 0cd6 d23d
00000040: 1223 913d 46ea 993d 13be 27bd fb5a 43bd
00000050: 24c9 793b 8506 eabd 6273 4cbc f8cf d73b
00000060: e36c 073d 6549 febc ee8f b6bc f940 c83d
00000070: 0c5e c6bc 3417 79bd 37d6 a33d c949 bb3c
00000080: dc41 383d e754 803d 5e68 27bd 3dee 4cbd
00000090: ca78 16bd 0ee1 5fbb 035a 923d d110 7dbd
000000a0: 927a 1bb9 a239 c63d 8476 763b fada bcbc
000000b0: 4f3c 92bd 92db 0cbd 5018 1cbd e3ff 9e3d
000000c0: 1510 e1bd b4e5 a7bd 6fd1 133c a17f 9ebd
000000d0: 0865 abbd bd71 82bc 6dbc 933d c085 733c
000000e0: 82e6 9b3c 8883 443d 0dab 81bb bd0e f33d
000000f0: a16b 253c 94c0 14bc d0b6 37bd fef7 4ebd
00000100: 2fbd a6bd 62be 90bb 64c5 763c f5c5 0c3d
00000110: fa78 b63c 2bab 743d c360 243d 3135 9f3d
00000120: 3bce b4bd b74b 64bd e0c3 8c39 9fd5 9a3c
00000130: 3184 6dbc d805 b63d 7a78 f23c 88df 7c3d
00000140: 6632 18bc d194 9cbd cc08 823d 588c 7abd
00000150: 6092 90bc 84b3 813d a49e 683c 0520 aebc
00000160: 21ae d63d 31c6 52bd 73f6 023d ad3b d93d
00000170: 7c18 5b3d e3f8 933d e779 f2bd 1ba7 48bd
00000180: f100 c13b 19a0 9a3d 3a9a 4e3b 8b41 b0bd
00000190: 7e2f f6bc 40c6 c83b bc54 253d 2b91 bbbd
000001a0: 54cd ce3d e691 95bd f1ae 9fbd 14fc 9f3d
000001b0: 2069 d83c 9070 e33b 6b17 93bd 6d74 c23d
000001c0: 9ebf 183d d876 9bbc 223f 05bd b3ab 883b
000001d0: bf9e 5b3d f958 89bd cb96 22bd f633 1f3c
000001e0: e38e bb3d b4be 08bb b8af 9b3d 9ef9 a73d
000001f0: 43b9 663d be74 9cbd 060c 6fbd 2179 c8ba
00000200: 8e67 11bd f400 bd3d 829e 073d 3802 8c3b
00000210: ca41 853d a2ad b43d cc08 19bd 135c 523d
00000220: 594c 34bc cbbd b73d 4c23 6d3b cb3d 083d
00000230: b598 d5bd 5ec9 503d 8ebd 1a3c 69a6 3a3c
00000240: fe84 0a3d f2b7 933d e71b 0fbd 8028 b33d
00000250: 1f16 033d e873 173d 9cf8 a73d 9ee3 dbbc
00000260: 2f76 ccbb c3f8 ab3d d79c c6bc e0e1 173c
00000270: 6b37 9e3d c466 8a3d 1267 b53d d715 493d
00000280: 53c4 8a3d 923a 703d 97d3 b73d 0370 4dbd
00000290: 346c 5dbd 4aae c93b 10f8 093d b401 86bd
000002a0: 39c9 bfbc 1fa1 223d 8836 02bd 16ab 26bd
000002b0: 1148 7c3d 1e3b 1abc 10f5 08bd 48f0 4dbd
000002c0: 79fb 123c 32c3 16bd b741 09bd 959f f9bc
000002d0: a593 0bbd cc9e 96bc 136f 9f3d 286c debc
000002e0: cc93 0cbd 3132 bfbc d98a 38bd 010e 49bd
000002f0: 0eda bebd 66cf b53d 48c2 50bd edcf 3f3d
00000300: 42d1 863d d3d0 123d 1791 4b3d fa1d 4d3d
00000310: fd3f a9bd a7de aabd b539 a3bd 1131 023d
00000320: 0d97 f93c 4371 ff3c 8685 89bd d683 e2bc
00000330: 6a54 17ba bc71 c53d e65e 323d f686 a5bc
00000340: 2591 59bd 7a03 abbd f479 0fbc 5acc 653d
00000350: 648f fcbb 5d29 da3c 44e0 83bc 1bc6 53bd
00000360: 59f2 1c3d 11db 793d 907e a93d 9578 88bd
00000370: 36b8 b5bc 3b63 ad3d 3d41 ec3b 9847 8a3d
00000380: b95c 543d 40ff d43c 6fa0 a5bd 4a46 c33d
00000390: f150 32bd 2a2d abbd df0a 86bd d491 e73c
000003a0: bfd7 c93d 1eeb 983d a678 0bbc 17e0 9f3c
000003b0: 726a 93bc a3e6 b4bc 690f 11bc 56b7 ce3d
000003c0: 8626 a9bd 8f23 f4bc 84aa 21b9 969d f5bc
000003d0: 9a92 93bc fdef 0ebd 8ad7 d93c c913 c6bd
000003e0: f795 323c 4676 0c3d c2fa 853d 4259 943c
000003f0: a7c0 993c 4c93 0ebd 1626 c0bd 2b0d 5bbd

fc1.bias f4 [100]
-0.03841327 -0.046915017 -0.06313806 -0.008987652 -0.009638401 0.060878422 0.007258572 -0.04406355
0.0490297 0.069114536 0.0038507397 -0.09415177 -0.01722024 -0.023726739 0.042626385 0.09439593
-0.07797003 -0.08348552 0.09002894 -0.08219689 -0.006997655 -0.028831407 0.008527518 0.0843004
-0.023847865 0.06857095 -0.002641409 0.033161916 0.047930386 0.0013034287 0.042456888 0.078514524
-0.08650273 -0.025306277 -0.021704985 -0.029864876 0.006977654 -0.02902912 -0.0075123366 0.0037836093
0.007124489 0.006305308 -0.08731132 -0.006899305 -0.08744091 -0.090402424 0.051057965 -0.06103566
-0.09875312 -0.0014995288 -0.0010106703 -0.03991723 0.047825947 0.03323646 -0.08228017 0.07200381
0.02616998 -0.06890081 0.0013712497 -0.027941622 -0.075157486 0.06537732 0.07038377 -0.0019446145
-0.08570637 0.06710155 0.055502914 -0.03817723 0.07120842 0.0592731 -0.07390525 0.031386346
-0.0121824965 0.0021375567 0.05354812 0.0025901843 -0.04317931 -0.0989142 0.027954882 -0.0708241
0.088706665 -0.049342256 -0.020111224 -0.019082256 0.030400759 0.045657903 -0.057874173 -0.09579506
0.108219646 -0.06751172 -0.055205118 -0.02286148 -0.053204376 0.067138135 0.07108317 -0.10045506
0.08310344 0.008228209 0.046420194 -0.0512887
00000000: 3c57 1dbd f629 40bd 874e 81bd f240 13bc
00000010: 62ea 1dbc a75b 793d 51d9 ed3b fb7b 34bd
00000020: 5ed3 483d ec8b 8d3d b15c 7c3b a5d2 c0bd
00000030: 7611 8dbc 945e c2bc 0199 2e3d a752 c13d
00000040: c0ae 9fbd 75fa aabd 1861 b83d d856 a8bd
00000050: 964c e5bb d82f ecbc 01b7 0b3c b0a5 ac3d
00000060: 995c c3bc ed6e 8c3d 7d1b 2dbb cad4 073d
00000070: a752 443d cfd7 aa3a 46e7 2d3d 39cc a03d
00000080: 5828 b1bd 1c4f cfbc a7ce b1bc 2fa7 f4bc
00000090: cea4 e43b 7ace edbc 0c2a f6bb 6ef6 773b
000000a0: 8c74 e93b c29c ce3b 47d0 b2bd 9113 e2bb
000000b0: 3814 b3bd e824 b9bd 2822 513d 8700 7abd
000000c0: 133f cabd d68b c4ba 7878 84ba 4080 23bd
000000d0: 24e5 433d f422 083d 8182 a8bd bc76 933d
000000e0: 6d62 d63c de1b 8dbd 81bb b33a d4e5 e4bc
000000f0: 2bec 99bd 8be4 853d 5e25 903d 6fe2 feba
00000100: d286 afbd 8a6c 893d 0657 633d ba5f 1cbd
00000110: b8d5 913d 5ac8 723d a35b 97bd f88e 003d
00000120: 1899 47bc 4016 0c3b 4655 5b3d 15c0 293b
00000130: cadc 30bd 8793 cabd a301 e53c 3a0c 91bd
00000140: d7ab b53d 1b1b 4abd 4bc0 a4bc 6452 9cbc
00000150: 030b f93c c803 3b3d 780d 6dbd 3330 c4bd
00000160: 43a2 dd3d 9643 8abd c31e 62bd 0048 bbbc
00000170: d5ec 59bd b87f 893d 0e94 913d 62bb cdbd
00000180: 2332 aa3d 9ccf 063c 1a23 3e3d 1a14 52bd

fc2.weight f4 [1, 100]
-0.02230505 0.04634006 0.030081928 0.07940657 -0.10328287 -0.08473359 -0.071394116 0.07805788
-0.0964376 0.061628286 -0.03735486 0.060205825 -0.12341156 0.015523359 0.053921215 -0.052819274
-0.06749822 -0.094101444 0.044296388 0.012719378 0.094581954 -0.080737606 0.069641486 -0.03935679
-0.09600579 -0.09995045 0.08059645 0.047209367 0.09277439 0.0046773925 0.046049315 0.010532402
-0.08475564 0.009717206 0.06020034 0.04227171 0.029018838 -0.041262016 0.01995205 0.030392857
-0.09504969 -0.05893982 0.08004636 -0.06375722 0.05771046 0.034363233 0.046670098 -0.09158593
-0.07832156 -0.09527535 -0.122089095 0.04268132 -0.12607893 0.005514225 0.06865299 0.0028001636
0.053013492 0.017753638 -0.12174385 -0.029884458 0.018759623 -0.040482078 -0.10583695 -0.10028255
0.07243923 -0.12711926 -0.050947815 0.02473936 -0.022444779 -0.098847754 0.0742229 0.026211413
-0.008999325 -0.099552505 0.01637009 -0.082817696 0.030238621 0.08210034 0.079357766 0.0076897694
-0.074085236 0.0018611011 0.07459662 -0.098151304 -0.06582726 0.09142574 0.0460154 0.048518624
-0.03891632 0.08141894 0.038854547 0.08112774 -0.023081727 -0.05515261 0.08886884 0.03637704
-0.06981114 0.014832269 -0.066966526 -0.07444058
00000000: 15b9 b6bc 13cf 3d3d 606e f63c e99f a23d
00000010: f885 d3bd ce88 adbd 1437 92bd cfdc 9f3d
00000020: 1481 c5bd f16d 7c3d 6901 19bd 629a 763d
00000030: 33bf fcbd b055 7e3c 7edc 5c3d 0659 58bd
00000040: 823c 8abd 42b8 c0bd 2170 353d f064 503c
00000050: 2fb4 c13d c259 a5bd 32a0 8e3d 9634 21bd
00000060: af9e c4bd d2b2 ccbd c00f a53d 9c5e 413d
00000070: 8000 be3d d044 993b 359e 3c3d 1990 2c3c
00000080: 5d94 adbd ea34 1f3c a294 763d 1a25 2d3d
00000090: eab8 ed3c 5c02 29bd 7b72 a33c 71fa f83c
000000a0: 69a9 c2bd e16a 71bd 59ef a33d 2593 82bd
000000b0: ce61 6c3d 76c0 0c3d 2529 3f3d 6791 bbbd
000000c0: 0e67 a0bd b91f c3bd d909 fabd 9cd2 2e3d
000000d0: d61a 01be acb0 b43b f099 8c3d f382 373b
000000e0: ad24 593d 1470 913c d754 f9bd 40d0 f4bc
000000f0: c8ad 993c 89d0 25bd 0bc1 d8bd f060 cdbd
00000100: 055b 943d 8d2b 02be a8ae 50bd 33aa ca3c
00000110: 1dde b7bc b170 cabd 2d02 983d 51b9 d63c
00000120: e871 13bc 2fe2 cbbd 911a 863c 539c a9bd
00000130: fcb6 f73c 3924 a83d 5386 a23d 76fa fb3b
00000140: 00ba 97bd 31f0 f33a 1dc6 983d 8d03 c9bd
00000150: 71d0 86bd 6b3d bb3d a57a 3c3d 77bb 463d
00000160: b866 1fbd f9be a63d f225 1f3d 4d26 a63d
00000170: e415 bdbc b4e7 61bd de00 b63d 1700 153d
00000180: 25f9 8ebd 0c03 733c bf25 89bd 4e74 98bd

exp_avg f4 [400, 15]
1.2110473e-06 1.1502777e-05 8.569321e-06 8.522481e-06 1.4744675e-06 1.074336e-05 3.1516824e-06 1.3776677e-05
5.566713e-06 2.353485e-07 -4.3999222e-08 2.1723058e-06 1.0757327e-06 6.3192515e-06 1.7342057e-06 1.0071394e-06
7.7603245e-06 4.08277e-06 5.859531e-06 1.2525805e-06 7.251074e-06 2.6179296e-06 9.587309e-06 4.4981e-06
7.0761047e-07 7.2054966e-08 1.5857529e-06 8.2045824e-07 4.6416844e-06 1.3605868e-06 1.1451637e-06 9.822133e-06
6.0910456e-06 7.228099e-06 1.4254573e-06 9.06797e-06 2.9398923e-06 1.1509035e-05 5.057032e-06 1.4646943e-06
-2.42036e-08 2.5569607e-06 8.5423704e-07 5.7511766e-06 1.4880509e-06 9.742895e-07 8.632455e-06 5.689571e-06
5.679452e-06 1.2253055e-06 7.635053e-06 2.5298086e-06 9.702172e-06 4.3825758e-06 1.3804962e-06 3.741993e-08
2.6379e-06 6.997566e-07 5.217424e-06 1.0558949e-06 5.517557e-07 4.375214e-06 3.5675562e-06 3.1622837e-06
7.155469e-07 4.5349657e-06 1.4280618e-06 5.8844776e-06 2.4668373e-06 1.1917747e-06 4.317003e-08 1.7099009e-06
3.884691e-07 3.253738e-06 5.571432e-07 9.1215634e-07 6.792537e-06 4.085122e-06 5.63049e-06 1.1093244e-06
7.222289e-06 2.3374243e-06 9.239131e-06 4.0139876e-06 6.542335e-07 1.2037442e-10 1.7954053e-06 4.932009e-07
4.2667007e-06 7.6415495e-07 1.0652408e-06 1.0447974e-05 6.8872027e-06 7.1059503e-06 1.3333135e-06 8.884114e-06
2.773218e-06 1.138126e-05 4.8567713e-06 6.4795483e-07 1.4796069e-08 1.9038589e-06 9.196017e-07 5.3217996e-06
1.3967027e-06 9.193534e-07 8.053568e-06 5.092977e-06 5.7334682e-06 1.1576226e-06 7.1073705e-06 2.3807095e-06
9.068961e-06 4.1533217e-06 1.0954358e-06 4.0120206e-08 1.8943983e-06 7.0985527e-07 4.578016e-06 1.1319314e-06
1.291116e-06 1.0952588e-05 7.3574115e-06 7.7984605e-06 1.6333073e-06 1.0273057e-05 3.327067e-06 1.31178085e-05
5.769645e-06 1.7942654e-06 7.292165e-08 3.076139e-06 9.139603e-07 6.6974303e-06 1.3645493e-06 7.4348867e-07
5.604478e-06 4.2348056e-06 3.818279e-06 9.4168644e-07 5.526836e-06 1.9126583e-06 7.1703294e-06 3.2287583e-06
1.519871e-06 1.2084204e-08 2.351475e-06 4.7447185e-07 4.161486e-06 7.259542e-07 4.4510236e-07 4.922102e-06
4.288308e-06 2.3081693e-06 6.9164855e-07 3.5870453e-06 1.329277e-06 4.4720346e-06 2.2731617e-06 2.7375254e-06
2.9096189e-08 2.3734872e-06 3.0036702e-07 3.2747096e-06 3.344707e-07 1.0806727e-06 7.3072943e-06 5.396384e-06
5.7068996e-06 1.3876312e-06 8.158702e-06 2.8088575e-06 1.0448551e-05 4.75011e-06 2.8693246e-06 1.1635988e-07
3.7933196e-06 5.301247e-07 6.3369484e-06 7.6570615e-07 1.0039901e-06 9.647444e-06 5.1833504e-06 6.117428e-06
1.2628694e-06 7.720231e-06 2.6261189e-06 9.753229e-06 4.596476e-06 1.089299e-06 -1.9549154e-10 2.0897578e-06
8.770865e-07 4.8252155e-06 1.4017032e-06 1.3538098e-06 1.0908645e-05 6.62805e-06 8.880135e-06 1.5966489e-06
1.1105828e-05 3.4775162e-06 1.4167797e-05 5.980055e-06 3.3761208e-07 -1.021303e-07 2.3663717e-06 8.961115e-07
6.3534544e-06 1.6027793e-06 9.831127e-07 8.444638e-06 5.7294933e-06 5.7595653e-06 1.2461021e-06 7.759494e-06
2.6037985e-06 9.780128e-06 4.488195e-06 1.790721e-06 3.8203744e-08 2.8230984e-06 6.6504145e-07 5.3570216e-06
9.925781e-07 9.56209e-07 8.027987e-06 6.829729e-06 6.1780815e-06 1.2101415e-06 8.111856e-06 2.5296622e-06
1.0730044e-05 4.404254e-06 1.0639593e-06 -2.25309e-08 2.1097824e-06 6.508696e-07 5.260659e-06 1.0206669e-06
9.3038307e-07 8.081887e-06 5.12044e-06 6.478613e-06 1.1370998e-06 7.9124675e-06 2.3929513e-06 1.0114023e-05
4.2021793e-06 1.7819774e-07 -8.833883e-09 1.2499582e-06 6.972633e-07 4.3015416e-06 1.1029404e-06 6.812725e-07
00000000: 458b a235 0dfc 4037 f4c4 0f37 c7fb 0e37
00000010: 51e6 c535 613e 3437 7e81 5336 6122 6737
00000020: b3c9 ba36 1ab4 7c34 a8f9 3cb3 eec7 1136
00000030: e561 9035 f509 d436 dbc2 e835 0c2d 8735
00000040: 5732 0237 bafe 8836 fd9c c436 571e a835
00000050: 404e f336 b0af 2f36 2ed9 2037 63ee 9636
00000060: 9ff2 3d35 a3bc 9a33 0ed6 d435 763d 5c35
00000070: c4bf 9b36 689d b635 86b3 9935 bdc9 2437
00000080: af61 cc36 e688 f236 5752 bf35 a222 1837
00000090: f74a 4536 ee16 4137 93af a936 8396 c435
000000a0: 47e8 cfb2 4098 2b36 b94e 6535 3bfa c036
000000b0: 0ab9 c735 55c4 8235 1dd4 1037 0be9 be36
000000c0: 1f92 be36 2d75 a435 4e18 0037 c8c5 2936
000000d0: 83c6 2237 0a0e 9336 7d49 b935 a6b7 2033
000000e0: c706 3136 e8d6 3b35 5511 af36 46b8 8d35
000000f0: 5d1c 1435 cdce 9236 266a 6f36 9f37 5436
00000100: 0214 4035 0f2b 9836 d4ab bf35 4773 c536
00000110: f18b 2536 11f5 9f35 f369 3933 bf7f e535
00000120: c98e d034 cb5a 5a36 978e 1535 e8da 7435
00000130: 73eb e336 ee12 8936 8aed bc36 19e4 9435
00000140: fd56 f236 a5dc 1c36 c401 1b37 e4af 8636
00000150: 959e 2f35 635a 042f a8f9 f035 8264 0435
00000160: ae2a 8f36 5420 4d35 65f9 8e35 b549 2f37
00000170: 9f18 e736 a66f ee36 4ef4 b235 fb0c 1537
00000180: 861b 3a36 24f2 3e37 59f7 a236 1eef 2d35
00000190: cd31 7e32 1888 ff35 8cda 7635 e991 b236
000001a0: 5776 bb35 7cc9 7635 d01d 0737 57e4 aa36
000001b0: 1e62 c036 9c5f 9b35 d97b ee36 47c4 1f36
000001c0: e426 1837 c35c 8b36 e306 9335 a250 2c33
000001d0: 0843 fe35 e28c 3e35 dc9c 9936 deec 9735
000001e0: 684a ad35 02c1 3737 afdf f636 22d6 0237
000001f0: 0338 db35 725a 2c37 9346 5f36 8f14 5c37
00000200: e098 c136 7dd2 f035 1a99 9c33 aa6f 4e36
00000210: e056 7535 7dba e036 8f25 b735 2794 4735
00000220: 190e bc36 b418 8e36 c41e 8036 33c8 7c35
00000230: 2973 b936 385b 0036 a998 f036 a5ad 5836
00000240: 5ffe cb35 e49a 4f32 08ce 1d36 eaba fe34
00000250: e4a2 8b36 31df 4235 67f6 ee34 8928 a536
00000260: 49e4 8f36 0ce6 1a36 baa9 3935 f8b8 7036
00000270: 9c69 b235 7c0e 9636 9f8c 1836 54b6 3736
00000280: 32ef f932 3348 1f36 2142 a134 15c3 5b36
00000290: 4e91 b334 a20b 9135 2e31 f536 9612 b536
000002a0: e57d bf36 a53e ba35 5ce1 0837 ce7f 3c36
000002b0: 2f4c 2f37 2263 9f36 9f8e 4036 85e1 f933
000002c0: bc90 7e36 e44d 0e35 f9a1 d436 ed8a 4d35
000002d0: d6c0 8635 75db 2137 a4ec ad36 4e44 cd36
000002e0: dd7f a935 2486 0137 613c 3036 cda1 2337
000002f0: 6e3b 9a36 0734 9235 faf1 56af c43d 0c36
00000300: ed70 6b35 49e8 a136 2822 bc35 8db4 b535
00000310: 4604 3737 8466 de36 e4fb 1437 704c d635
00000320: 2b53 3a37 465f 6936 3ab2 6d37 48a8 c836
00000330: 0d41 b534 ba52 dbb3 f5cd 1e36 508c 7035
00000340: c22f d536 141f d735 7ff3 8335 72ad 0d37
00000350: f93f c036 4a42 c136 be3f a735 c62e 0237
00000360: ebbc 2e36 5415 2437 4d99 9636 b458 f035
00000370: 7615 2433 7674 3d36 4d85 3235 77c0 b336
00000380: b938 8535 1757 8035 f1af 0637 ed2a e536
00000390: 514d cf36 256c a235 2818 0837 44c3 2936
000003a0: 3005 3437 41c8 9336 5dcd 8e35 f989 c1b2
000003b0: c995 0d36 6bb7 2e35 b784 b036 d9fd 8835
000003c0: 70bf 7935 7197 0737 3fd0 ab36 dd62 d936
000003d0: 749e 9835 cabf 0437 9796 2036 66af 2937
000003e0: 7200 8d36 9f56 3f34 d4c3 17b2 3dc4 a735
000003f0: 922b 3b35 f655 9036 be08 9435 b1e0 3635

exp_avg_sq f4 [400, 15]
3.0879521e-09 4.240396e-08 2.010054e-08 2.057484e-08 4.3034425e-09 1.01005924e-07 1.764012e-08 1.7678394e-07
4.182913e-08 1.8839394e-08 1.0914855e-11 7.0425614e-08 3.924215e-11 9.6528964e-08 3.2978058e-11 1.0293891e-09
8.516087e-09 2.2806514e-09 6.213361e-09 1.4250776e-09 2.981533e-08 5.826167e-09 5.1554984e-08 1.3904932e-08
5.4983382e-09 7.2387916e-12 2.0370784e-08 1.8353976e-11 2.8451753e-08 1.4452116e-11 1.1235914e-09 1.2951074e-08
4.3121537e-09 8.329287e-09 1.5842904e-09 3.7197555e-08 6.558488e-09 6.416333e-08 1.5632786e-08 7.0769226e-09
1.2715013e-11 2.4676314e-08 3.247338e-11 3.361158e-08 2.3320845e-11 2.7194552e-10 4.9873297e-09 1.5481425e-09
1.9673563e-09 3.7730516e-10 8.9888585e-09 1.547567e-09 1.5597259e-08 3.6861556e-09 1.5417986e-09 3.2769462e-12
5.5584484e-09 5.56052e-12 7.631101e-09 4.299412e-12 3.706274e-11 1.8728531e-10 3.3742917e-10 2.9262667e-10
5.1956286e-11 1.3903388e-09 2.130805e-10 2.4213929e-09 5.039996e-10 2.2296778e-10 7.147061e-13 8.567791e-10
1.2115674e-12 1.1976757e-09 8.816299e-13 1.6846272e-10 1.6202434e-09 4.285965e-10 9.764605e-10 2.325079e-10
5.0559885e-09 9.520148e-10 8.765212e-09 2.2522013e-09 1.0954792e-09 8.6052335e-13 3.5870598e-09 1.2462899e-12
4.7602455e-09 1.2329494e-12 3.2592062e-09 4.222059e-08 1.9317778e-08 2.1394744e-08 4.570258e-09 9.8559916e-08
1.8783691e-08 1.7245789e-07 4.4908813e-08 1.7523515e-08 1.9664919e-11 6.6408155e-08 5.7862447e-11 9.339089e-08
3.994424e-11 1.7278686e-09 2.3187976e-08 7.005154e-09 1.3475793e-08 2.4250935e-09 5.740844e-08 9.8862225e-09
9.988403e-08 2.3652124e-08 1.0042742e-08 1.0711949e-11 3.7152358e-08 2.5860992e-11 5.1969813e-08 2.1976533e-11
3.5137127e-09 4.09846e-08 1.8693024e-08 2.7123273e-08 4.9044853e-09 1.1689012e-07 2.0063762e-08 2.0311403e-07
4.7967937e-08 1.7942602e-08 1.5034826e-11 7.135417e-08 4.2204813e-11 1.0253848e-07 3.601967e-11 9.000305e-11
7.047217e-10 6.3319927e-10 6.471733e-10 1.2476366e-10 2.862832e-09 5.085292e-10 4.971852e-09 1.2182374e-09
4.1803355e-10 1.1912108e-12 1.6261014e-09 3.2122044e-12 2.343103e-09 2.3195332e-12 1.045779e-10 1.2793129e-09
1.0069356e-09 8.0092877e-10 1.4577876e-10 3.2071448e-09 5.8964467e-10 5.66086e-09 1.4190596e-09 5.061808e-10
1.7558988e-12 2.0039888e-09 3.5252628e-12 2.9394387e-09 2.3006174e-12 1.4149507e-10 1.0837157e-09 6.1517885e-10
1.2562038e-09 1.9505725e-10 5.1787197e-09 7.932308e-10 8.9023295e-09 1.8855637e-09 8.033807e-10 1.0975295e-12
3.0372567e-09 2.0165185e-12 4.245291e-09 1.8387126e-12 1.2814749e-09 2.371586e-08 5.323113e-09 9.807779e-09
1.7834256e-09 4.1592532e-08 7.2853923e-09 7.259193e-08 1.7440652e-08 7.01142e-09 1.5108942e-11 2.5762436e-08
3.3727625e-11 3.655223e-08 2.2544461e-11 2.141324e-09 2.960819e-08 8.160171e-09 1.4228522e-08 2.986268e-09
6.6701325e-08 1.2257911e-08 1.1611528e-07 2.9133966e-08 1.2322238e-08 1.7756983e-11 4.6066866e-08 4.1818604e-11
6.269088e-08 2.7580613e-11 7.5965934e-10 1.492443e-08 3.1863518e-09 5.851514e-09 1.0521425e-09 2.535401e-08
4.2494204e-09 4.3858872e-08 1.0130422e-08 3.9237262e-09 4.426709e-12 1.5013342e-08 1.2813698e-11 2.0870633e-08
9.488092e-12 7.730965e-10 2.9836855e-09 9.048833e-09 4.6659125e-09 1.0916615e-09 2.3175835e-08 4.5008983e-09
4.0478714e-08 1.0738066e-08 4.5484896e-09 1.129845e-11 1.6455584e-08 2.1065307e-11 2.1826063e-08 1.1893991e-11
1.9932902e-09 1.9753859e-08 9.80724e-09 1.362977e-08 2.8003024e-09 6.33159e-08 1.1485314e-08 1.09770426e-07
2.737787e-08 1.1828662e-08 1.0845664e-11 4.2879307e-08 2.6685914e-11 5.9358047e-08 1.989785e-11 2.790093e-10
00000000: d433 5431 a61f 3633 8ea9 ac32 8dbc b032
00000010: 7bdd 9331 98e8 d833 0987 9732 00d2 3d34
00000020: 9da7 3333 44d4 a132 2304 402d e43c 9733
00000030: bc96 2c2e 5c4b cf33 fe09 112e 697a 8d30
00000040: 264e 1232 a5b9 1c31 4d7d d531 76dc c330
00000050: 4d0e 0033 822f c831 4e6d 5d33 8ae2 6e32
00000060: e5eb bc31 3db1 fe2c d4fb ae32 7b71 a12d
00000070: 1166 f432 8b3e 7e2d dc6c 9a30 6d7f 5e32
00000080: 1b2a 9431 9718 0f32 43be d930 25c3 1f33
00000090: 1259 e131 2aca 8933 dc48 8632 4529 f331
000000a0: 54af 5f2d caf7 d332 c7d1 0e2e 535c 1033
000000b0: e021 cd2d ee80 952f 045d ab31 6cc6 d430
000000c0: 1932 0731 fb6c cf2f 6b6d 1a32 2cb2 d430
000000d0: bcfa 8532 894f 7d31 37e7 d330 3798 662c
000000e0: a1fc be31 b6a4 c32c f019 0332 a945 972c
000000f0: ef00 232e 21ec 4d2f ef80 b92f 8bdf a02f
00000100: 9481 642e 3316 bf30 d448 6a2f 9865 2631
00000110: d289 0a30 da27 752f 012c 492b 7882 6b30
00000120: 5183 aa2b 789b a430 2128 782b 0a3a 392f
00000130: 3faf de30 989f eb2f 2634 8630 28a5 7f2f
00000140: f2b8 ad31 0bd8 8230 cf95 1632 25c5 1a31
00000150: bf8f 9630 3e37 722b 3980 7631 5366 af2b
00000160: 908f a331 af85 ad2b 90f8 5f31 0856 3533
00000170: 3ef0 a532 8ac7 b732 6a08 9d31 e3a7 d333
00000180: c659 a132 dd2c 3934 c3e1 4033 9e86 9632
00000190: 76f9 ac2d 459c 8e33 537b 7e2e 2f8e c833
000001a0: 37ad 2f2e f979 ed30 e62e c732 fcb1 f031
000001b0: 2a83 6732 b2a6 2631 3f91 7633 11d8 2932
000001c0: d47f d633 922b cb32 7288 2c32 5472 3c2d
000001d0: 7391 1f33 c779 e32d 6a35 5f33 c14e c12d
000001e0: e375 7131 0b07 3033 6592 a032 b5fc e832
000001f0: 4f84 a831 0605 fb33 ae58 ac32 8f17 5a34
00000200: 4e05 4e33 3320 9a32 6b3f 842d 5f3b 9933
00000210: 659e 392e 2033 dc33 8b6a 1e2e 36eb c52e
00000220: 62b6 4130 700d 2e30 c6e4 3130 d92d 092f
00000230: 79bb 4431 90c8 0b30 dfd4 aa31 eb6e a730
00000240: fed0 e52f e4a5 a72b 5b7d df30 ee09 622c
00000250: 4e04 2131 ff38 232c 20f8 e52e d2d3 af30
00000260: 6664 8a30 5a28 5c30 1349 202f b064 5c31
00000270: 8e14 2230 7381 c231 b908 c330 4f23 0b30
00000280: ec1e f72b 8bb6 0931 7d11 782c 27ff 4931
00000290: 3de4 212c 5293 1b2f dbf1 9430 5d19 2930
000002a0: bea6 ac30 bc77 562f 80f0 b131 a80a 5a30
000002b0: dcf0 1832 3093 0131 e4d4 5c30 ab76 9a2b
000002c0: fcb7 5031 5ee6 0d2c f9dd 9131 4d63 012c
000002d0: e41f b030 bab7 cb32 99e6 b631 117f 2832
000002e0: b61c f530 79a3 3233 fd52 fa31 d6e3 9b33
000002f0: 66d0 9532 1ae9 f031 50e6 842d 324c dd32
00000300: ee55 142e 9afd 1c33 9d4d c62d 9226 1331
00000310: 1955 fe32 d030 0c32 b471 7432 fb36 4d31
00000320: 713d 8f33 dd96 5232 0d5b f933 4542 fa32
00000330: c7b1 5332 2c31 9c2d 0edb 4533 90eb 372e
00000340: ada0 8633 059a f22d 46d0 5030 2b33 8032
00000350: e5f6 5a31 760e c931 f99a 9030 0fca d932
00000360: 4c02 9231 575f 3c33 110a 2e32 76d1 8631
00000370: 40c0 9b2c b0f6 8032 c46b 612d 0247 b332
00000380: 91ea 262d d481 5430 8d09 4d31 3075 1b32
00000390: cd51 a031 6d09 9630 3314 c732 52a6 9a31
000003a0: d1da 2d33 847a 3832 f048 9c31 b2c3 462d
000003b0: 365a 8d32 db4a b92d 057c bb32 c63d 512d
000003c0: 55fa 0831 32af a932 b37c 2832 5d28 6a32
000003d0: 716f 4031 49f8 8733 f250 4532 eeba eb33
000003e0: 932c eb32 0137 4b32 87cc 3e2d 4c2a 3833
000003f0: 56bb ea2d ddf0 7e33 fa05 af2d 1163 992f
